model_weights/bad-pose-0_split_2.pt (torch, 473611 bytes, 26 tensors)

conv1.bias f4 [64]
3.119351e-05 -8.521998e-06 -3.4635815e-07 2.181877e-06 2.104219e-05 -4.1105127e-06 2.2432284e-06 -2.7772278e-06
3.7701368e-05 5.462683e-06 9.759381e-06 -9.37041e-06 1.0125657e-05 1.3730077e-05 8.908923e-06 7.270558e-06
-1.2857583e-06 -1.6995657e-05 1.9434731e-07 -3.0561337e-06 5.652411e-07 1.4572967e-06 -2.2603392e-06 2.7549977e-06
6.4227256e-06 3.9962965e-06 8.043869e-07 2.7590791e-05 7.388652e-06 -6.0075054e-06 -3.000378e-06 1.0092208e-06
2.8567167e-06 1.3070038e-05 3.8351495e-06 2.3757343e-06 -1.4149962e-05 9.1291795e-06 6.834649e-06 2.1167828e-06
2.0855157e-06 -1.3464945e-06 -1.0556163e-06 -3.6130248e-06 3.5877147e-06 1.3395592e-06 4.439382e-06 -1.574205e-05
2.671708e-06 -3.2375342e-06 -2.0491498e-06 -7.4255746e-07 -9.927976e-07 8.375364e-06 6.971803e-06 3.256688e-05
5.5664586e-06 -3.388879e-06 -2.4547135e-06 -1.8450617e-06 1.8715241e-06 -2.9037808e-06 1.8964869e-05 3.6030544e-06
00000000: c7d5 0238 b4f9 0eb7 1af3 b9b4 5d6c 1236
00000010: c283 b037 09ed 89b6 5f8a 1636 6960 3ab6
00000020: 8921 1e38 174c b736 39bc 2337 9b35 1db7
00000030: 5ee1 2937 3b5a 6637 8877 1537 9ef5 f336
00000040: 5292 acb5 e591 8eb7 c8ad 5034 fa17 4db6
00000050: 13bb 1735 5598 c335 55b0 17b6 80e2 3836
00000060: cb82 d736 ed17 8636 0ced 5735 c672 e737
00000070: 0aec f736 1494 c9b6 1a5a 49b6 9074 8735
00000080: 05b6 3f36 6347 5b37 afaf 8036 ce6e 1f36
00000090: a065 6db7 8729 1937 3055 e536 0d0e 0e36
000000a0: e3f4 0b36 33b9 b4b5 b3ae 8db5 4b77 72b6
000000b0: 78c4 7036 e7ca b335 00f6 9436 cc0d 84b7
000000c0: 984b 3336 6a44 59b6 2084 09b6 2954 47b5
000000d0: 4440 85b5 ea83 0c37 55ef e936 6c98 0838
000000e0: 84c7 ba36 7f6c 63b6 a8bb 24b6 d6a3 f7b5
000000f0: 1431 fb35 93de 42b6 bf16 9f37 01cc 7136

conv1.lin.weight f4 [64, 2]
-0.22348838 -0.07574205 0.010742972 0.22927429 0.111087546 -0.010729556 -0.16136128 -0.03040381
-0.10412879 -0.038729142 0.27843943 0.12892258 0.027366813 0.23701973 -0.10453913 0.21553776
0.12287251 -0.036379024 0.17163622 0.07591205 -0.081039704 0.122660905 -0.010338721 -0.33282492
0.078431346 -0.03102175 0.25190473 -0.016945722 -0.13049313 -0.111765645 0.095119186 0.32890284
-0.21307953 -0.0077304184 0.024213362 -0.30328336 0.022639118 0.36203867 -0.027071245 0.33014807
0.24106018 0.1319918 -0.36542585 -0.0093590915 -0.18777858 -0.15958004 0.19997102 -0.045981135
0.34799838 -0.0031773876 -0.1923826 -0.015707374 0.24693277 0.06706842 -0.26539943 -0.03554185
0.031725608 -0.29726082 0.05976348 -0.0093257995 -0.12152331 -0.24689646 -0.24964666 0.15753366
0.24062589 0.06514917 0.30856895 -0.12546146 -0.21571991 0.23785684 0.14090279 0.18163292
-0.08535718 -0.026657203 0.07651617 0.07327229 0.05899451 0.34013972 -0.20621616 0.34754387
-0.18564624 0.34989524 0.2475648 0.0011406988 -0.10146083 -0.27834097 0.23474154 -0.014585125
-0.13468926 0.26143304 -0.23085037 0.27611294 0.3162081 0.085260965 -0.044275954 -0.18087912
0.06502569 0.02367568 0.023967898 0.19152845 0.27045164 0.017586121 0.13942477 0.07918551
-0.15580258 0.2516612 -0.008343266 0.15904112 0.28393653 -0.06521608 0.104821116 -0.09364024
-0.24963643 0.12580813 -0.10722307 0.3201218 0.34699446 0.0051318 0.28648046 0.021922693
-0.009673697 0.37817523 -0.22050512 -0.17759684 0.19888498 -0.14260443 -0.28955647 0.15335791
00000000: 23da 64be a61e 9bbd 4a03 303c e1c6 6a3e
00000010: de81 e33d 05cb 2fbc e43b 25be 6911 f9bc
00000020: 7a41 d5bd 73a2 1ebd 9d8f 8e3e 4804 043e
00000030: 5e30 e03c 4db5 723e 9d18 d6bd eeb5 5c3e
00000040: 95a4 fb3d 2c02 15bd 68c1 2f3e c777 9b3d
00000050: 25f8 a5bd a435 fb3d bd63 29bc 0768 aabe
00000060: 9da0 a03d 5321 febc a8f9 803e c1d1 8abc
00000070: fe9f 05be 63e5 e4bd d9cd c23d f465 a83e
00000080: 8531 5abe 734f fdbb 1a5b c63c f547 9bbe
00000090: ac75 b93c 225d b93e 84c4 ddbc 2b09 a93e
000000a0: 7bd8 763e dc28 073e 1919 bbbe e056 19bc
000000b0: 0749 40be f368 23be 34c5 4c3e b756 3cbd
000000c0: d82c b23e b83b 50bb f2ff 44be c0ac 80bc
000000d0: f2db 7c3e 2b5b 893d 6fe2 87be 5594 11bd
000000e0: b6f2 013d 9232 98be 8dca 743d 3dcb 18bc
000000f0: 37e1 f8bd 6dd2 7cbe 60a3 7fbe 8150 213e
00000100: a266 763e ee6c 853d c0fc 9d3e f878 00be
00000110: aee5 5cbe be90 733e d248 103e fbfd 393e
00000120: bfcf aebd 3560 dabc 82b4 9c3d c80f 963d
00000130: 3aa4 713d cb26 ae3e 542a 53be 45f1 b13e
00000140: 0c1a 3ebe 7825 b33e a081 7d3e 8083 953a
00000150: b2ca cfbd b582 8ebe 1660 703e 73f6 6ebc
00000160: fbeb 09be 8dda 853e 0a64 6cbe ad5e 8d3e
00000170: 07e6 a13e 4d9d ae3d b45a 35bd 6038 39be
00000180: 302c 853d 80f3 c13c 5358 c43c 0920 443e
00000190: a378 8a3e c510 903c 5ec5 0e3e 032c a23d
000001a0: b68a 1fbe bdd9 803e 32b2 08bc addb 223e
000001b0: 2160 913e 0290 85bd 74ac d63d 74c6 bfbd
000001c0: b1a0 7fbe d9d3 003e c597 dbbd 01e7 a33e
000001d0: 42a9 b13e a928 a83b 91ad 923e 3897 b33c
000001e0: 6d7e 1ebc 2fa0 c13e 18cc 61be f2db 35be
000001f0: 81a8 4b3e e506 12be bf40 94be db09 1d3e

conv2.bias f4 [64]
0.070780374 -0.008724629 -0.14521816 -0.06523039 0.009616869 0.0021071192 -0.060310565 -0.0072659394
-0.07116661 -0.18570064 0.08786395 0.026696788 -0.14927423 -0.062166344 -0.14281587 -0.17169164
-0.28031573 -0.020139987 -0.33030358 -0.09680147 -0.089886464 -0.094238885 -0.089069165 -0.056369007
0.014980076 -0.024834981 -0.0062768445 -0.06404618 0.08779955 -0.071655095 -0.123661615 0.0008463732
-0.26570323 -0.014594476 -0.13530457 0.013124443 -0.21065497 -0.08692302 -0.0014908297 -0.045002807
0.016247248 -0.22420275 -0.0744913 0.10075974 -0.040734615 -0.008777749 -0.040728588 -0.10825365
0.07056534 -0.24445787 -0.2157325 -0.086700186 0.04888342 0.026517622 -0.27974138 0.15717484
-0.07668871 -0.08541154 -0.19718009 -0.10224059 -0.00881516 -0.084419 -0.0848596 -0.0724324
00000000: 4df5 903d bff1 0ebc 12b4 14be 8397 85bd
00000010: 1290 1d3c 9817 0a3b 3608 77bd 1e17 eebb
00000020: cdbf 91bd 4f28 3ebe 04f2 b33d 39b3 da3c
00000030: 58db 18be 23a2 7ebd 533e 12be efcf 2fbe
00000040: 8b85 8fbe 9dfc a4bc 8d1d a9be d93f c6bd
00000050: 6516 b8bd 5100 c1bd e569 b6bd 30e3 66bd
00000060: fe6e 753c bb72 cbbc fdad cdbb a52a 83bd
00000070: 40d0 b33d e8bf 92bd 4d42 fdbd 25df 5d3a
00000080: 410a 88be ab1d 6fbc 488d 0abe e707 573c
00000090: f0b5 57be b204 b2bd f267 c3ba dd54 38bd
000000a0: f318 853c 6895 65be e58e 98bd 1f5b ce3d
000000b0: 57d9 26bd 8cd0 0fbc 05d3 26bd 17b4 ddbd
000000c0: 9084 903d 2a53 7abe fbe8 5cbe de8f b1bd
000000d0: fb39 483d 7c3b d93c 433a 8fbe 71f2 203e
000000e0: f80e 9dbd 3fec aebd 94e9 49be 8463 d1bd
000000f0: 766d 10bc dee3 acbd dfca adbd 7057 94bd

conv2.lin.weight f4 [64, 64]
-0.067155264 -0.05264393 -0.13457128 -0.2081453 -0.12494961 0.16764545 0.18509638 -0.19529893
-0.06330902 0.09102172 -0.27250552 -0.1862423 -0.1877485 0.039784983 -0.058649 -0.06312601
0.018085293 0.15081964 0.14286414 -0.13120812 -0.098258354 -0.093909964 -0.2619188 0.1672557
0.24560861 -0.30046397 0.030831445 -0.32931572 -0.111353286 -0.05022761 -0.19161935 -0.35632485
0.046675257 0.08552685 -0.31831628 -0.0065818657 -0.12790908 -0.055504758 0.11205454 -0.10023598
-0.09672381 -0.01185872 0.11255877 0.054560203 0.026821302 -0.39235565 0.123199314 0.058057908
0.22886325 -0.099853314 0.13747619 0.18530247 -0.2802848 -0.0020524976 0.14061712 -0.016469259
-0.46186033 -0.21819301 0.23764795 0.2578799 0.0075891563 0.01189094 -0.22313267 -0.3958591
-0.1406886 0.06913565 -0.03280189 -0.26998162 -0.17537968 -0.2908603 0.13674329 -0.16654308
-0.29713407 -0.071926735 -0.06232434 -0.050867863 -0.11615858 -0.24200252 0.05738065 -0.059469856
-0.19750366 -0.089984424 -0.05160341 0.1536661 -0.27184096 0.10393838 -0.1692496 0.0048366114
-0.3291513 -0.18041754 -0.06673462 -0.21987438 -0.09866571 -0.11184781 0.15083918 -0.04537974
-0.002326806 -0.0649375 -0.08111321 -0.050052196 -0.25029805 0.10575186 0.16020557 0.20145461
0.112955354 -0.33644348 -0.20554987 -0.06627806 -0.022179902 -0.037743814 -0.17613387 0.13369326
-0.04423801 0.21497954 0.004309172 -0.3180304 0.039659645 0.21286055 -0.109595366 0.08586613
-0.07781661 0.12135453 -0.22934411 -0.079392515 0.21922241 -0.09204436 0.056473963 -0.22352394
0.030289728 0.05508091 0.2023824 0.022837235 0.14245391 -0.32195994 0.035003822 -0.030990515
0.27075398 -0.08773094 -0.19752197 0.14077064 -0.09973532 0.23733088 0.065080546 0.075814165
-0.012201949 0.020294098 0.058711685 0.27878797 -0.31498328 -0.111328505 -0.06360599 0.252467
0.0455297 -0.25697955 0.03319135 0.09700065 0.22248472 -0.0014875793 -0.09939554 -0.14283623
-0.2963115 0.2323095 -0.1946853 -0.14733435 -0.116149426 -0.065816574 -0.25213653 0.19758414
0.042090088 0.17189121 0.020184759 -0.12340441 -0.053198874 0.14422373 0.043853275 -0.06494946
0.12556025 0.10821358 -0.22251669 -0.31010428 0.14992125 -0.054405782 0.18903893 -0.05142688
0.03744463 0.0037697142 -0.13224398 -0.24304086 0.067828655 -0.13238832 -0.09346426 0.060348634
0.051395655 -0.12255017 -0.3174666 0.1280169 0.042575806 -0.16092537 0.11184857 -0.010385853
-0.12276749 0.0620734 -0.020094384 -0.22862165 -0.11721521 -0.12087124 -0.080539316 0.01784229
0.00055904494 -0.16864185 0.14867897 0.16907477 -0.053449683 -0.081714906 0.107666686 -0.1401737
-0.021561932 -0.0017238664 0.17381334 -0.13952754 -0.053476572 -0.19324172 0.08538706 -0.221342
0.023909504 -0.17571077 0.14105044 0.13738486 -0.24063425 0.03193135 0.17665099 0.15434116
0.14586802 -0.05751892 -0.29851437 -0.049640596 0.051782556 -0.0052150288 -0.1601392 -0.2711273
0.041075777 -0.09777856 -0.26724142 -0.063952476 0.1671418 0.22008595 -0.14123502 -0.11091772
0.019031828 0.22491948 -0.13903616 -0.24899513 0.050474655 -0.01434376 0.12584995 -0.009394077
00000000: b388 89bd 29a1 57bd 0ecd 09be 0b24 55be
00000010: 95e5 ffbd 40ab 2b3e e889 3d3e 71fc 47be
00000020: 29a8 81bd 9869 ba3d d885 8bbe 4db6 3ebe
00000030: 2541 40be 94f5 223d ef39 70bd 3648 81bd
00000040: 9c27 943c 7770 1a3e fa4a 123e 6c5b 06be
00000050: ad3b c9bd de53 c0bd 391a 86be 1445 2b3e
00000060: d380 7b3e 6ad6 99be 3a92 fc3c 129c a8be
00000070: 310d e4bd 77bb 4dbd dd37 44be 3670 b6be
00000080: 8e2e 3f3d b328 af3d 5afa a2be b1ac d7bb
00000090: 99fa 02be f558 63bd da7c e53d 8548 cdbd
000000a0: 2217 c6bd 144b 42bc 3685 e63d 857a 5f3d
000000b0: 59b8 db3c d7e2 c8be ec4f fc3d 21ce 6d3d
000000c0: 215b 6a3e e57f ccbd 8fc6 0c3e eebf 3d3e
000000d0: 7d81 8fbe 3283 06bb effd 0f3e 8aea 86bc
000000e0: f578 ecbe fd6d 5fbe fc59 733e d608 843e
000000f0: 75ae f83b 38d2 423c e47c 64be 0bae cabe
00000100: ac10 10be fe96 8d3d 465b 06bd 083b 8abe
00000110: bb96 33be a4eb 94be 6f06 0c3e 458a 2abe
00000120: f521 98be 534e 93bd cf47 7fbd d25a 50bd
00000130: 8de4 edbd 82cf 77be f907 6b3d aa96 73bd
00000140: 663e 4abe c149 b8bd 195e 53bd a55a 1d3e
00000150: bd2e 8bbe a5dd d43d c44f 2dbe 707c 9e3b
00000160: 8586 a8be 60bf 38be 29ac 88bd c026 61be
00000170: 3f11 cabd 7710 e5bd 9675 1a3e 1be0 39bd
00000180: 547d 18bb f4fd 84bd af1e a6bd 8803 4dbd
00000190: 1127 80be 6e94 d83d ee0c 243e 1e4a 4e3e
000001a0: 2355 e73d 5242 acbe aa7b 52be cbbc 87bd
000001b0: a0b2 b5bc 4299 1abd 705c 34be e3e6 083e
000001c0: ea32 35bd 9923 5c3e f433 8d3b e1d4 a2be
000001d0: 2772 223d 1ef8 593e 8973 e0bd 95da af3d
000001e0: 515e 9fbd b988 f83d 2fd9 6abe 8b98 a2bd
000001f0: d77b 603e c181 bcbd 3e51 673d 76e3 64be
00000200: 2a22 f83c 859c 613d 553d 4f3e 2715 bb3c
00000210: 70df 113e efd7 a4be 2b60 0f3d d2df fdbc
00000220: 44a0 8a3e 47ac b3bd 3343 4abe 2e26 103e
00000230: 0842 ccbd de06 733e f348 853d 7544 9b3d
00000240: afea 47bc cf3f a63c aa7b 703d 4cbd 8e3e
00000250: 7d45 a1be 3300 e4bd db43 82bd 5b43 813e
00000260: 5a7d 3a3d d392 83be a7f3 073d 47a8 c63d
00000270: 09d3 633e e1fa c2ba e48f cbbd a943 12be
00000280: 24b6 97be 8be2 6d3e 955b 47be d1de 16be
00000290: c0df edbd d7ca 86bd 0a18 81be 7f53 4a3e
000002a0: a866 2c3d 4004 303e 825a a53c 74bb fcbd
000002b0: 10e7 59bd 63af 133e 7e9f 333d 3904 85bd
000002c0: de92 003e 159f dd3d 6adb 63be fdc5 9ebe
000002d0: f584 193e 99d8 5ebd 6c93 413e fea4 52bd
000002e0: 8a5f 193d 4f0d 773b f76a 07be b4df 78be
000002f0: c0e9 8a3d ce90 07be 316a bfbd 2130 773d
00000300: 4084 523d 95fb fabd fb8a a2be dd16 033e
00000310: f863 2e3d 9fc9 24be dd10 e53d 6d29 2abc
00000320: 866d fbbd ad40 7e3d fa9c a4bc cb1b 6abe
00000330: 870e f0bd 578b f7bd ccf1 a4bd ff29 923c
00000340: df8c 123a 73b0 2cbe 4d3f 183e f021 2d3e
00000350: 0eee 5abd 255a a7bd 5a80 dc3d b289 0fbe
00000360: a6a2 b0bc 5cf3 e1ba 20fc 313e 4fe0 0ebe
00000370: 400a 5bbd 28e1 45be 69df ae3d 7aa7 62be
00000380: dddd c33c 86ed 33be 876f 103e 9eae 0c3e
00000390: d368 76be 72ca 023d ffe3 343e 9c0b 1e3e
000003a0: 6d5e 153e f698 6bbd e0d6 98be f053 4bbd
000003b0: f219 543d d5e2 aabb 88fb 23be 33d1 8abe
000003c0: 133f 283d 2040 c8bd ded3 88be 84f9 82bd
000003d0: 3827 2b3e 365e 613e ea9f 10be d428 e3bd
000003e0: a3e8 9b3c 4b51 663e 7f5f 0ebe 94f8 7ebe
000003f0: 83be 4e3d 1702 6bbc cfde 003e 9de9 19bc

conv3.bias f4 [128]
1.0997305e-05 -1.2358144e-05 8.17865e-05 -7.508869e-06 -2.1969783e-05 -1.4217276e-05 -3.3862587e-05 2.6968817e-05
5.13904e-06 3.3477525e-06 -5.8648373e-05 -1.0152739e-06 3.9408533e-05 -1.0825816e-05 3.4310608e-05 -5.255246e-06
4.1954536e-05 4.690815e-06 3.1565127e-05 -1.3407304e-05 5.0165168e-06 -7.2360954e-06 -2.3616504e-07 6.613921e-05
2.4323444e-05 2.4037987e-05 3.720342e-05 3.122726e-06 -7.67403e-05 0.00012561891 6.9487277e-07 2.9487414e-06
-8.351775e-06 6.9158225e-05 5.2271036e-05 -7.2029493e-06 9.256651e-08 -1.4665751e-05 1.4440758e-05 7.7538534e-05
1.1677415e-05 1.1696485e-05 -2.2237666e-06 4.566643e-06 -8.910253e-06 2.9254932e-05 -1.0915768e-05 2.2237993e-05
6.297661e-07 1.29041655e-05 -7.9687e-07 -2.0058746e-05 -8.751897e-06 1.8266026e-05 1.4061817e-05 -0.00010392885
2.0230733e-05 4.138523e-06 3.43246e-06 1.200342e-05 4.079206e-06 7.65503e-05 -1.8653661e-06 2.65518e-05
-1.0382614e-05 2.7087577e-05 -1.0709435e-06 4.8636837e-05 -1.707329e-05 -2.0007683e-05 2.8677721e-05 -2.5637446e-05
2.1408263e-05 1.9205245e-05 -1.6719627e-05 3.4420216e-05 1.769161e-05 1.16299625e-05 -5.283474e-05 -2.433851e-05
-6.775256e-06 -1.5651497e-07 2.6693206e-05 1.1981636e-05 1.4279707e-05 1.8455825e-06 3.5735142e-05 -1.8943165e-06
7.115822e-05 1.26083705e-05 2.1991793e-06 -9.7500515e-06 3.7245704e-06 2.3379596e-05 7.0656565e-06 7.1369956e-05
3.3948866e-06 -0.0001096023 1.593738e-05 3.1875902e-06 -8.306268e-06 9.306179e-06 -4.5119858e-05 4.0896823e-05
-0.00012330679 6.935316e-05 1.9643341e-05 8.1576654e-05 2.7552953e-05 4.5073124e-05 -9.112703e-06 3.629914e-05
-7.0674316e-05 -1.1637148e-05 -5.6981075e-06 2.3984965e-05 5.0810777e-05 -1.6835531e-05 7.266776e-06 2.670089e-05
6.910734e-05 8.573014e-05 -9.992948e-06 1.4484869e-05 3.3384684e-05 -3.0159776e-05 0.000100334866 -7.720464e-06
00000000: 1181 3837 d355 4fb7 cb84 ab38 b2f4 fbb6
00000010: c04b b8b7 bc86 6eb7 ad07 0eb8 183b e237
00000020: 0470 ac36 f3a9 6036 36fd 75b8 8c44 88b5
00000030: 974a 2538 87a0 35b7 bce8 0f38 3856 b0b6
00000040: 57f8 2f38 cb65 9d36 cc64 0438 efef 60b7
00000050: 8d53 a836 96cd f2b6 8d94 7db4 38b4 8a38
00000060: 330a cc37 2fa5 c937 de0a 1c38 0690 5136
00000070: a3ef a0b8 92b8 0339 4b87 3a35 fee2 4536
00000080: 9a1e 0cb7 0a09 9138 993d 5b38 ddb0 f1b6
00000090: fac8 c633 ec0c 76b7 9546 7237 2f9c a238
000000a0: 1eea 4337 053c 4437 053c 15b6 2a3b 9936
000000b0: 3f7d 15b7 7d68 f537 de22 37b7 ba8b ba37
000000c0: 320d 2935 f87e 5837 7de8 55b5 d443 a8b7
000000d0: 1dd5 12b7 fe39 9937 0beb 6b37 60f4 d9b8
000000e0: 2bb5 a937 a4dd 8a36 3759 6636 4c62 4937
000000f0: 1de0 8836 a189 a038 7e5d fab5 8ebb de37
00000100: fd30 2eb7 213a e337 57bd 8fb5 68ff 4b38
00000110: 9c38 8fb7 2cd6 a7b7 f090 f037 ff0f d7b7
00000120: e595 b337 f31a a137 2041 8cb7 6d5e 1038
00000130: 7168 9437 4f1e 4337 df9a 5db8 8d2a ccb7
00000140: 0257 e3b6 820e 28b4 39eb df37 bc04 4937
00000150: e092 6f37 bbb5 f735 51e2 1538 3840 feb5
00000160: c73a 9538 8a88 5337 9d95 1336 2794 23b7
00000170: a2f3 7936 4d1f c437 8715 ed36 74ac 9538
00000180: b5d3 6336 49da e5b8 43b1 8537 62ea 5536
00000190: 265b 0bb7 bc21 1c37 143f 3db8 a188 2b38
000001a0: ea4b 01b9 b271 9138 c1c7 a437 2214 ab38
000001b0: 8421 e737 e60c 3d38 c3e2 18b7 e83f 1838
000001c0: fc36 94b8 2c3d 43b7 5f32 bfb6 5233 c937
000001d0: a81d 5538 073a 8db7 21d5 f336 bafb df37
000001e0: b8ed 9038 05ca b338 63a7 27b7 0a04 7337
000001f0: 8806 0c38 a0ff fcb7 df6a d238 2487 01b7

conv3.lin.weight f4 [128, 64]
-0.08188119 -0.17122076 -0.06096315 -0.20244706 0.07151177 0.16278489 0.1548396 -0.08102792
-0.039535087 -0.12843 -0.08186591 -0.19671895 0.13511065 0.1936182 -0.097322956 -0.18530348
0.033898808 0.024368152 -0.14794178 -0.060730558 0.041812625 -0.10512789 -0.002725277 0.038760267
0.012317632 -0.20027414 0.012066403 0.0028471628 -0.1197584 -0.20924444 0.10431387 0.04319877
-0.103935055 0.017339077 -0.090648375 0.04067443 0.11485348 -0.059091296 0.10559066 -0.017689725
0.047972184 -0.19455567 0.13220607 -0.015873423 0.08879265 0.032557186 -0.020939047 0.04394803
0.05253385 -0.22612783 0.0014245854 0.0516414 0.14073695 -0.1275201 0.035546236 -0.060248744
0.0050056526 0.0013964252 0.046510264 -0.13248268 -0.15636024 -0.14045918 0.20500726 0.017044937
0.054079834 -0.21322918 0.022409454 -0.11039475 -0.028838566 0.0029949697 -0.14355789 0.081324525
-0.13689332 0.10172411 -0.23120117 0.023204433 0.120857626 0.03290987 -0.09807949 0.08010733
-0.10695468 -0.113735646 -0.18307494 -0.21066381 0.09767385 -0.14481054 -0.055476133 0.13833739
0.041993983 0.11196928 -0.1286207 -0.15537551 0.23227061 0.0068685208 0.0049889223 -0.07367466
0.028214676 -0.006443655 0.0776611 -0.13603857 0.066135146 0.09865968 -0.021343755 0.13899796
0.026057241 0.11078353 -0.09166394 0.06908004 -0.15294783 -0.18809634 0.0048496914 -0.11393723
0.022708956 0.04090469 -0.07050961 -0.076310374 0.022896037 0.1864872 -0.15233208 0.10280195
-0.20093364 0.21438786 -0.13594358 -0.044465095 0.101470724 -0.0810091 0.13625693 -0.0048322575
-0.07068401 -0.029933596 0.26315486 -0.106226 -0.15797919 0.056082357 0.23398788 -0.09848877
0.037392866 0.22779946 -0.020543361 0.0041699987 0.010434428 0.15063864 0.20823309 0.18228778
-0.20081826 0.03009943 -0.00772692 0.0075888867 -0.042788144 -0.05334805 -0.0060329805 0.18567851
-0.111522436 0.07227371 0.046478443 0.04265427 0.0025554379 -0.23931664 0.14438902 -0.12226158
0.19054426 0.04780805 0.036503345 0.07790891 0.078943476 -0.002129573 -0.12958658 -0.24250941
0.04539446 0.017072493 0.110911064 -0.12597792 0.07607267 0.11684944 0.08692908 0.051645223
0.07068992 -0.07372965 0.117002144 0.045337316 -0.26358166 0.017307593 0.019762166 -0.13024864
-0.11714177 0.0062312633 -0.0531143 0.13307902 0.055150285 0.07483816 0.042244792 0.071482345
-4.519086e-05 0.012719788 0.04610176 -0.096647926 0.026706707 0.08917608 0.21406503 -0.10219737
0.11974349 -0.03388036 -0.09046292 -0.122048184 -0.12554117 0.008078939 -0.041377697 0.021777572
0.001065879 0.19099471 -0.2933798 0.06211725 0.13236374 -0.05935792 -0.049715832 -0.14604488
0.030074943 -0.06992376 0.09989029 -0.17940703 0.08626366 0.053576767 -0.111695856 -0.053657617
0.18941948 0.051758815 -0.06844966 -0.0974482 0.029324314 -0.081801794 0.21808782 0.087930135
0.05657543 -0.07462026 -0.26768208 0.1702464 0.18474364 0.18029308 -0.23270014 -0.042792242
-0.07246771 -0.0990259 -0.20865712 -0.080576584 0.21243298 0.092752986 -0.064300165 0.14968972
-0.046451688 0.020331705 -0.07952782 0.028714225 0.24463151 -0.119801864 -0.093760505 0.0007645986
00000000: 53b1 a7bd 7f54 2fbe 7fb4 79bd 484e 4fbe
00000010: c374 923d 15b1 263e 468e 1e3e f7f1 a5bd
00000020: 8bef 21bd 2783 03be 50a9 a7bd b170 49be
00000030: 725a 0a3e d943 463e 4251 c7bd 32c0 3dbe
00000040: 7ad9 0a3d b89f c73c 0d7e 17be 9bc0 78bd
00000050: b743 2b3d 4b4d d7bd 909a 32bb 16c3 1e3d
00000060: e5cf 493c aa14 4dbe 2ab2 453c 7797 3a3b
00000070: e443 f5bd 2d44 56be 83a2 d53d 32f1 303d
00000080: e7db d4bd ae0a 8e3c dba5 b9bd 3b9a 263d
00000090: 4d38 eb3d b709 72bd ea3f d83d 0bea 90bc
000000a0: 7b7e 443d 9a39 47be 0761 073e fb08 82bc
000000b0: ecd8 b53d af5a 053d 5d88 abbc d902 343d
000000c0: bc2d 573d 0e8e 67be 27b9 ba3a ef85 533d
000000d0: 591d 103e a194 02be ee98 113d 63c7 76bd
000000e0: 7506 a43b 4108 b73a 8c81 3e3d 8aa9 07be
000000f0: e61c 20be 88d4 0fbe 6ced 513e d3a1 8b3c
00000100: d182 5d3d c058 5abe 0894 b73c a516 e2bd
00000110: db3e ecbc 4147 443b d700 13be 798d a63d
00000120: c32d 0cbe bb54 d03d 00c0 6cbe 3917 be3c
00000130: 3484 f73d 80cc 063d e6dd c8bd 500f a43d
00000140: 0e0b dbbd 3cee e8bd ff77 3bbe 41b8 57be
00000150: 3a09 c83d 3749 14be f13a 63bd 51a8 0d3e
00000160: e201 2c3d 2650 e53d 25b5 03be c21a 1fbe
00000170: 59d8 6d3e 5411 e13b 1d7a a33b bde2 96bd
00000180: 7722 e73c 4c25 d3bb c80c 9f3d b24d 0bbe
00000190: dd71 873d 160e ca3d 19d9 aebc 7b55 0e3e
000001a0: ff75 d53c 7ae2 e23d 4eba bbbd d679 8d3d
000001b0: 5b9e 1cbe 549c 40be 29ea 9e3b ec57 e9bd
000001c0: 2208 ba3c ad8b 273d 5867 90bd 9d48 9cbd
000001d0: 7890 bb3c 80f6 3e3e f1fc 1bbe d489 d23d
000001e0: 8cc1 4dbe 7e88 5b3e cb34 0bbe 0821 36bd
000001f0: e2cf cf3d 19e8 a5bd f086 0b3e ea57 9ebb
00000200: c7c2 90bd 4d37 f5bc 3cbc 863e 048d d9bd
00000210: 4cc5 21be 9db6 653d 859a 6f3e 7bb4 c9bd
00000220: 4329 193d 4344 693e 8d4a a8bc 7ca4 883b
00000230: 2af5 2a3c 0441 1a3e 0e3b 553e a6a9 3a3e
00000240: 4da3 4dbe 1493 f63c 1a32 fdbb 32ac f83b
00000250: 9f42 2fbd 7c83 5abd 4fb0 c5bb 8222 3e3e
00000260: e065 e4bd 3d04 943d 2e60 3e3d 3eb6 2e3d
00000270: 2279 273b 6c0f 75be b7da 133e 4764 fabd
00000280: 091e 433e 60d2 433d 8884 153d b58e 9f3d
00000290: 1ead a13d 4e90 0bbb 58b2 04be 6354 78be
000002a0: 8bef 393d 9ddb 8b3c 5725 e33d 5b00 01be
000002b0: fdcb 9b3d c24e ef3d e007 b23d f189 533d
000002c0: e0c5 903d 92ff 96bd d29e ef3d 9fb3 393d
000002d0: 2df4 86be a7c8 8d3c 44e4 a13c e65f 05be
000002e0: 06e8 efbd a02f cc3b 618e 59bd de45 083e
000002f0: 44e5 613d c044 993d e008 2d3d 5665 923d
00000300: 518b 3db8 a866 503c 33d5 3c3d 59ef c5bd
00000310: 06c8 da3c f3a1 b63d dd33 5b3e db4c d1bd
00000320: 133c f53d 22c6 0abd a044 b9bd 66f4 f9bd
00000330: dd8d 00be 875d 043c a97b 29bd e166 b23c
00000340: f7b4 8b3a 1e94 433e e135 96be a86e 7e3d
00000350: 5c8a 073e 4a21 73bd d4a2 4bbd ca8c 15be
00000360: ba5f f63c 3034 8fbd 4893 cc3d 7ab6 37be
00000370: 00ab b03d 5073 5b3d ccc0 e4bd 17c8 5bbd
00000380: 2ef7 413e 0d01 543d 562f 8cbd ec92 c7bd
00000390: 8b39 f03c b387 a7bd 6a52 5f3e b714 b43d
000003a0: a3bb 673d 82d2 98bd a00d 89be 1355 2e3e
000003b0: 702d 3d3e c09e 383e f248 6ebe eb46 2fbd
000003c0: f369 94bd 17ce cabd 36aa 55be 5605 a5bd
000003d0: 0888 593e 47f5 bd3d ceaf 83bd 4348 193e
000003e0: 2044 3ebd ad8e a63c 7bdf a2bd 183a eb3c
000003f0: af80 7a3e ae5a f5bd 8205 c0bd 586f 483a

conv4.bias f4 [256]
-0.14420523 -0.06316728 -0.0081879385 -0.052128986 -0.1334528 -0.05557944 -0.006485626 -0.04377257
-0.023283375 -0.05571146 -0.013674227 0.026531044 -0.12461434 -0.034868836 -0.067424774 -0.07575663
-0.00052406354 0.046368055 -0.20913117 -0.058758996 -0.058389556 -0.07020002 0.0365894 -0.06270236
-0.009286875 -0.084841095 -0.004126683 -0.049482584 -0.027123692 -0.05655383 0.015273587 -0.035397924
-0.13080111 -0.053867303 0.08308491 0.0066906484 0.034941338 -0.08133572 0.0027926748 -0.06646622
-0.07627237 0.018288892 -0.08381671 -0.11628081 0.005672861 -0.061074227 0.014030942 -0.04238638
-0.02564388 -0.14748679 0.07859431 0.018587705 0.054864213 -0.009204322 0.0629967 0.0050901603
-0.15941545 -0.0496495 -0.015057429 0.010556354 0.0152885495 -0.09223143 -0.051904567 0.021561494
-0.0010614636 0.002564893 -0.059853062 -0.10841268 -0.0577499 0.025820415 -0.02149177 -0.011059231
-0.02044986 -0.14486624 0.02135475 -0.03697278 -0.028468594 -0.12245003 0.013166034 0.030991472
-0.07052318 -0.094573796 0.027621469 -0.012248371 -0.026346715 -0.056904517 -0.05029878 -0.0019029021
-0.08774414 -0.068909295 0.02679539 -0.088901274 0.024464507 -0.048392203 -0.054208856 -0.0508966
0.05831299 0.0050318097 -0.043934714 0.01991867 -0.07900808 -0.0154746715 -0.04588621 -0.03502748
-0.01878729 -0.16562405 -0.0046038153 -0.054149177 -0.039504457 -0.07359237 -0.04482503 -0.048053727
0.021014819 0.063805684 0.0035119788 -0.06856305 -0.05768997 -0.07707622 -0.01892362 0.0017193385
-0.07653678 0.0075162295 -0.007703255 0.031508885 -0.0135892695 0.08895393 -0.04159159 0.029838566
-0.055692848 0.054195486 0.02332666 0.022385648 -0.22254264 0.09432282 -0.12690195 -0.09401966
-0.017782604 0.03299191 -0.063086435 -0.17405239 -0.10656332 -0.008135298 -0.119898155 -0.06631045
-0.008276277 -0.23549199 0.0047181756 -0.08144994 0.018841373 -0.013709736 -0.027252914 -0.0031033768
0.0124408575 -0.033506397 -0.057343133 -0.085820384 -0.019623807 -0.08838963 -0.061078638 -0.029212996
-0.016333679 0.029918097 -0.05981443 -0.089766406 -0.03361954 -0.06568676 -0.16303395 -0.23106885
-0.17996152 -0.10903167 -0.042512543 0.013858792 -0.0055141435 -0.24502373 -0.07275614 0.014393773
0.0001923781 -0.04426273 -0.049730442 -0.02822287 -0.026914518 -0.061665338 -0.013034486 -0.0006826716
-0.04165493 -0.059207864 -0.1452747 0.01696589 -0.19325598 -0.06882108 0.024252009 -0.03801335
0.010457633 -0.027646538 -0.10024172 0.117259 0.117877916 -0.016950741 -0.04732196 -0.20328735
-0.031799916 -0.0020683105 0.09389791 0.029052623 -0.04199942 -0.023422083 0.03576241 -0.04318855
0.011686567 0.024084052 -0.08537591 -0.005467681 -0.075628705 -0.029218469 -0.026707282 0.01693048
-0.16843696 -0.11470117 -0.11225048 -0.0340555 -0.06166545 -0.06446022 -0.025292464 -0.010963382
-0.040602207 -0.054924447 -0.048145592 -0.12482775 -0.08474956 -0.024357809 -0.11781868 -0.105683304
-0.025396453 -0.10103066 -0.017529579 0.028947473 0.051451802 0.010557418 0.062034216 -0.06435994
-0.06775824 -0.017367566 -0.10741379 -0.037028465 -0.05143721 -0.06667172 -0.08618897 0.054728407
-0.19164318 -0.09157142 0.04505998 0.04980116 -0.119313516 0.019648597 -0.078599215 -0.061468437
00000000: 89aa 13be d95d 81bd b426 06bc 3485 55bd
00000010: daa7 08be 44a7 63bd 6085 d4bb de4a 33bd
00000020: c7bc bebc b331 64bd dd09 60bc a257 d93c
00000030: ce35 ffbd a0d2 0ebd 0016 8abd 4b26 9bbd
00000040: 4f61 09ba 6eec 3d3d 7b26 56be 46ad 70bd
00000050: e329 6fbd 07c5 8fbd c4de 153d 186a 80bd
00000060: fa27 18bc 2bc1 adbd 2039 87bb 40ae 4abd
00000070: 8132 debc fda4 67bd 113e 7a3c 6afd 10bd
00000080: baf0 05be f6a3 5cbd 6c28 aa3d 3a3d db3b
00000090: a61e 0f3d 5893 a6bd 4f05 373b 711f 88bd
000000a0: b034 9cbd 96d2 953c 18a8 abbd a224 eebd
000000b0: 68e3 b93b f828 7abd 09e2 653c 579d 2dbd
000000c0: 1d13 d2bc c706 17be 0ef6 a03d 3e45 983c
000000d0: 4cb9 603d b9cd 16bc 6a04 813d 5ccb a63b
000000e0: ce3d 23be 465d 4bbd 6fb3 76bc 8ff4 2c3c
000000f0: d37c 7a3c d5e3 bcbd e299 54bd bba1 b03c
00000100: cf20 8bba c417 283b 7c28 75bd 7807 debd
00000110: 298b 6cbd 5685 d33c 820f b0bc c731 35bc
00000120: 7786 a7bc d157 14be 28f0 ae3c c570 17bd
00000130: f836 e9bc 15c7 fabd 59b6 573c d4e1 fd3c
00000140: 756e 90bd e8af c1bd 6b46 e23c 64ad 48bc
00000150: 11d5 d7bc b614 69bd 1806 4ebd cd6a f9ba
00000160: 33b3 b3bd 5120 8dbd 0182 db3c df11 b6bd
00000170: ca69 c83c e736 46bd 1b0a 5ebd f478 50bd
00000180: 9ad9 6e3d e1e1 a43b e3f4 33bd 7b2c a33c
00000190: fdce a1bd 7a89 7dbc 2ef3 3bbd fa78 0fbd
000001a0: cee7 99bc 5a99 29be 9adb 96bb 87cb 5dbd
000001b0: 6dcf 21bd 99b7 96bd 739a 37bd fcd3 44bd
000001c0: 4527 ac3c 8eac 823d 3a29 663b c96a 8cbd
000001d0: 514c 6cbd 23da 9dbd b505 9bbc 6d5b e13a
000001e0: 51bf 9cbd b44a f63b 966b fcbb 760f 013d
000001f0: 87a5 5ebc 7a2d b63d f15b 2abd 0270 f43c
00000200: 2f1e 64bd 16fc 5d3d 8d17 bf3c 1b62 b73c
00000210: 38e2 63be 532c c13d 96f2 01be 618d c0bd
00000220: d3ac 91bc 8622 073d 7633 81bd ca3a 32be
00000230: df3d dabd ea49 05bc 2a8d f5bd c6cd 87bd
00000240: 3999 07bc d024 71be ed9a 9a3b 3acf a6bd
00000250: 3959 9a3c cd9e 60bc 8141 dfbc 0662 4bbb
00000260: bdd4 4b3c 013e 09bd a2e0 6abd 99c2 afbd
00000270: 1bc2 a0bc 9f05 b5bd 982d 7abd 1850 efbc
00000280: 35ce 85bc cc16 f53c faff 74bd 73d7 b7bd
00000290: a5b4 09bd c886 86bd 5ff2 26be 509d 6cbe
000002a0: d547 38be ff4b dfbd a221 2ebd fd0f 633c
000002b0: fdaf b4bb 80e7 7abe 2c01 95bd dcd3 6b3c
000002c0: 1ab9 4939 d64c 35bd 26b2 4bbd a633 e7bc
000002d0: d67b dcbc cb94 7cbd 998e 55bc 51f5 32ba
000002e0: 5c9e 2abd f283 72bd e4c2 14be 0dfc 8a3c
000002f0: e5e4 45be 11f2 8cbd 26ac c63c e3b3 1bbd
00000300: 7e56 2b3c fe7a e2bc 884b cdbd 7d25 f03d
00000310: fa69 f13d 48dc 8abc acd4 41bd 8f2a 50be
00000320: a140 02bd 7e8c 07bb 8c4d c03d c4ff ed3c
00000330: 9507 2cbd abdf bfbc 9b7b 123d 7ae6 30bd
00000340: 0479 3f3c eb4b c53c 91d9 aebd 3c2a b3bb
00000350: 39e3 9abd 925b efbc 3bc9 dabc cab1 8a3c
00000360: bd7a 2cbe 72e8 eabd 94e3 e5bd c87d 0bbd
00000370: e994 7cbd b803 84bd 2432 cfbc c29f 33bc
00000380: 804e 26bd 75f8 60bd 5034 45bd b1a5 ffbd
00000390: 2d91 adbd 078a c7bc ec4a f1bd 7d70 d8bd
000003a0: 390c d0bc 2ae9 cebd 319a 8fbc 4023 ed3c
000003b0: 20bf 523d 05f9 2c3c 9717 7e3d 25cf 83bd
000003c0: d5c4 8abd 6d46 8ebc c3fb dbbd 29ab 17bd
000003d0: d3af 52bd 2f8b 88bd d883 b0bd e52a 603d
000003e0: 1c3e 44be cc89 bbbd d090 383d 4dfc 4b3d
000003f0: a55a f4bd 18f6 a03c a0f8 a0bd 54c6 7bbd

conv4.lin.weight f4 [256, 128]
-0.070789486 -0.1227811 0.12910058 0.021145668 0.11435766 -0.10641714 -0.13807401 -0.1746411
-0.087743655 0.0054362784 0.2106601 -0.011312576 -0.0804749 0.053635012 0.055157024 -0.0010684822
-0.10315033 -0.03426628 -0.24783044 -0.017911939 -0.11002983 -0.008123738 -0.08822533 0.099691026
-0.43354866 0.0949127 0.1369085 -0.098679624 0.1123941 0.19104995 -0.11811792 -0.062632084
-0.034019746 -0.09173524 -0.06487396 -0.029506482 -0.05783626 -0.07656899 -0.10317747 -0.18875338
-0.15561597 0.11267095 -0.06302099 -0.16351193 0.046912454 0.025199508 -0.026167065 0.10441042
0.04114621 0.0031989014 0.07820232 0.14434952 -0.13225694 0.09794263 0.06289249 -0.2336239
-0.0482124 -0.009565127 -0.1757834 -0.18292284 -0.039185002 -0.05990749 -0.12119853 0.0696005
-0.0053649903 0.093996815 -0.024124287 -0.039094586 0.034538366 -0.09030232 -0.14916493 -0.11136414
0.021686718 0.034247555 -0.121346064 -0.3198934 -0.04071333 -0.05642074 -0.014586929 -0.275166
0.013926617 -0.11053287 0.097616814 0.03238831 -0.19659148 -0.058422633 0.007460608 -0.050770633
0.026889946 -0.10127642 -0.12856025 0.03148765 -0.061060403 -0.005763538 -0.23990838 -0.052520894
0.0472803 -0.07560756 -0.15420775 -0.058740996 0.082237825 0.111573435 0.023935888 -0.02879895
0.01765477 0.10176063 0.02966714 -0.035195474 -0.02925221 -0.16243793 0.12992108 0.07899066
0.0351646 -0.11492984 -0.11699017 0.14880769 -0.126712 -6.2539344e-05 -0.040723246 0.001059283
0.09704559 0.09895198 0.06578571 0.07979606 -0.24872048 -0.01752308 -0.10337079 -0.15637007
0.119453795 -0.12562557 -0.09030857 0.025054257 0.02716085 0.045568615 0.035118397 0.002470249
-0.0452366 0.013147147 -0.16694777 0.1405898 0.05506895 -0.12866992 0.038617026 0.027447522
0.0037806483 0.11158419 -0.03023103 -0.03030994 -0.071822144 0.049565554 -0.038004097 0.12627147
0.07510723 0.025856229 -0.16607003 -0.09332181 0.1328313 -0.02918389 -0.052657783 0.021573905
-0.091938704 0.07661053 0.038541514 0.01487895 -0.07412244 -0.13966681 0.10401252 -0.16208401
-0.028448738 0.08174701 0.019123297 0.034949455 -0.052025907 0.0069533843 -0.011801058 -0.022929937
0.1499985 0.12822746 -0.0011034814 0.17694813 0.056540884 -0.02746222 0.087545745 0.070779234
0.018292964 -0.07541622 -0.14044209 -0.017204318 0.10664496 0.14811571 -0.0229442 -0.07098803
0.023205614 0.055239715 0.075095594 0.06464865 0.017277697 -0.069347166 0.07319633 -0.059916437
-0.09845911 0.07499069 -0.0072175963 0.049239 -0.050549265 -0.013929175 -0.16227408 0.067096524
-0.11565029 0.1439357 -0.08346907 0.07316765 -0.048269134 -0.055729263 0.1182871 0.0062171035
-0.06945057 0.06311127 -0.034115024 -0.12983537 -0.0070631607 -0.05130649 -0.008409141 0.008670487
0.05703982 0.048669547 -0.048956063 0.12274305 -0.095376804 0.067959405 -0.11447029 -0.12631555
-0.096279934 -0.098526016 0.0369593 0.08876494 0.09315597 0.03455546 -0.019629424 0.020327665
-0.023098905 0.046568755 -0.026270855 -0.009605219 0.06813733 0.12463622 -0.120419905 -0.0019116995
0.03191089 -0.11830826 0.03963823 -0.008222342 0.07953033 0.124507256 -0.04430049 0.035625044
00000000: 14fa 90bd a874 fbbd f132 043e ae39 ad3c
00000010: 5934 ea3d 3bf1 d9bd 4663 0dbe 1ed5 32be
00000020: f2b2 b3bd cf22 b23b 48b7 573e 6258 39bc
00000030: 06d0 a4bd 63b0 5b3d 55ec 613d 500c 8cba
00000040: 7b40 d3bd cc5a 0cbd 43c7 7dbe 0fbc 92bc
00000050: 5257 e1bd 6d19 05bc 7baf b4bd cf2a cc3d
00000060: 17fa ddbe 9761 c23d be31 0c3e 8b18 cabd
00000070: e12e e63d 99a2 433e cfe7 f1bd 4045 80bd
00000080: 4a58 0bbd afdf bbbd a4dc 84bd 94b7 f1bc
00000090: b7e5 6cbd 34d0 9cbd b64e d3bd 9148 41be
000000a0: cb59 1fbe 07c0 e63d 2611 81bd ac6f 27be
000000b0: 4627 403d 336f ce3c 505c d6bc 21d5 d53d
000000c0: ee88 283d a9a4 513b 8a28 a03d 5cd0 133e
000000d0: 5d6e 07be 2596 c83d c7cd 803d 1b3b 6fbe
000000e0: 5e7a 45bd 0db7 1cbc 9000 34be 2050 3bbe
000000f0: 7480 20bd 8e61 75bd ef36 f8bd b58a 8e3d
00000100: cdcc afbb 6781 c03d 4ca0 c5bc a521 20bd
00000110: 1a78 0d3d 6cf0 b8bd b1be 18be e212 e4bd
00000120: 58a8 b13c 2a47 0c3d 4984 f8bd 11c9 a3be
00000130: 05c3 26bd 6f19 67bd 04fe 6ebc 8fe2 8cbe
00000140: 772c 643c 0f5f e2bd 53eb c73d 9ba9 043d
00000150: 474f 49be 924c 6fbd 1e78 f43b def4 4fbd
00000160: 4e48 dc3c 036a cfbd 4ca5 03be 32f9 003d
00000170: 791a 7abd 10dc bcbb 8baa 75be 2620 57bd
00000180: fda8 413d 23d8 9abd a3e8 1dbe 669a 70bd
00000190: 4e6c a83d 9d80 e43d 3215 c43c c7eb ebbc
000001a0: bca0 903c e167 d03d 8108 f33c 2129 10bd
000001b0: 55a2 efbc 2156 26be 080a 053e dbc5 a13d
000001c0: c108 103d 5660 ebbd 8b98 efbd 0b61 183e
000001d0: cac0 01be 8e27 83b8 6bcd 26bd a4d7 8a3a
000001e0: d7bf c63d 56a7 ca3d a9ba 863d 1e6c a33d
000001f0: 95b0 7ebe 908c 8fbc 11b4 d3bd 7a1f 20be
00000200: 31a4 f43d fda3 00be b3f3 b8bd 963e cd3c
00000210: 6e80 de3c 28a6 3a3d 4fd8 0f3d e7e3 213b
00000220: 034a 39bd 2267 573c 5bf4 2abe c6f6 0f3e
00000230: fb8f 613d 0cc2 03be e32c 1e3d a0d9 e03c
00000240: c1c4 773b 4086 e43d 11a7 f7bc 8d4c f8bc
00000250: 7d17 93bd 4005 4b3d 2faa 1bbd 4f4d 013e
00000260: d2d1 993d 71d0 d33c 430e 2abe 811f bfbd
00000270: ee04 083e 0e13 efbc b0af 57bd c2bb b03c
00000280: 5c4a bcbd fbe5 9c3d b5dd 1d3d d7c6 733c
00000290: 81cd 97bd d104 0fbe 8404 d53d 5af9 25be
000002a0: 540d e9bc fa6a a73d 76a8 9c3c 2927 0f3d
000002b0: 1e19 55bd 37d9 e33b 3a59 41bc 90d7 bbbc
000002c0: 3599 193e 0f4e 033e b1a2 90ba e431 353e
000002d0: 6a97 673d 73f8 e0bc 2f4b b33d b4f4 903d
000002e0: 20db 953c d273 9abd 0dd0 0fbe 12f0 8cbc
000002f0: ac68 da3d a5ab 173e 7af5 bbbc 2c62 91bd
00000300: b319 be3c 0a43 623d b8cb 993d 8366 843d
00000310: f589 8d3c e305 8ebd f5e7 953d f06a 75bd
00000320: eea4 c9bd b894 993d 9681 ecbb d5ae 493d
00000330: bf0c 4fbd 3237 64bc 2d2b 26be e769 893d
00000340: 0fda ecbd e163 133e d5f1 aabd ecd8 953d
00000350: dbb5 45bd 5e44 64bd 8240 f23d d8b8 cb3b
00000360: 1a3c 8ebd 7b40 813d 32bc 0bbd 90f3 04be
00000370: 1672 e7bb c126 52bd 7ec6 09bc a90e 0e3c
00000380: 96a2 693d b859 473d 2786 48bd b560 fb3d
00000390: ea54 c3bd 4d2e 8b3d 666f eabd dd58 01be
000003a0: 6a2e c5bd 02c8 c9bd a362 173d 65ca b53d
000003b0: 8fc8 be3d 078a 0d3d e3cd a0bc 3486 a63c
000003c0: ea39 bdbc e1be 3e3d fa35 d7bc 355f 1dbc
000003d0: 968b 8b3d 4641 ff3d b69e f6bd fe91 faba
000003e0: feb4 023d 9a4b f2bd b25b 223d 00b7 06bc
000003f0: cce0 a23d a9fd fe3d 6e74 35bd 91eb 113d

conv5.bias f4 [256]
1.2909459e-06 1.5056541e-07 1.3517813e-06 9.256251e-07 2.9286139e-06 -1.26823e-06 2.4330702e-05 2.2402108e-07
1.8373894e-05 -1.6748074e-06 5.0192066e-05 -1.5453184e-06 2.1810038e-06 -1.7191254e-06 1.6747484e-06 -1.2590273e-05
-4.5230377e-06 -1.44831065e-05 -3.7116033e-07 6.278708e-07 3.7010097e-05 2.9926346e-06 -1.06562475e-05 2.05613e-06
-5.2676733e-06 1.4381098e-05 6.0390507e-06 2.5292914e-06 1.608195e-05 1.157645e-05 3.3920816e-05 -4.6113582e-06
1.2688205e-05 2.1261776e-05 -5.642403e-06 -1.8453247e-05 -1.9285548e-05 -2.0629795e-06 3.6220645e-05 5.0610197e-07
-4.353005e-06 -7.484319e-06 1.5553842e-05 -5.915364e-06 -4.9741305e-07 4.5475685e-05 4.4824483e-06 6.0154216e-06
9.185066e-06 4.979062e-06 -1.7398636e-06 3.6114764e-07 -2.1936918e-05 -4.427278e-07 5.4412646e-07 -5.609408e-06
-1.5480076e-05 7.48271e-06 -4.606909e-06 -2.4652866e-06 5.7730223e-05 4.875209e-06 1.4759163e-06 4.5908387e-06
-2.6985565e-06 -4.6948026e-06 -1.793554e-06 7.413192e-07 7.72043e-07 4.1062594e-05 -5.9514155e-06 1.6285892e-05
2.2894492e-06 -5.4100474e-06 3.9389165e-06 5.474217e-06 -2.777296e-06 -1.03383e-06 -1.6482585e-05 -4.61787e-06
1.5744863e-05 -1.8695741e-06 -1.4998834e-06 -2.3106713e-06 -3.6470062e-06 3.178229e-05 -2.8675183e-06 -8.097451e-05
-1.1150559e-06 2.0183516e-05 -3.0843337e-05 9.803675e-07 -9.09899e-06 -8.2914863e-07 -4.395408e-06 2.785308e-05
3.1875045e-06 8.1831895e-05 4.923983e-06 5.973969e-07 -6.391634e-06 -1.0791168e-06 -1.928308e-05 1.2899994e-06
-7.9822996e-07 -2.2299087e-06 3.063922e-07 -3.4830268e-06 1.7675895e-05 1.4495329e-06 2.5783984e-07 -2.5771526e-06
-4.8932674e-05 7.2182997e-06 -2.045485e-05 -2.4936564e-05 -1.739719e-05 2.2772796e-05 -1.2415636e-06 1.9333424e-06
-3.0064357e-06 -7.769907e-06 2.4941055e-06 2.445589e-06 -2.2650484e-06 -6.4277515e-07 1.9664112e-06 -4.864501e-06
4.5474426e-06 -1.3134883e-05 1.6197164e-05 2.9649664e-07 1.847023e-05 -5.0113686e-06 -6.215993e-06 -2.0163649e-05
2.5780713e-07 2.5208914e-05 -1.2484065e-06 -1.843436e-05 1.2375478e-06 -9.963674e-07 -6.4547157e-06 2.1571586e-06
-7.377621e-05 3.2329084e-05 1.1181115e-06 -4.412141e-06 -2.241456e-05 -2.4766314e-06 -1.764002e-06 -1.6069323e-07
-5.9052413e-06 4.4213135e-05 3.3985423e-05 4.6616633e-06 -1.2524549e-06 6.878195e-06 3.7446793e-05 -3.661187e-05
-7.744238e-06 -1.8798373e-06 -1.8920147e-05 1.703152e-05 1.4797802e-05 1.8854099e-06 -3.4941386e-06 7.220785e-06
-7.501712e-06 4.2139414e-05 -3.693745e-07 5.9344807e-06 -7.860023e-06 -1.29556975e-05 -8.221308e-07 -1.1361514e-06
-3.1863362e-06 -1.0715651e-06 -3.604709e-07 1.2377708e-07 1.6315464e-05 -2.0671837e-06 -2.9502604e-05 3.617093e-05
4.6604782e-07 -4.3451677e-05 1.9981488e-05 -3.3309018e-06 5.190736e-06 -5.626391e-07 4.449968e-06 4.0534765e-06
2.3814784e-05 -3.0394509e-05 -3.951673e-06 -2.0779267e-05 -2.9689477e-06 3.454399e-05 3.51916e-08 8.0951095e-06
8.147293e-06 -2.529416e-05 1.9401645e-05 6.111432e-06 -1.7861946e-06 -4.8102556e-06 -9.808146e-06 -1.5240504e-06
-2.1472908e-05 -1.8350183e-05 1.1640474e-05 2.687767e-07 3.5933379e-06 1.8818912e-07 1.3473564e-06 8.911408e-06
-1.44414025e-05 -8.147171e-07 -1.3210007e-06 9.480864e-06 1.0110865e-06 1.815965e-06 1.2572232e-05 1.2111093e-06
3.0674348e-06 7.96026e-07 -1.8016795e-05 2.3034881e-05 -3.3927445e-05 2.981582e-05 -4.1709e-06 -9.724979e-05
3.5009117e-07 -1.2563788e-06 -3.4148256e-06 3.296343e-06 5.545944e-06 -5.7941556e-06 -1.6589784e-05 -6.4429737e-06
2.2392906e-06 -3.5890557e-06 -6.5075274e-06 -1.1948438e-06 -1.3573936e-05 -8.073091e-07 3.198293e-06 7.856891e-06
4.9838145e-05 8.388586e-06 6.8180498e-06 -1.4713081e-05 -6.8572954e-06 1.0342423e-05 3.4479574e-05 -4.108645e-05
00000000: 9044 ad35 1bab 2134 da6e b535 7978 7835
00000010: 3489 4436 0d38 aab5 c919 cc37 728a 7034
00000020: a321 9a37 f2c9 e0b5 5285 5238 bc68 cfb5
00000030: 5c5d 1236 b3bc e6b5 ebc7 e035 d03a 53b7
00000040: 99c4 97b6 78fc 72b7 e343 c7b4 f48a 2835
00000050: 4a3b 1b38 12d5 4836 3cc8 32b7 0bfc 0936
00000060: f8c0 b0b6 5846 7137 0da3 ca36 e5bc 2936
00000070: bae7 8637 7938 4237 3346 0e38 44bb 9ab6
00000080: 6ddf 5437 515b b237 df53 bdb6 0ccc 9ab7
00000090: 66c7 a1b7 b871 0ab6 9feb 1738 10db 0735
000000a0: 0710 92b6 d021 fbb6 9f79 8237 977c c6b6
000000b0: f785 05b5 25bd 3e38 f067 9636 14d8 c936
000000c0: 8f19 1a37 d111 a736 4285 e9b5 c1e3 c134
000000d0: 2c05 b8b7 0cb0 edb4 1610 1235 7338 bcb6
000000e0: 36db 81b7 fd13 fb36 0c95 9ab6 4d71 25b6
000000f0: 5b23 7238 ba95 a336 1918 c635 010b 9a36
00000100: d918 35b6 0c88 9db6 0cba f0b5 11ff 4635
00000110: 643e 4f35 a03a 2c38 45b2 c7b6 b09d 8837
00000120: 70a4 1936 f487 b5b6 092b 8436 2aaf b736
00000130: 9561 3ab6 21c2 8ab5 1544 8ab7 34f3 9ab6
00000140: d613 8437 14ee fab5 9a4f c9b5 0811 1bb6
00000150: 17bf 74b6 f94d 0538 976f 40b6 dcd0 a9b8
00000160: 07a9 95b5 c54f a937 c85d 01b8 2c95 8335
00000170: dda7 18b7 a992 5eb5 447c 93b6 09a6 e937
00000180: e9e8 5536 2a9d ab38 b138 a536 cd5c 2035
00000190: b877 d6b6 2cd6 90b5 19c2 a1b7 0b24 ad35
000001a0: f245 56b5 8aa5 15b6 397e a434 f2bd 69b6
000001b0: b246 9437 928d c235 3d6d 8a34 25f3 2cb6
000001c0: 0f3d 4db8 b934 f236 7596 abb7 dd2e d1b7
000001d0: 2ef0 91b7 3508 bf37 cda3 a6b5 92be 0136
000001e0: 2cc2 49b6 7f5b 02b7 6860 2736 e61e 2436
000001f0: 3c01 18b6 2c8b 2cb5 b0f6 0336 bf39 a3b6
00000200: 3c96 9836 e55d 5cb7 25df 8737 302e 9f34
00000210: 84f0 9a37 5427 a8b6 f992 d0b6 1b25 a9b7
00000220: be68 8a34 bb77 d337 ec8e a7b5 7da3 9ab7
00000230: d219 a635 ecba 85b5 9695 d8b6 b4c3 1036
00000240: 4db8 9ab8 1799 0738 0512 9635 010c 94b6
00000250: e706 bcb7 3434 26b6 a6c2 ecb5 058b 2cb4
00000260: a325 c6b6 7e71 3938 928b 0e38 626b 9c36
00000270: 061a a8b5 3fcb e636 3010 1d38 b28f 19b8
00000280: 40ed 01b7 b84e fcb5 b5b6 9eb7 e9de 8e37
00000290: 1344 7837 310e fd35 d87c 6ab6 124a f236
000002a0: 37b7 fbb6 dabe 3038 724e c6b4 cd20 c736
000002b0: 8bde 03b7 4c5c 59b7 66b0 5cb5 dd7d 98b5
000002c0: d7d4 55b6 b2d2 8fb5 be86 c1b4 96e7 0434
000002d0: 31dd 8837 f2b9 0ab6 5c7c f7b7 3eb6 1738
000002e0: 2035 fa34 e23f 36b8 eb9d a737 7588 5fb6
000002f0: 152c ae36 4408 17b5 ef50 9536 1903 8836
00000300: dcc5 c737 b6f7 feb7 9d98 84b6 234f aeb7
00000310: 223e 47b6 54e3 1038 9325 1733 3bd0 0737
00000320: 5bb0 0837 cc2e d4b7 b7c0 a237 cd10 cd36
00000330: 2ebd efb5 c867 a1b6 ab8d 24b7 f98d ccb5
00000340: b820 b4b7 b8ee 99b7 754b 4337 634c 9034
00000350: 1325 7136 0811 4a34 d0d6 b435 3582 1537
00000360: 5a49 72b7 efb2 5ab5 3d4d b1b5 0010 1f37
00000370: abb4 8735 15bc f335 53ed 5237 668d a235
00000380: 21da 4d36 7dae 5535 c622 97b7 083b c137
00000390: 514d 0eb8 fc1c fa37 c2f3 8bb6 95f2 cbb8
000003a0: 2af4 bb34 d9a0 a8b5 422a 65b6 be36 5d36
000003b0: 4c17 ba36 6b6b c2b6 4a2a 8bb7 b930 d8b6
000003c0: b846 1636 82db 70b6 3c5b dab6 855e a0b5
000003d0: 9cbb 63b7 dcb5 58b5 41a2 5636 17d1 0337
000003e0: 4d09 5138 b4bc 0c37 9ac6 e436 34d8 76b7
000003f0: b817 e6b6 5e84 2d37 299e 1038 3d54 2cb8

conv5.lin.weight f4 [256, 256]
0.023927735 0.054709136 -0.13231763 0.039774206 0.07584482 -0.03204896 -0.049597256 -0.06079906
0.015662981 0.07518515 -0.040253196 -0.0755777 -0.0071985573 0.017537534 -0.090256706 -0.07873937
-0.034253642 0.15569203 0.04340183 0.0050368104 -0.038960602 -0.13040084 0.1372927 -0.078514546
-0.09778395 -0.083050355 0.08478354 -0.09665959 -0.041294746 -0.08729508 -0.13113363 -0.03974878
-0.03318914 0.14834729 0.10479076 0.02960268 -0.07593898 0.024956865 0.13099971 0.0253922
0.03990014 -0.0524722 -0.0035427979 -0.003865146 0.12752521 0.04653963 0.048068468 -0.10210745
0.062786005 -0.060837615 -0.0035177509 0.043531254 -0.028466353 -0.07219869 -0.09590522 0.04611765
0.09893905 0.02099286 0.09128965 -0.007770069 0.06814194 -0.08533567 -0.05949949 -0.046268657
-0.108234085 -0.042684462 0.0389505 -0.07318051 0.058072086 -0.11319619 -0.01734841 0.03423521
0.11542963 -0.11615242 0.06143323 -0.11123358 -0.0969434 -0.13960965 -0.059047647 -0.13340205
0.057008 -0.07794144 -0.09679288 0.15971202 0.017802792 0.042879783 0.14950189 0.09407475
-0.034022417 -0.045141157 -0.0022747556 0.0756338 -0.06980321 0.10383642 0.018064868 -0.077753134
-0.11091223 -0.028165841 0.06524978 0.1590109 -0.07634303 -0.09015513 0.066133 0.060807798
0.10551693 -0.029984904 -0.052398548 -0.057667434 0.017972196 0.0470242 0.008781692 0.060955517
0.0005671251 0.018476525 0.026579786 0.03263323 0.029311322 -0.059808858 -0.11074122 0.04476616
0.12548892 -0.111366436 -0.021502078 -0.08896359 0.14146833 0.112099946 -0.038378406 -0.044356655
0.01565938 0.041870214 0.15887359 -0.055271287 -0.119707845 0.062340505 0.08878794 0.029569788
-0.011748065 0.034723327 -0.033103704 0.0062933583 -0.068241045 -0.006481527 -0.019162232 -0.06460042
-0.010284947 -0.037631202 -0.03448132 -0.047188815 -0.07232431 0.045235157 0.04799815 0.114366986
0.035052743 0.052234218 0.07508811 -0.048959985 -0.032234125 0.09812128 0.003806116 -0.028596064
-0.049771607 0.108459055 -0.038125284 0.023631891 0.043197274 -0.084938526 0.059284672 -0.0618846
0.034213282 0.0069232117 -0.15018773 -0.09399009 -0.032948896 -0.010966653 -0.008129156 -0.004422271
-0.09759847 -0.061485957 -0.099350445 0.06521533 0.14766775 -0.11793903 0.091453336 0.044603813
0.024053067 -0.0022284044 0.00732416 0.031057494 -0.0051124045 -0.12206964 0.02058353 -0.10857668
-0.07332175 0.04905701 -0.0471105 -0.005835758 0.039656866 -0.003509464 -0.073869735 -0.006348134
0.006200119 0.10673846 0.11921197 0.046210457 0.026960384 0.02551885 -0.06351162 0.08890255
-0.049560286 -0.012008582 0.11145668 0.17167221 0.036224917 0.0782376 -0.13054776 -0.12567723
0.1333791 -0.014778193 -0.048451588 -0.049943186 0.0125713525 -0.029349811 -0.12009236 -0.016971318
-0.0932256 -0.009233276 0.019124936 0.083409905 0.061455444 0.05585905 0.064710565 -0.003988876
0.08185264 0.059554435 0.05176242 0.13536029 -0.014831494 -0.06766912 -0.100227356 -0.034766328
0.11522673 -0.09557237 -0.118649095 0.11619023 0.10117279 -0.009519912 0.06940029 0.05705453
-0.09359732 -0.073913895 0.040148925 -0.07530252 -0.07944687 0.088756196 0.0462991 -0.027636817
00000000: 1904 c43c b016 603d 467e 07be 47ea 223d
00000010: 8754 9b3d c545 03bd 7e26 4bbd 6f08 79bd
00000020: a74f 803c acfa 993d 89e0 24bd 7bc8 9abd
00000030: e0e1 ebbb e0aa 8f3c 82d8 b8bd 1b42 a1bd
00000040: 8c4d 0cbd bb6d 1f3e 1ec6 313d d40b a53b
00000050: 2795 1fbd cc87 05be 7596 0c3e 3ccc a0bd
00000060: f442 c8bd 4e16 aabd fea2 ad3d 77f5 c5bd
00000070: ae24 29bd c3c7 b2bd e547 06be 9ecf 22bd
00000080: 56f1 07bd 5ae8 173e 8a9c d63d 5281 f23c
00000090: e585 9bbd 5772 cc3c ca24 063e 4e03 d03c
000000a0: 546e 233d 17ed 56bd 492e 68bb 644e 7dbb
000000b0: f895 023e 57a0 3e3d 71e3 443d b61d d1bd
000000c0: f395 803d dd30 79bd 118a 66bb d44d 323d
000000d0: 4532 e9bc e8dc 93bd f569 c4bd dce5 3c3d
000000e0: 8fa0 ca3d 38f9 ab3c 11f6 ba3d 109c febb
000000f0: 008e 8b3d 78c4 aebd bdb5 73bd 3484 3dbd
00000100: d5a9 ddbd e7d5 2ebd 8f8a 1f3d aadf 95bd
00000110: ffdc 6d3d 67d3 e7bd 411e 8ebc 383a 0c3d
00000120: 5f66 ec3d 52e1 edbd 69a1 7b3d 6ece e3bd
00000130: 438a c6bd d5f5 0ebe f2db 71bd 8c9a 08be
00000140: 3881 693d c39f 9fbd 583b c6bd 8c8b 233e
00000150: 29d7 913c b6a2 2f3d 0617 193e 43aa c03d
00000160: 175b 0bbd efe5 38bd 1114 15bb e5e5 9a3d
00000170: fcf4 8ebd 30a8 d43d c6fc 933c 093d 9fbd
00000180: f425 e3bd 0dbc e6bc ada1 853d c1d3 223e
00000190: bc59 9cbd 41a3 b8bd bd70 873d 9911 793d
000001a0: 4319 d83d e7a2 f5bc dc9f 56bd b034 6cbd
000001b0: 6d3a 933c 739c 403d 16e1 0f3c 7eac 793d
000001c0: 1fab 143a 155c 973c dabd d93c 6caa 053d
000001d0: 4c1e f03c 22fa 74bd 4bcc e2bd b95c 373d
000001e0: 2b80 003e 1614 e4bd 2025 b0bc 8b32 b6bd
000001f0: 13dd 103e a894 e53d ad32 1dbd 53af 35bd
00000200: 1a48 803c 1a80 2b3d c2af 223e 2564 62bd
00000210: 6329 f5bd c258 7f3d 74d6 b53d 573c f23c
00000220: f57a 40bc 0c3a 0e3d c097 07bd 8438 ce3b
00000230: f6c1 8bbd fd62 d4bb 1dfa 9cbc 3a4d 84bd
00000240: 3282 28bc 2d23 1abd 493c 0dbd 0f49 41bd
00000250: c51e 94bd 8048 393d b599 443d 3d39 ea3d
00000260: 7793 0f3d 8cf3 553d ccc7 993d 448a 48bd
00000270: ee07 04bd cff3 c83d 0870 793b 4b42 eabc
00000280: 50dd 4bbd c81f de3d 4229 1cbd ab97 c13c
00000290: a0ef 303d 40f4 adbd 7cd4 723d b57a 7dbd
000002a0: 3a23 0c3d 1cdc e23b d0ca 19be e07d c0bd
000002b0: 6cf5 06bd 7aad 33bc 2730 05bc b3e8 90bb
000002c0: b5e1 c7bd b3d8 7bbd 3f78 cbbd 9d8f 853d
000002d0: 3736 173e 058a f1bd e34b bb3d 7db2 363d
000002e0: f00a c53c 6c0a 12bb 82ff ef3b 496c fe3c
000002f0: f585 a7bb a6ff f9bd cb9e a83c 735d debd
00000300: b729 96bd 01f0 483d f1f6 40bd e339 bfbb
00000310: 3d6f 223d 09ff 65bb 0449 97bd 0204 d0bb
00000320: 5e2a cb3b b299 da3d 6825 f43d 2d47 3d3d
00000330: 06dc dc3c e80c d13c 6112 82bd 8a12 b63d
00000340: baff 4abd a5bf 44bc 6643 e43d d7ca 2f3e
00000350: 9460 143d 093b a03d 50ae 05be 88b1 00be
00000360: 8894 083e 3c20 72bc 2c75 46bd 3a91 4cbd
00000370: 13f8 4d3c 046f f0bc fcf2 f5bd 6f07 8bbc
00000380: 10ed bebd 2b47 17bc e6ab 9c3c d0d2 aa3d
00000390: b4b8 7b3d 76cc 643d f986 843d 1eb5 82bb
000003a0: 5ba2 a73d 5aef 733d d504 543d e39b 0a3e
000003b0: cbff 72bc 1c96 8abd 0044 cdbd 2367 0ebd
000003c0: fefb eb3d 72bb c3bd 4cfe f2bd 25f5 ed3d
000003d0: ae33 cf3d 68f9 1bbc bd21 8e3d 03b2 693d
000003e0: f4af bfbd 2b60 97bd 3373 243d 3538 9abd
000003f0: 0ab5 a2bd cfc5 b53d 20a4 3d3d 9b66 e2bc
