model_weights/bad-pose-0_split_0.pt (torch, 473611 bytes, 26 tensors)

conv1.bias f4 [64]
0	0xb932a39c	-0.00017036352
1	0x38d00cd4	9.920602e-05
2	0xb835d7f6	-4.3354892e-05
3	0xb924ff2d	-0.00015735319
4	0xb8946d9a	-7.077605e-05
5	0xb9353c61	-0.00017283998
6	0x3958a415	0.0002066049
7	0x39424afe	0.00018529219
8	0x39475653	0.00019010277
9	0x39136ffc	0.0001406073
10	0xb9908b25	-0.0002756949
11	0xb91b2e87	-0.00014799285
12	0x38d76181	0.000102701604
13	0xb9010029	-0.00012302458
14	0x3884c8c6	6.3316475e-05
15	0x39131076	0.00014025145
16	0xb80c796d	-3.3491688e-05
17	0xb928ec5b	-0.00016109778
18	0x395948d5	0.00020721865
19	0x393c0023	0.00017929128
20	0x38bf788b	9.1300426e-05
21	0xb92a11c3	-0.0001621908
22	0xb9053cc1	-0.00012706501
23	0xb8316732	-4.2296197e-05
24	0x39154477	0.00014235252
25	0xb979d3c1	-0.00023825375
26	0x392af469	0.00016303513
27	0x38d9008a	0.00010347467
28	0xb90ed614	-0.00013621926
29	0xb9b41057	-0.0003434445
30	0xb8600d75	-5.3418295e-05
31	0xb91eb0d0	-0.00015133922
32	0x38a6fa5f	7.962132e-05
33	0x392d1e99	0.00016509964
34	0xb944b8de	-0.00018760885
35	0xb8fba0e5	-0.000119985816
36	0xb9835c3d	-0.0002505499
37	0xb95ac1d8	-0.00020862313
38	0x3794a6a5	1.7720575e-05
39	0x3914d39f	0.00014193215
40	0xb9415d2a	-0.0001844062
41	0xb933dfeb	-0.00017154186
42	0x385280d9	5.01879e-05
43	0x39423443	0.00018520751
44	0x394095ed	0.00018366399
45	0x373fbccc	1.1428445e-05
46	0x391cd1ef	0.00014955526
47	0x3945c9cd	0.0001886256
48	0xb942fe35	-0.00018595981
49	0xb88b375b	-6.638347e-05
50	0xb913146e	-0.00014026623
51	0xb9255eb7	-0.0001577091
52	0x393754a1	0.00017483767
53	0x38198f50	3.6611513e-05
54	0x38261131	3.9593495e-05
55	0x3954c603	0.0002029166
56	0xb920740a	-0.00015302017
57	0xb915b0f6	-0.0001427567
58	0xb9268dbe	-0.00015883797
59	0xb94d5c7b	-0.00019584775
60	0x3963fef9	0.00021743392
61	0xb8c49c8b	-9.375167e-05
62	0xb9421967	-0.00018510745
63	0xb90bfc04	-0.00013349956

conv1.lin.weight f4 [64, 2]
0	0xbe223526	-0.15840587
1	0xbe0de80f	-0.13858055
2	0x3cb3737e	0.021905657
3	0x3e687b32	0.22703245
4	0x3d93e739	0.072218366
5	0xbd20ef76	-0.039290868
6	0xbde545c6	-0.11194949
7	0x3c92f34a	0.017938275
8	0xbcb8c1ad	-0.02255329
9	0xbe2585a4	-0.16164261
10	0x3e1f6fe7	0.15570031
11	0x3e78f802	0.24313357
12	0x3d714529	0.058903847
13	0x3e14c544	0.14528376
14	0xbdea1683	-0.11430075
15	0x3e3493eb	0.17634551
16	0x3d87a15e	0.06622575
17	0xbdb1069a	-0.08643837
18	0x3d50c375	0.050967652
19	0x3e275282	0.16340068
20	0xbe3bdcd0	-0.18345952
21	0x3ca48f5d	0.020087892
22	0xbd229deb	-0.039701384
23	0xbe6d5c8e	-0.23179838
24	0xbd4cd9e4	-0.050012484
25	0xbd1b1029	-0.03785721
26	0x3e835881	0.2565346
27	0xbd8ae810	-0.06782544
28	0xbd8e3f1a	-0.069456294
29	0xbe2d1ad6	-0.16904768
30	0x3e9b24b2	0.30301434
31	0x3dae6979	0.08516211
32	0xbe218446	-0.15773115
33	0xbd688ab0	-0.056772888
34	0x3db1eb16	0.08687417
35	0xbe77852f	-0.241719
36	0xbc3355d2	-0.010945754
37	0x3eb73118	0.35779643
38	0xbd51cb53	-0.051219296
39	0x3ea09df9	0.31370524
40	0x3ea797bd	0.32732955
41	0xbc342a4c	-0.0109964125
42	0xbe8aee5e	-0.27134985
43	0x3dc41717	0.095747165
44	0xbe30812c	-0.17236775
45	0xbe35fb12	-0.17771557
46	0x3e155130	0.14581752
47	0xbdb36a7e	-0.08760546
48	0x3ea1f63a	0.31633168
49	0xbd222150	-0.03958255
50	0xbdb73abb	-0.08946749
51	0xbe0b358a	-0.13594642
52	0x3e846f67	0.25866243
53	0xbca4c87c	-0.02011513
54	0xbe75e11c	-0.24011654
55	0xbd2c1642	-0.042013414
56	0x3db0ed75	0.08639041
57	0xbe8231c4	-0.25428593
58	0xbc076830	-0.008264586
59	0xbda5917e	-0.08084391
60	0xbd6e6584	-0.05820228
61	0xbe9a470e	-0.30132335
62	0xbe8d8145	-0.27637687
63	0x3e080a2f	0.13285135
64	0x3dc315f1	0.09525669
65	0x3e5386fb	0.2065696
66	0x3e80e7d4	0.2517687
67	0xbe35027b	-0.17676727
68	0xbe96d3f3	-0.2945858
69	0x3e22c1c2	0.15894225
70	0x3e1fc1e6	0.1560131
71	0x3e199498	0.1499809
72	0x3bae6b92	0.005322882
73	0x3d8499e1	0.064746626
74	0x3dc3f7c9	0.09568746
75	0x3c99407b	0.018707504
76	0x3e5d8104	0.21631247
77	0x3e320e0c	0.17388171
78	0xbe88d0d8	-0.26721835
79	0x3e95b5f5	0.29240385
80	0xbe6e17c4	-0.23251253
81	0x3e9a5b11	0.30147603
82	0x3e5209b8	0.2051152
83	0xbd428e5e	-0.047499053
84	0xbe08f9ab	-0.13376491
85	0xbe7e8cf7	-0.24858461
86	0x3df571fa	0.1198463
87	0x3e230a8d	0.15921994
88	0xbe0aff5f	-0.13573979
89	0x3e7a5495	0.24446328
90	0xbe7e066c	-0.24807137
91	0x3e84c848	0.25934052
92	0x3e84967a	0.25896055
93	0x3e030a57	0.12796913
94	0x3d5b63c6	0.05356195
95	0xbe4572b9	-0.19282044
96	0xbc63b30d	-0.0138976695
97	0x3d750849	0.059822354
98	0x3d01cb03	0.031687748
99	0x3ded127f	0.115757935
100	0x3e94af5b	0.29040036
101	0xbc32becc	-0.010909747
102	0x3e74ee46	0.23919019
103	0xbc02dc07	-0.007987029
104	0xbdc7e4b0	-0.097604156
105	0x3e90f7a2	0.2831393
106	0x3aeb3950	0.0017946158
107	0x3e18bb4e	0.14915201
108	0x3e70c8fb	0.23514168
109	0xbdc767a8	-0.09736568
110	0x3d53bef8	0.051695794
111	0xbe03db0a	-0.12876526
112	0xbe7c473f	-0.24636553
113	0x3defa511	0.11701406
114	0xbddf34a1	-0.1089871
115	0x3e9d23bf	0.30691335
116	0x3e797864	0.24362332
117	0xbdc9c91a	-0.0985281
118	0x3ea1b0f7	0.31580326
119	0xbd19a764	-0.03751315
120	0xbcf2662f	-0.02958974
121	0x3e8df8e6	0.27728957
122	0xbdd2b094	-0.10287586
123	0xbe9bc0eb	-0.30420622
124	0x3e602c96	0.21892008
125	0xbde55fe2	-0.11199929
126	0xbea59987	-0.32343695
127	0x3dd2ccce	0.1029297

conv2.bias f4 [64]
0	0x3c605c28	0.013693847
1	0xbc948784	-0.018131025
2	0x3c86980f	0.016429929
3	0xbd805107	-0.06265455
4	0xbd1a7be3	-0.037715804
5	0x3c11f999	0.008909606
6	0x3d1c0835	0.038093764
7	0x3c7e6a60	0.015528291
8	0x3c30d085	0.010791902
9	0xbd0aa49a	-0.033848383
10	0x3d7f656e	0.06235259
11	0x3c15991f	0.009130745
12	0xbd326241	-0.043550733
13	0x3d0acaa8	0.033884674
14	0xbc027f00	-0.0079648495
15	0x3d08f5fd	0.033437718
16	0xbd578683	-0.052618515
17	0xbd419147	-0.047257688
18	0xbcfc3ca0	-0.030790627
19	0xbd6dfdc7	-0.05810335
20	0xbc3ac77e	-0.011400102
21	0xbdd086a7	-0.10181933
22	0x3c0fa6d1	0.0087677995
23	0xbc31866e	-0.010835273
24	0x3d1a5417	0.03767785
25	0x3c95906f	0.018257348
26	0xbd00d2ef	-0.031451162
27	0x3d0864a3	0.0332991
28	0xbc44fc8d	-0.012023103
29	0xbd515f7a	-0.051116444
30	0xbcd788dc	-0.026310377
31	0xb9945cfe	-0.00028298044
32	0x3c68467c	0.014176961
33	0x3cbe439f	0.023225604
34	0xbd82aac7	-0.063802294
35	0xbd26a620	-0.040685773
36	0xbca4e512	-0.02012876
37	0xbb8c20f3	-0.004276389
38	0x3d352854	0.044227913
39	0xbd2034a1	-0.03911269
40	0x3ce85ef7	0.028365595
41	0x3d0c3c81	0.03423739
42	0xbc7d7701	-0.015470267
43	0x3caa56ec	0.0207934
44	0xbceea953	-0.029133474
45	0x3c8f754e	0.01751199
46	0x3cca6c8a	0.024709959
47	0xbc579532	-0.0131581295
48	0xbd076ffe	-0.03306579
49	0xbd0e2c06	-0.034709953
50	0xbd1d3e4a	-0.03838948
51	0xbd7b3482	-0.061329372
52	0x3d252a27	0.040323403
53	0xbd413427	-0.047168877
54	0xbd7a33c2	-0.061084516
55	0x3ce005c0	0.027346492
56	0xbca4de17	-0.020125432
57	0xbb7c55fc	-0.00385034
58	0x3d4dc9f3	0.050241422
59	0x3d419f73	0.047271203
60	0xbce50fd3	-0.027961647
61	0xbcf2c31b	-0.02963405
62	0xbc9e90fb	-0.019356241
63	0x3c1137d6	0.00886341

conv2.lin.weight f4 [64, 64]
0	0x3d20bb5f	0.03924119
1	0xbdb743ba	-0.08948465
2	0xbd8549a7	-0.06508189
3	0xbd992b8e	-0.074790105
4	0xbcc31b63	-0.02381677
5	0xbc97d682	-0.018534902
6	0x3d92d58e	0.071696386
7	0xbdc6fb4c	-0.097159
8	0x3d178c29	0.0369989
9	0xbe077872	-0.1322954
10	0xbe34522d	-0.17609473
11	0xbdce4f65	-0.10073737
12	0xbe124a68	-0.14286196
13	0x3dc7c161	0.09753681
14	0x3d4f87ce	0.050666623
15	0xbe541101	-0.20709611
16	0x3e0de7d4	0.13857967
17	0x3e7ceb8d	0.2469923
18	0x3dba91e0	0.09109855
19	0xbdee98f7	-0.116502695
20	0xbe20d2b8	-0.15705383
21	0x3d424666	0.04743042
22	0xbe209fa1	-0.15685894
23	0x3ea0e368	0.31423497
24	0x3e8eacb5	0.2786614
25	0xbe33b801	-0.1755066
26	0xbe056b6b	-0.13029258
27	0xbe45933d	-0.19294448
28	0xbc98207a	-0.018570174
29	0x3c36992e	0.011144919
30	0xbdc84b52	-0.09779991
31	0xbe368460	-0.17823935
32	0xbd647738	-0.05577776
33	0x3e7873d9	0.24262942
34	0xbe07ac3e	-0.13249299
35	0xbe08b8ab	-0.13351695
36	0xbcc7651c	-0.024340205
37	0xbe2ee820	-0.17080736
38	0x3be27a5f	0.0069115604
39	0x3d72a501	0.05923939
40	0x3d5524f3	0.05203719
41	0x3cdb68ed	0.026783431
42	0x3e582c53	0.21110658
43	0xbda3b747	-0.07993942
44	0x3e3316f7	0.17489229
45	0xbe2a273f	-0.16616534
46	0x3aed33ed	0.001809714
47	0x3e259730	0.16170955
48	0x3e35faa8	0.17771399
49	0xbe3803ae	-0.17970154
50	0x3e410798	0.18850553
51	0x3e3dc815	0.18533356
52	0xbe000b39	-0.12504281
53	0xbc84bc7d	-0.01620316
54	0x3e7d36b1	0.24727894
55	0x3dbce53c	0.092234105
56	0xbe7eff24	-0.24902016
57	0xbe15be3d	-0.14623351
58	0x3e784a22	0.2424703
59	0x3e98c5c8	0.29838395
60	0xbd565f19	-0.052336786
61	0x3df8d642	0.121502414
62	0xbd842607	-0.06452566
63	0xbe4a620d	-0.19763966
64	0xbdcb10f6	-0.099153444
65	0x3d901de2	0.0703695
66	0x3e37fd82	0.179678
67	0xbe57ae86	-0.21062669
68	0xbde484fd	-0.11158178
69	0xbe0bc465	-0.13649137
70	0x3e0ca3b8	0.13734329
71	0xbe2b77ee	-0.16744968
72	0xbdede378	-0.11615652
73	0x3de8d6fc	0.1136913
74	0xbd9afcec	-0.07567772
75	0xbd5ab87f	-0.053398605
76	0xbdc32f6c	-0.095305294
77	0xbd3f1acb	-0.04665641
78	0x3de7c177	0.11316197
79	0xbd8b81a9	-0.0681184
80	0xbe18ff0f	-0.14941047
81	0xbd94aba8	-0.07259303
82	0xbd5447f0	-0.051826417
83	0x3e15c33d	0.14625259
84	0xbde96ffd	-0.11398313
85	0x3e2cf01d	0.16888471
86	0xbdfeace8	-0.12435323
87	0x3e62d2f2	0.22150782
88	0xbe548d9e	-0.20757148
89	0xbe133786	-0.1437665
90	0x3dd9e2a2	0.1063893
91	0xbe368345	-0.17823513
92	0xbd96ec0a	-0.0736924
93	0xbc02324f	-0.007946565
94	0x3e387400	0.18013
95	0xbc9142fe	-0.01773214
96	0x3e131b18	0.14365804
97	0x3dcb8644	0.099377185
98	0xbd9f02de	-0.07764219
99	0x3d791e4d	0.060819913
100	0xbe1f52f9	-0.15558995
101	0x3e22cd48	0.15898621
102	0x3e2d9ef4	0.16955167
103	0x3e484498	0.19557416
104	0x3dccd80d	0.10002146
105	0xbe20ed23	-0.1571546
106	0xbe5509e4	-0.20804554
107	0x3dace36f	0.08441817
108	0xbc6b8ba8	-0.014376558
109	0xbcf987ea	-0.030460317
110	0xbb71df94	-0.0036906945
111	0x3e172007	0.14758311
112	0x3d402b47	0.046916272
113	0x3e6a5198	0.22882688
114	0x3e2cf827	0.16891538
115	0xbe3211a4	-0.17389542
116	0x3cf25fff	0.02958679
117	0x3e53dd81	0.20689966
118	0x3d82741f	0.063698046
119	0x3dff8d09	0.12478072
120	0xbd0f7976	-0.035027944
121	0x3de3ecd4	0.11129156
122	0xbda1a1eb	-0.078922115
123	0x3dc0bedc	0.094114035
124	0x3e65118a	0.22369972
125	0xbd26c6e4	-0.04071702
126	0x3e3e6b9b	0.18595736
127	0xbe467fd9	-0.19384708
128	0x3e00f40a	0.12593094
129	0xbd6bc87b	-0.05756424
130	0x3e10c667	0.14138184
131	0x3da76089	0.081727095
132	0x3e528508	0.2055856
133	0xbe05962e	-0.1304557
134	0xbcb4d488	-0.022073999
135	0xbda85072	-0.08218469
136	0x3ea0d0cd	0.31409302
137	0x3b979359	0.0046257195
138	0xbe4954d0	-0.1966126
139	0x3e2c7e6d	0.16845103
140	0xbd8987a7	-0.06715327
141	0x3e3472e0	0.17621946
142	0x3e13668a	0.14394584
143	0x3e8157aa	0.25262195
144	0x3d8e7b1b	0.06957074
145	0x3d36985b	0.04457889
146	0xbd7ecacc	-0.06220512
147	0x3e414c00	0.18876648
148	0xbdbda66e	-0.092602596
149	0xbd97db29	-0.07414848
150	0x3ca6c358	0.020356819
151	0x3e1545d0	0.14577413
152	0x3e47fcf4	0.19530088
153	0xbe1fe97f	-0.15616415
154	0x3e90ec10	0.283051
155	0x3e3f26d0	0.1866715
156	0x3e800645	0.25004783
157	0x3cc36dd2	0.023856077
158	0xbd0d9f75	-0.0345759
159	0xbe13bf12	-0.14428356
160	0xbe21e31a	-0.15809289
161	0x3e5bdd52	0.21471146
162	0xbe4eae98	-0.2018379
163	0x3be5cbd3	0.007012823
164	0xbde9d4fb	-0.11417576
165	0x3d94cfa8	0.0726617
166	0xbe23dcbf	-0.16002177
167	0x3e2a5f7b	0.16637985
168	0xbc0b2f23	-0.008495125
169	0x3e2802c4	0.16407305
170	0x3dc6f26e	0.097142085
171	0xbd416628	-0.047216564
172	0xbdabaaa6	-0.08382158
173	0x3dda11d9	0.106479354
174	0x3e527f2a	0.20556322
175	0xbc391101	-0.011295558
176	0x3e222be9	0.15837063
177	0x3d889c75	0.06670467
178	0xbe1db07c	-0.15399355
179	0xbdc96cc6	-0.098352
180	0x3de2bc14	0.11071029
181	0xbe36dc8a	-0.17857566
182	0x3e122c5a	0.14274731
183	0xbbfed3c8	-0.007776711
184	0x3bcb3694	0.0062015746
185	0xbd6dfca0	-0.05810225
186	0x3d024a26	0.031808995
187	0xbe20f253	-0.1571744
188	0xbd86d766	-0.06584053
189	0xbd89f8d4	-0.06736913
190	0xbdccfe40	-0.10009432
191	0x3d9d24f8	0.07673067
192	0x3daa7549	0.083231516
193	0xbdf5203b	-0.11969038
194	0x3c608757	0.0137041425
195	0x3e12b6cb	0.14327542
196	0x3de19223	0.110142015
197	0xbd7de9af	-0.061990436
198	0x3dfa5a83	0.12224295
199	0xbd2c5bba	-0.042079665
200	0x3dac85fa	0.084239915
201	0x3ddc4b3a	0.10756536
202	0xbd94175c	-0.07231018
203	0xbe0eab57	-0.13932548
204	0xbdc27c98	-0.094964206
205	0x3d78f81a	0.060783483
206	0xbce3b296	-0.027795117
207	0x3db0626a	0.08612521
208	0x3c60ef77	0.013728968
209	0xbcd87c7c	-0.026426546
210	0x3e21f943	0.15817742
211	0x3e2e5a3a	0.17026606
212	0x3d9d5e3d	0.0768399
213	0xbdc1ed87	-0.09469133
214	0x3e279459	0.16365184
215	0x3d930dbf	0.07180356
216	0x3ca584f5	0.020205
217	0x3cf758d2	0.03019372
218	0x3e802b81	0.2503319
219	0xbdfe4d07	-0.124170355
220	0x3db6eec3	0.08932259
221	0xbe0a4b29	-0.13505234
222	0x3e334774	0.17507726
223	0xbe76dc33	-0.24107437
224	0x3d990a45	0.07472662
225	0x3e28f4ff	0.16499709
226	0x3dd09724	0.10185078
227	0x3e2ec2ca	0.17066494
228	0xbe4b6e85	-0.19866379
229	0x3d9f9f00	0.07793999
230	0x3e589798	0.21151578
231	0x3e01151d	0.1260571
232	0x3df02569	0.117258854
233	0x3bb75a28	0.0055954643
234	0xbe6a8242	-0.22901252
235	0x3b37844f	0.0028002446
236	0x3ce3a078	0.027786478
237	0xbc849433	-0.016183948
238	0xbdcee255	-0.10101763
239	0xbe25e9c4	-0.16202456
240	0x3de53575	0.11191837
241	0xbdc295b7	-0.09501212
242	0xbe139547	-0.14412414
243	0x3dc8d8da	0.09806986
244	0x3e167af9	0.14695348
245	0x3e49b23d	0.19696899
246	0x3e6a840e	0.22901937
247	0xbd203c0d	-0.03911977
248	0x3c934d12	0.017981086
249	0x3e56bc05	0.20970161
250	0xbd66d364	-0.05635394
251	0xbe056204	-0.13025671
252	0xbb7a3d35	-0.0038183455
253	0x3cf83be5	0.030301997
254	0x3ea2abdd	0.31771746
255	0xbd09a330	-0.033602893

conv3.bias f4 [128]
0	0xb78731b1	-1.6116393e-05
1	0x38b240ea	8.4997926e-05
2	0x394c7cb9	0.00019501419
3	0xb91f62cf	-0.0001520023
4	0xb91a6ba9	-0.00014726691
5	0x386345eb	5.4186134e-05
6	0x37448e82	1.1715691e-05
7	0x38d25ad1	0.00010030496
8	0xb95f8746	-0.0002131733
9	0xb94b7feb	-0.00019407242
10	0x397af666	0.00023933648
11	0xb80a4c63	-3.2972905e-05
12	0xb921b9a1	-0.00015423309
13	0xb895f9d8	-7.151411e-05
14	0xb91de597	-0.00015058216
15	0xb96b9c02	-0.00022469464
16	0xb9162bd3	-0.0001432144
17	0xb79964ff	-1.8286051e-05
18	0x39a314b4	0.00031105208
19	0xb9965788	-0.00028675445
20	0x39300808	0.0001678766
21	0xb944d3fe	-0.0001877099
22	0xb8969d1f	-7.1818235e-05
23	0xb9191a1f	-0.00014600948
24	0xb8a760e8	-7.981231e-05
25	0x3937e86f	0.00017538828
26	0x3967b3b6	0.00022096824
27	0x39385f03	0.00017583002
28	0x392b4f56	0.00016337386
29	0x399ba3e9	0.00029686026
30	0x38e6c600	0.00011004135
31	0x38eb3272	0.000112150694
32	0x39731b27	0.00023184401
33	0xb957b4d0	-0.00020571356
34	0x38b42e70	8.5917185e-05
35	0xb92600d6	-0.00015831305
36	0x397c22e4	0.0002404559
37	0xb94a5206	-0.00019294777
38	0x39483f56	0.00019097081
39	0xb8b44641	-8.596155e-05
40	0xb97322af	-0.00023187207
41	0x3929c9d5	0.00016192284
42	0xb95733c2	-0.00020523279
43	0x3901e356	0.00012387088
44	0x39c3e28e	0.00037362095
45	0xb962ed67	-0.00021641479
46	0x39608933	0.00021413415
47	0xb98170df	-0.00024688893
48	0x391da374	0.00015033578
49	0xb8c7e052	-9.530842e-05
50	0xb94082ac	-0.00018359226
51	0x39965606	0.00028674322
52	0x3992b55e	0.0002798242
53	0xb834a72b	-4.307103e-05
54	0xb90a64d5	-0.00013198268
55	0xb89bc714	-7.428057e-05
56	0xb8cd8c00	-9.801239e-05
57	0x38b6dbdd	8.719389e-05
58	0x383830b3	4.3914373e-05
59	0x38a2412e	7.7369026e-05
60	0xb7c68b6f	-2.3668368e-05
61	0x395da20e	0.00021136572
62	0x38fd1860	0.0001206852
63	0x39537a9a	0.000201682
64	0xb9398d37	-0.00017695581
65	0x3729b618	1.0115582e-05
66	0xb98f47de	-0.0002732863
67	0x391b6fd5	0.00014823613
68	0x3783c7a1	1.5709376e-05
69	0xb8bf619c	-9.125771e-05
70	0x390d0949	0.00013450267
71	0xb8420d2b	-4.6265468e-05
72	0xb9364dba	-0.00017385828
73	0x381385fd	3.5172317e-05
74	0xb91a0791	-0.00014689403
75	0xb8b31e9c	-8.5410866e-05
76	0x3966fc23	0.00022028438
77	0xb823b5cc	-3.903154e-05
78	0x39493297	0.000191877
79	0x373c9f21	1.1242723e-05
80	0xb94e33a7	-0.00019664933
81	0xb9949837	-0.0002834217
82	0xb94ca0cc	-0.00019514858
83	0x394349c8	0.00018624135
84	0xb98410dc	-0.00025189563
85	0xb6a15491	-4.8080187e-06
86	0xb91c7806	-0.00014922032
87	0x3915c96c	0.00014284783
88	0xb8ca1a0c	-9.636962e-05
89	0x39167685	0.00014349267
90	0x39785737	0.00023683613
91	0x38b97cd4	8.8447385e-05
92	0xb8c98784	-9.6096686e-05
93	0xb8b1014f	-8.4402614e-05
94	0x396bed8b	0.00022499838
95	0x39121d1c	0.00013934489
96	0xb8fafca3	-0.00011967986
97	0xb918088a	-0.0001449903
98	0xb9652f29	-0.0002185671
99	0xb916abd9	-0.00014369133
100	0xb82533fa	-3.9387472e-05
101	0xb96d3a5e	-0.00022623825
102	0xb8542cd8	-5.0586503e-05
103	0xb92d33ce	-0.00016517864
104	0x3955bf6d	0.00020384575
105	0xb8060759	-3.1954933e-05
106	0xb9301591	-0.00016792702
107	0x391a361f	0.00014706746
108	0x39643327	0.0002176283
109	0x389de0d8	7.528224e-05
110	0x38d92359	0.0001035395
111	0xb85b26e2	-5.224988e-05
112	0xb9735060	-0.00023204228
113	0x38cd8ae0	9.801029e-05
114	0xb950fe50	-0.00019931165
115	0xb9443912	-0.00018713277
116	0xb68fedf7	-4.289435e-06
117	0x3926cd23	0.00015907413
118	0x36d59b28	6.3659572e-06
119	0x399c8603	0.00029854485
120	0xb96b2bea	-0.00022427706
121	0xb96ecb0f	-0.00022773094
122	0x3740a66d	1.1482841e-05
123	0xb93363cc	-0.00017107947
124	0x38e17fda	0.0001075265
125	0xb898cabd	-7.285688e-05
126	0xb84c7eb5	-4.8755395e-05
127	0xb996a6e2	-0.00028734567

conv3.lin.weight f4 [128, 64]
0	0x3c157601	0.009122373
1	0xbe0fbd32	-0.14037016
2	0xbc3120ed	-0.010811073
3	0xbe5f7190	-0.21820664
4	0x3d96b650	0.07358992
5	0x3e4d90f0	0.2007482
6	0x3e312294	0.17298347
7	0xbdf09e0e	-0.117488965
8	0xbd5d6087	-0.054047134
9	0xbe23cafc	-0.15995401
10	0xbd6ec389	-0.058291946
11	0xbdf81e44	-0.12115148
12	0x3e0e6544	0.13905817
13	0x3e54926a	0.20758978
14	0xbd875ab2	-0.06609096
15	0xbdd9f52b	-0.10642465
16	0x3c7af30d	0.015316737
17	0x3cc01338	0.023446664
18	0xbdbc4ffd	-0.09194944
19	0xbd82b3ea	-0.06381972
20	0x3d6f8af2	0.058482118
21	0xbddc3ce2	-0.107538
22	0x3d67d1b4	0.056596473
23	0x3da1ee29	0.079067536
24	0x3cb6548e	0.022257116
25	0xbddd70ea	-0.10812552
26	0x3c6d5f8a	0.01448811
27	0xbd199550	-0.03749591
28	0xbdc5c45b	-0.096565925
29	0xbe59dda2	-0.21275952
30	0x3dca461e	0.09876655
31	0x3da06f85	0.07833771
32	0xbcd1a747	-0.02559246
33	0x3c97b5f0	0.018519372
34	0xbdd07b05	-0.10179714
35	0x3d49513e	0.049149744
36	0x3de64bd7	0.11244934
37	0x3c9d7844	0.019222386
38	0x3e41a24e	0.1890957
39	0x3c52a11e	0.012855796
40	0x3d83dc32	0.06438483
41	0xbdb24ae3	-0.0870569
42	0x3df679da	0.1203496
43	0x3d441234	0.047868922
44	0x3db1e333	0.08685913
45	0x3d8010f8	0.062532365
46	0xbd28bcef	-0.041195806
47	0x3debb127	0.115083985
48	0x3dcd6582	0.10029127
49	0xbe634164	-0.22192913
50	0x3b303e8c	0.002689275
51	0xbab705a6	-0.0013963475
52	0x3d8f65d1	0.07001842
53	0x3d0f98c8	0.035057813
54	0x3d5f7131	0.054551307
55	0xbd5b3eeb	-0.0535268
56	0x3c62b822	0.013837846
57	0xbd37c9c6	-0.04487016
58	0x3baa11b1	0.0051900973
59	0xbe09b308	-0.13447201
60	0xbe0a1f89	-0.13488592
61	0xbe1672dc	-0.14692253
62	0x3e56a67f	0.2096195
63	0x3d92d2fd	0.07169149
64	0xbe0a2804	-0.13491827
65	0xbde4abc6	-0.11165576
66	0x3d7daca9	0.06193224
67	0xbc875193	-0.01651839
68	0x3d15b263	0.036547076
69	0xbdd0b2f3	-0.10190382
70	0xbdd252c9	-0.10269696
71	0x3e253d0a	0.16136566
72	0xbda01bb0	-0.07817781
73	0x3e0415bb	0.12898915
74	0xbe09f180	-0.13471031
75	0x3e00caa0	0.12577295
76	0xbd85067b	-0.06495377
77	0x3d094dfc	0.033521637
78	0xbb7bf029	-0.0038442707
79	0x3df6338c	0.120215505
80	0x3bccf79f	0.0062551047
81	0xbd14b510	-0.036305487
82	0xbde8cf31	-0.113676436
83	0xbe36211a	-0.17786065
84	0x3e0cee80	0.13762856
85	0xbcde069b	-0.02710276
86	0xbdfca326	-0.123358056
87	0x3cc2628d	0.023728633
88	0xbc1398bf	-0.0090085855
89	0x3e53006b	0.20605628
90	0xbd8fec61	-0.070275076
91	0xbdff7504	-0.12473491
92	0x3cc9b7be	0.024623748
93	0x3db576e8	0.0886057
94	0x3d402a2f	0.04691523
95	0xbd0558e3	-0.032555472
96	0x3d876ed9	0.066129394
97	0x3d1ec359	0.038760517
98	0x3e08f857	0.13375984
99	0xbdd6f53d	-0.10495994
100	0x3de6887c	0.11256501
101	0x3dc461bb	0.09588953
102	0xbd130618	-0.035894483
103	0x3e264511	0.16237284
104	0x3e306a38	0.17228019
105	0x3df3910c	0.118929
106	0xbd1a863f	-0.037725683
107	0xbd806d56	-0.06270854
108	0xbc25db5d	-0.010123101
109	0xbe33c263	-0.17554621
110	0xbe4c8501	-0.19972612
111	0xbdfb906e	-0.12283407
112	0x3da263d9	0.07929201
113	0x3e0580ba	0.13037387
114	0x3d0a8fc6	0.03382852
115	0xbd14b8a3	-0.036308896
116	0x3dad76bc	0.084699124
117	0xbbaf7d69	-0.005355526
118	0xbd586b7c	-0.05283688
119	0xbc8608c8	-0.01636161
120	0xbe4b0440	-0.1982584
121	0x3da43438	0.080177724
122	0xbe43db0a	-0.19126526
123	0xbdf1a28d	-0.11798582
124	0x3d84bab6	0.06480925
125	0xbce50fb1	-0.027961584
126	0x3e29eb3b	0.1659364
127	0x3db0f341	0.08640147
128	0x3d3fd949	0.04683808
129	0xbd1e145e	-0.038593642
130	0x3e260d86	0.16216096
131	0xbd17e3c1	-0.037082437
132	0xbd6a31d8	-0.05717644
133	0x3cc16f7f	0.023612736
134	0x3e25c227	0.16187344
135	0xbce75b2a	-0.028241713
136	0x3daf4ee6	0.085599706
137	0x3ddd9e34	0.108211905
138	0x3d83ee6c	0.0644196
139	0x3d255717	0.04036626
140	0xbde83263	-0.113377355
141	0x3e12c4ff	0.1433296
142	0x3e0650fc	0.1311683
143	0x3e37ce83	0.17949872
144	0xbd9fa567	-0.0779522
145	0x3de711c6	0.11282687
146	0xbdc4312f	-0.095796935
147	0xbdeace4d	-0.1146513
148	0xbd268498	-0.040653795
149	0x3c13b0aa	0.009014288
150	0xbca5c252	-0.02023426
151	0x3d77681b	0.060402017
152	0xbe179b30	-0.14805293
153	0x3de92703	0.11384394
154	0x3d9e8e3f	0.07741975
155	0xbb5772e5	-0.003287488
156	0xbdf74881	-0.12074376
157	0xbb1668cd	-0.002295065
158	0x3dfa0a7d	0.12209032
159	0xbcbeab19	-0.023274945
160	0x3e4af2f0	0.19819236
161	0x3cf14c01	0.029455187
162	0x3d688bdf	0.056774016
163	0x3db27919	0.08714504
164	0x3c4559b8	0.012045316
165	0xbd5643c6	-0.052310728
166	0x3d76f4c4	0.06029202
167	0x3d006316	0.031344496
168	0x3e46587d	0.19369693
169	0x3d0f6d8d	0.035016585
170	0x3e598117	0.2124065
171	0x3d92dfe1	0.07171608
172	0x3e189591	0.14900805
173	0x3e00ccbd	0.12578101
174	0xbe28675b	-0.16445677
175	0x3db0eb2f	0.08638608
176	0x3e5c9d6b	0.21544425
177	0xbd92bed3	-0.07165303
178	0x3dcc1f2a	0.099668816
179	0xbd301b9e	-0.042995088
180	0xbda0d2e8	-0.07852727
181	0xbd1ab8a2	-0.037773736
182	0xbc90233d	-0.017594928
183	0x3d61d7a9	0.05513731
184	0xbe10ebb7	-0.14152418
185	0xbd23d7c9	-0.04000071
186	0xbe6974e6	-0.227985
187	0x3c7be86a	0.015375236
188	0x3df04fc0	0.11733961
189	0x3d776098	0.060394853
190	0x3ca98053	0.020691073
191	0x3e04fcdc	0.12987083
192	0xbdb2bbf2	-0.08727254
193	0x3d1cf0a1	0.03831542
194	0x3a451003	0.00075173395
195	0xbdc38ef4	-0.095487505
196	0x3df83e31	0.12121237
197	0x3dffe7e7	0.12495404
198	0x3e61638a	0.22010627
199	0xbd33b1ed	-0.043870855
200	0x3e379372	0.1792734
201	0xbdb81429	-0.0898822
202	0xbddc7c1d	-0.1076586
203	0xbe304dcd	-0.17217179
204	0xbc6b3aea	-0.014357308
205	0x3db336a1	0.08750654
206	0xbdab7b7f	-0.083731644
207	0xbd59f7df	-0.053214904
208	0x3d022a9d	0.03177892
209	0x3d7de34b	0.06198434
210	0xbdf498a0	-0.119431734
211	0x3dcf8ed5	0.10134665
212	0x3e25e56f	0.16200803
213	0xbd5777d6	-0.05260452
214	0xbe254696	-0.16140208
215	0xbc3712c2	-0.011173906
216	0xbcfeb19c	-0.03109055
217	0xbe2d4c1e	-0.16923568
218	0x3cd8839a	0.02642994
219	0xbe023b6f	-0.12717985
220	0x3e33ad9c	0.17546695
221	0x3d7da833	0.061927985
222	0xbd014e66	-0.031568907
223	0xbdf54172	-0.11975373
224	0x3e15b93d	0.14621444
225	0x3e2dc3c9	0.16969217
226	0xbce2d969	-0.02769156
227	0xbd51c1fd	-0.051210392
228	0x3dd27bbc	0.10277507
229	0xbdf97c43	-0.12181904
230	0x3e1aac8f	0.15104888
231	0x3dcf9378	0.10135549
232	0xbc4916e4	-0.012273524
233	0xbe4e2ca5	-0.20134218
234	0xbe18cd6a	-0.14922109
235	0x3dbaf902	0.09129526
236	0x3e2e7556	0.17036948
237	0x3e2c716f	0.16840146
238	0xbdbc53f2	-0.09195699
239	0xbd9440aa	-0.07238896
240	0xbdee6aed	-0.11641488
241	0x3b73c4c3	0.0037196137
242	0xbdc26a39	-0.094929166
243	0xbd09762e	-0.03355997
244	0x3ddf7a35	0.10911981
245	0x3d713d15	0.058896143
246	0x3d2b88fa	0.041878678
247	0x3d5843ef	0.05279916
248	0x3d4c3cbb	0.049862605
249	0x3d8fec4c	0.07027492
250	0xbdf6738d	-0.12033758
251	0xbde88bd5	-0.11354796
252	0x3e1d22cc	0.15345305
253	0xbdd017a2	-0.101607576
254	0x3b5b3e24	0.0033453787
255	0xbe2de168	-0.16980517

conv4.bias f4 [256]
0	0xbd47e80e	-0.04880529
1	0xbd0cc61a	-0.034368612
2	0x3d43a9d6	0.04776939
3	0xbd6374c9	-0.055531297
4	0x3d0ede7d	0.03488015
5	0xbbf83ec7	-0.007575843
6	0xbcf1502f	-0.02945718
7	0x3b4504c1	0.0030062648
8	0xbc8911b5	-0.016732076
9	0xbd4a06ec	-0.049323007
10	0x3d1ec0d5	0.038758118
11	0xbd24c112	-0.04022319
12	0xbd85486f	-0.06507956
13	0xbcdc1b9f	-0.02686864
14	0xbcf60b2e	-0.030034628
15	0xbd66a8e9	-0.05631343
16	0xbd6039c7	-0.0547426
17	0xbd177a46	-0.036981843
18	0xbdde372a	-0.108503655
19	0xbcda5e4b	-0.02665629
20	0xbd677fdd	-0.056518424
21	0xbcbd7a55	-0.023129622
22	0x3d404201	0.046937946
23	0xbd5128b5	-0.051064212
24	0xbd3296a1	-0.043600682
25	0xbd1b8f67	-0.037978556
26	0xbd56f348	-0.052478105
27	0xbd3dcd85	-0.046338577
28	0xbc4dd040	-0.012561858
29	0xbd0a36a6	-0.033743523
30	0x3cc65009	0.024208086
31	0xbc95c4bc	-0.018282287
32	0x3c8b8e65	0.017035672
33	0xbd768d4a	-0.060193338
34	0x3d21b9b2	0.039483733
35	0x3c89c035	0.016815284
36	0xbe00a391	-0.12562396
37	0xbce17b2d	-0.027524555
38	0xbace2646	-0.0015727959
39	0xbd592943	-0.053017866
40	0xbd0a9ec8	-0.03384283
41	0xbd6387f8	-0.05554959
42	0x3d3b17a5	0.045676846
43	0x3c874c44	0.016515858
44	0xbc887b01	-0.016660215
45	0x3d44d647	0.048055913
46	0x3c5a806f	0.013336285
47	0x3b52e873	0.0032182008
48	0x3be38d04	0.0069443006
49	0x3dc9cb8c	0.098532766
50	0xbd056cd2	-0.032574482
51	0x3b06015c	0.0020447588
52	0xbd6e5bff	-0.058193203
53	0x3c2d5e18	0.010581516
54	0xbcd0e0bd	-0.025497789
55	0xbd68b47a	-0.05681274
56	0xbda14c47	-0.07875877
57	0xbd34fc8b	-0.044186156
58	0xbca80afd	-0.020513052
59	0x3d14b279	0.036303017
60	0xbccd8c72	-0.025091384
61	0xbd2e1f5d	-0.04251038
62	0x3c4e74e0	0.012601107
63	0x3d22f90f	0.039788302
64	0xbd6c4224	-0.057680264
65	0x3c206ce3	0.009791586
66	0x3d38db9e	0.04513132
67	0xbc09ffb7	-0.008422784
68	0xbd771436	-0.06032201
69	0x3ca08ac5	0.01959742
70	0x3bfed696	0.0077770455
71	0xbd440482	-0.04785586
72	0xbd39b6ac	-0.045340225
73	0xbd772956	-0.060342155
74	0x3d15f5f2	0.036611505
75	0xbc6e2ac8	-0.014536567
76	0xbd2846d4	-0.041083172
77	0x3dc019cf	0.093799226
78	0x3ce9a644	0.028521664
79	0x3d3519d5	0.04421409
80	0xbd2b14ab	-0.041767757
81	0xbd429d6b	-0.047513407
82	0xbc893949	-0.016750949
83	0x3d340e5a	0.043959
84	0xbae3c0a5	-0.0017376138
85	0xbd4f7aae	-0.050654106
86	0xbd303f55	-0.043029148
87	0xbbf8a89f	-0.0075884606
88	0xbd4bcd0b	-0.04975609
89	0x3d15d58b	0.036580604
90	0x3d468be4	0.048473254
91	0xbdbbe817	-0.09175127
92	0x3c55f208	0.013058193
93	0xbd743dca	-0.05962924
94	0xbc955c5b	-0.018232515
95	0xbb383079	-0.0028105064
96	0xbd743384	-0.05961944
97	0xbb7f6aa1	-0.0038973468
98	0x3c608fa5	0.0137061225
99	0x3c9c7bf0	0.019102067
100	0xbd7d9847	-0.0619128
101	0x3c6db42e	0.01450829
102	0x3cacc723	0.02109105
103	0xbd52203d	-0.051300276
104	0xbbd9f706	-0.006651762
105	0xbc8503ec	-0.016237222
106	0xbb8f873b	-0.0043801344
107	0xbd7b8069	-0.06140176
108	0x3c6a90ac	0.014316719
109	0xbd16a463	-0.036777865
110	0xbc547297	-0.0129667735
111	0xbcc5556a	-0.02408858
112	0x3d13d0ee	0.036087923
113	0xbd645360	-0.055743575
114	0xbd4251d1	-0.047441307
115	0xbaa93a3e	-0.0012911034
116	0xbd51da41	-0.051233534
117	0xbd92d783	-0.07170012
118	0xbce7745b	-0.028253725
119	0xbcdc981f	-0.026928006
120	0xbc677799	-0.014127635
121	0xbc151f22	-0.009101661
122	0xbd2a661d	-0.04160129
123	0x3d161714	0.036643103
124	0xbd396485	-0.04526188
125	0x3d5ca169	0.05386487
126	0xb969e7a7	-0.00022306909
127	0xbc801512	-0.015635047
128	0xbd8c17ed	-0.06840501
129	0xbcd48c2c	-0.025945745
130	0xbd531b77	-0.051539864
131	0x3cfc957d	0.030833
132	0xbad05dcc	-0.0015897094
133	0xbdaa688c	-0.08320722
134	0xbd025f14	-0.031828955
135	0x3cf72592	0.030169282
136	0xbd5e74f8	-0.05431077
137	0x3c7a2e9a	0.0152699
138	0xbd598599	-0.053105924
139	0xbcb45591	-0.022013457
140	0xbda2df22	-0.079527155
141	0xbcd55c03	-0.026044851
142	0xbd64479e	-0.055732362
143	0xbd1ae5ca	-0.0378168
144	0x3cd45447	0.025919093
145	0xbdb49a2c	-0.088184685
146	0xbcf43f23	-0.029815262
147	0xbba087ea	-0.0048990147
148	0x3c0b49c3	0.008501473
149	0xbd055294	-0.032549456
150	0xbc81bca6	-0.015837025
151	0x3d03a72c	0.03214185
152	0x3b98a2f4	0.0046580974
153	0xbcde986e	-0.027172294
154	0xbd244882	-0.04010821
155	0xbd69b47d	-0.057056893
156	0xbd5f52c5	-0.054522295
157	0x3b9b4dca	0.004739498
158	0xbd97e474	-0.07416621
159	0xbcc2b9c1	-0.023770215
160	0xbcf8da44	-0.030377515
161	0x39c2c85a	0.00037151837
162	0xbca77661	-0.02044219
163	0xbc6ef5bd	-0.014584956
164	0xbd77a3c2	-0.060458906
165	0xbc57159c	-0.013127711
166	0xbc882e8f	-0.016623763
167	0xbd0c2d58	-0.03422293
168	0x3cb70fa7	0.02234633
169	0xbd7534fb	-0.05986498
170	0xbd9d9628	-0.07694656
171	0xbd06343f	-0.03276467
172	0xbc923c2f	-0.017850963
173	0xbd6cf638	-0.057852
174	0x3d2a64cb	0.04160003
175	0x3c4a3fc2	0.012344303
176	0xbc4f7ecf	-0.012664511
177	0xbd5d0ea4	-0.05396904
178	0xbc3cc5ba	-0.011521751
179	0xbc43b794	-0.011945624
180	0x3d1d7b7f	0.038447853
181	0xbd6660f6	-0.056244813
182	0xbd1bd2a5	-0.038042683
183	0x3b6e53c6	0.003636585
184	0x3cc814df	0.024424015
185	0x3b3b97b8	0.0028624367
186	0xbc93b11f	-0.018028794
187	0xbd2fe812	-0.04294593
188	0xbc8a38d0	-0.016872793
189	0xbd66372f	-0.05620497
190	0x3c94c7b6	0.018161636
191	0xbd632f39	-0.055464957
192	0x3cbda1fd	0.023148531
193	0xbd503d8d	-0.05083995
194	0x3c0a9481	0.008458258
195	0xbb114d34	-0.002217126
196	0xbd4668a9	-0.048439655
197	0x3d15884e	0.036506943
198	0xbd86f22d	-0.0658916
199	0xbd878880	-0.06617832
200	0xbd4b1692	-0.04958207
201	0x3cb0ff12	0.021606002
202	0x3cfb2ea9	0.030661898
203	0xbc98bdd8	-0.018645212
204	0xbd4185b5	-0.047246654
205	0x3c8c9608	0.017161384
206	0xbcc4759d	-0.023981864
207	0xbd8250b4	-0.06363049
208	0x3b2a621a	0.0025998414
209	0xbc0170a7	-0.007900394
210	0x3c54bbb5	0.012984206
211	0xbcab767a	-0.020930517
212	0xbd9157da	-0.070968345
213	0x3c9bcd0e	0.019018676
214	0xbd4fd4f9	-0.050740216
215	0xbd3d6d78	-0.046246976
216	0xbd69f765	-0.0571207
217	0x3d41ca9c	0.047312364
218	0xbc8397cb	-0.016063591
219	0xbd80855e	-0.06275438
220	0xbca101bd	-0.01965415
221	0xbc57feee	-0.013183339
222	0x3c960e42	0.018317346
223	0x3cff995d	0.031201059
224	0x3d9ce178	0.07660192
225	0xbd593ae4	-0.053034678
226	0xbd41151d	-0.047139276
227	0xbd22a813	-0.03971107
228	0xbd432fdf	-0.047653075
229	0x3cc3d30d	0.023904348
230	0xbb8aba43	-0.00423363
231	0xbd99a355	-0.07501856
232	0x3d72388c	0.05913596
233	0xbd068967	-0.03284588
234	0xbd4e93a5	-0.050433774
235	0x3d14eaa2	0.036356576
236	0x3d6509a1	0.055917386
237	0x3c96a233	0.01838789
238	0xbd445d2d	-0.04794042
239	0xbd239f55	-0.039946873
240	0xbd79e9c1	-0.06101394
241	0xbd8cedfa	-0.06881328
242	0x3cb11f56	0.021621387
243	0x3c720a39	0.014772945
244	0x3cb8fca3	0.022581404
245	0xbdb118d4	-0.08647314
246	0xbd884485	-0.06653694
247	0x3d3615e6	0.044454478
248	0xbd16ea15	-0.03684433
249	0x3ce0508e	0.027382161
250	0xbd1ff0a6	-0.03904786
251	0x3d411192	0.047135897
252	0x3b030b82	0.0019995873
253	0x3d0320d8	0.032013744
254	0xbce5252f	-0.027971832
255	0xbd43038f	-0.047610816

conv4.lin.weight f4 [256, 128]
0	0xbd996464	-0.07489851
1	0xbd7bd8b7	-0.061485972
2	0x3da86eec	0.08224282
3	0x3cdad8bb	0.026714673
4	0x3db754e1	0.08951736
5	0xbdb68172	-0.089114085
6	0xbe3312e1	-0.1748767
7	0xbe0cd105	-0.1375161
8	0xbd8decff	-0.06929969
9	0x3c863413	0.016382253
10	0x3d067e2b	0.032835167
11	0x3c3d4829	0.011552849
12	0xbe05f28c	-0.13080806
13	0x3dab288d	0.08357344
14	0x3d6b1c61	0.05740011
15	0x3c785f93	0.015159505
16	0xbcf38e34	-0.029730894
17	0xbd2a6b6c	-0.04160635
18	0xbd97afcd	-0.07406578
19	0xbcb988ad	-0.02264818
20	0xbcb002ba	-0.021485675
21	0xbd608157	-0.054810848
22	0xbe157a73	-0.14597492
23	0x3d699ffc	0.05703734
24	0xbe0cf94c	-0.13766974
25	0xbde8c233	-0.113651656
26	0x3d51d191	0.05122525
27	0xbd873a29	-0.0660289
28	0x3dad9af8	0.084768236
29	0x3d158c3a	0.036510684
30	0xbc8b4aed	-0.0170035
31	0xbde99cc3	-0.11406853
32	0x3cc7eff5	0.024406413
33	0xbe0a9b42	-0.13535789
34	0xbd3a8a5b	-0.045542102
35	0xbd34ec77	-0.044170823
36	0xbe0f4665	-0.13991697
37	0xbc8dde3a	-0.01731788
38	0xbde20da8	-0.11037761
39	0xbdc13bc2	-0.09435226
40	0xbd7437fb	-0.0596237
41	0x3d21f35c	0.039538726
42	0xbd54b19e	-0.0519272
43	0xbcef7e29	-0.029234963
44	0x3ce8f385	0.028436432
45	0xbe15cc49	-0.1462871
46	0xbbb2d03f	-0.005456954
47	0x3dd75f24	0.105161935
48	0x3d226b7d	0.03965329
49	0xbccfda1b	-0.025372555
50	0x3d1bb45f	0.038013812
51	0x3d5dc928	0.054146916
52	0xbd89c33a	-0.0672669
53	0xbd3a9059	-0.045547817
54	0x3d518041	0.051147703
55	0xbe2c3a67	-0.16819154
56	0x3cf58796	0.029971879
57	0xbe205606	-0.15657815
58	0xbd263ede	-0.0405873
59	0xbe01ff88	-0.12695134
60	0xbd414c9f	-0.047192212
61	0xbe2af55b	-0.16695158
62	0x3cea2023	0.028579777
63	0x3dcdc709	0.100477286
64	0xbc3c35ae	-0.011487408
65	0x3d9eaffe	0.077484116
66	0xbdadc1ac	-0.084842056
67	0xbd6ce1fd	-0.057832707
68	0x3d9311cf	0.07181131
69	0xbdd41c95	-0.10357014
70	0xbe012078	-0.12610042
71	0x3caa7a42	0.02081025
72	0x3de7b6e3	0.1131418
73	0xbdcf5740	-0.101240635
74	0xbdaf0abf	-0.085469715
75	0xbc9aed95	-0.018912116
76	0x3c4a8534	0.01236086
77	0xbd3b4209	-0.045717273
78	0xbda98189	-0.0827666
79	0xbe3d81e2	-0.18506578
80	0x3e0d9473	0.1382616
81	0xbde7ce3f	-0.11318635
82	0x3dc2b27b	0.09506699
83	0x3d317287	0.043322112
84	0xbdac857a	-0.08423896
85	0x3d0f6eaa	0.035017647
86	0xbdeb7b03	-0.11498072
87	0xbe252049	-0.16125597
88	0xba113e1d	-0.00055405666
89	0xbd969ab0	-0.07353723
90	0xbded0463	-0.11573102
91	0xbe1bd9c1	-0.15219785
92	0xbd7ba6f1	-0.061438505
93	0x3d23e4b8	0.040013045
94	0xbe0295a2	-0.12752393
95	0xbd82b2c2	-0.063817516
96	0x3cada945	0.021198878
97	0xbcf64f71	-0.030067177
98	0xbde42da4	-0.11141518
99	0xbd5dd104	-0.05415441
100	0x3d9ec784	0.07752898
101	0x3d903057	0.0704047
102	0x3d1d0766	0.038337134
103	0x3d007e9d	0.031370748
104	0xbe222005	-0.15832527
105	0xbd886d10	-0.06661427
106	0xbc0522a5	-0.008125936
107	0xbde69a7d	-0.11259935
108	0xbb42e839	-0.0029740466
109	0xbd8a02fa	-0.06738849
110	0x3db3c6c7	0.08778148
111	0x3d23215f	0.039826747
112	0x3de4802e	0.11157261
113	0x3db06837	0.086136274
114	0xbdec6160	-0.1154201
115	0x3d943c52	0.07238068
116	0xbe25717d	-0.16156574
117	0xbb4b51c1	-0.003102407
118	0xbe0b037c	-0.13575548
119	0xb8276738	-3.9912033e-05
120	0xbd85e236	-0.06537287
121	0xbdbee15a	-0.09320326
122	0xbc5a7c23	-0.013335261
123	0xbd9ee879	-0.077591844
124	0xbda253f8	-0.07926172
125	0x3d45763e	0.048208468
126	0xbdf497de	-0.11943029
127	0xbe073d7a	-0.13207045
128	0x3e0c67ce	0.13711473
129	0xbdff3218	-0.124607265
130	0xbdd87cc4	-0.10570672
131	0x3c8a0b9e	0.016851243
132	0xbc8a2db2	-0.016867492
133	0x396a24c3	0.00022329674
134	0xbd8baa0c	-0.06819543
135	0xbcc7a8cb	-0.024372479
136	0xbd954b23	-0.07289722
137	0x3cbaf128	0.02282007
138	0xbe1b7ec0	-0.1518507
139	0x3dbfd1da	0.09366198
140	0x3d20eccf	0.03928834
141	0xbe2ccd2e	-0.16875145
142	0x3d4ff57e	0.05077123
143	0xbd6e5b59	-0.058192585
144	0xbd0b76df	-0.03404891
145	0x3d8bc7d5	0.06825224
146	0xbde945e1	-0.113902815
147	0x3b67851f	0.003532715
148	0xbe038ce2	-0.12846711
149	0x3cc89398	0.02448444
150	0xbd52c013	-0.051452707
151	0x3d8b162f	0.067913406
152	0x3db52bd9	0.08846254
153	0x3d6c3204	0.057664886
154	0xbe166bd4	-0.1468957
155	0xbdf3071c	-0.118665904
156	0x3dbe3b88	0.092886984
157	0xbcf06bab	-0.029348215
158	0xbda1f193	-0.07907405
159	0xbd164b47	-0.036692884
160	0xbe0d3feb	-0.13793914
161	0x3a060477	0.00051123596
162	0xbd0fab0e	-0.03507524
163	0xbd46fb73	-0.048579644
164	0xbda7b309	-0.08188445
165	0xbe0a3c28	-0.1349951
166	0x3d918db9	0.071071096
167	0xbdb4b8c1	-0.088243015
168	0xbdb4b6b8	-0.08823913
169	0x3d8759fa	0.066089585
170	0xbc821392	-0.015878472
171	0x3db5c201	0.08874894
172	0xbd8aaa4d	-0.067707635
173	0x3d48ac0f	0.048992213
174	0xbd19d76e	-0.037558965
175	0xbc912245	-0.017716536
176	0x3d7eb127	0.062180664
177	0x3dc843f8	0.09778589
178	0xbd881f91	-0.06646646
179	0x3da52cf3	0.08065214
180	0x3d406d04	0.046978965
181	0xbcca1842	-0.02466977
182	0x3d913a72	0.07091226
183	0xbaacaa2a	-0.0013173271
184	0xbce75838	-0.028240308
185	0xbd9e36a7	-0.07725268
186	0xbe0dfdf8	-0.13866413
187	0x3dd18ac9	0.10231549
188	0x3d76a07f	0.060211655
189	0x3e06960f	0.1314318
190	0xbd86ecfd	-0.06588171
191	0xbd982021	-0.07428003
192	0xbc4ff1c8	-0.0126919225
193	0x3cf3c7c6	0.029758345
194	0x3d9fa2b6	0.077947065
195	0x3cc1468e	0.023593213
196	0xbad3c22c	-0.001615589
197	0xbe05b4f9	-0.13057317
198	0xbc8947cd	-0.01675787
199	0xbd5952f3	-0.053057622
200	0xbe333568	-0.17500842
201	0x3d4b8c63	0.04969443
202	0xbd5ad308	-0.05342391
203	0x3d8b569d	0.068036295
204	0xbd035e22	-0.032072194
205	0xbc9f9f1e	-0.019485053
206	0xbdfaddca	-0.12249334
207	0x3d91a2f9	0.07111163
208	0xbe101d34	-0.1407364
209	0x3d72a72b	0.059241455
210	0xbdc1c6a9	-0.094617195
211	0x3d0196b4	0.031637862
212	0xbd0a7733	-0.033805083
213	0xbd46fa1c	-0.048578367
214	0x3de3e172	0.11126985
215	0x3ceaabd2	0.028646383
216	0xbdcd309b	-0.100190364
217	0x3dcaced4	0.099027306
218	0xbb894aba	-0.0041898163
219	0xbd2c70ac	-0.04209964
220	0xbb979694	-0.0046261046
221	0xbd82af03	-0.06381037
222	0xbd6112c6	-0.054949544
223	0xbcd7ba35	-0.026333908
224	0xbd160311	-0.036624018
225	0x3df3db98	0.119071186
226	0xbdd57194	-0.10422054
227	0x3da182ac	0.07886252
228	0xbe0af081	-0.13568307
229	0x3d58f9d9	0.05297265
230	0xbe0437f1	-0.12911965
231	0xbdbc9b53	-0.09209313
232	0xbd61df4e	-0.0551446
233	0xbe376934	-0.17911226
234	0x3d8fa08c	0.07013044
235	0x3d792377	0.060824838
236	0x3d631b3e	0.055445902
237	0x3c9f6a6f	0.019459931
238	0xbde61d24	-0.11236027
239	0xbca7c47a	-0.02047943
240	0xbdacb617	-0.084331684
241	0x3b2c537d	0.002629488
242	0xbdba8513	-0.09107413
243	0xbccd5400	-0.025064468
244	0x3cdc24c0	0.026872993
245	0x3d8e387b	0.069443665
246	0xbe005ec7	-0.12536155
247	0x3c7bc12a	0.015365878
248	0x3bf585a2	0.007492737
249	0xbdaef04f	-0.08541929
250	0x3d815e36	0.063167974
251	0x3b67f14a	0.0035391622
252	0x3ca99e30	0.020705312
253	0x3dd0c43a	0.10193677
254	0xbd917df4	-0.07104102
255	0x3d6f5f11	0.05844027

conv5.bias f4 [256]
0	0x379ac42f	1.8449586e-05
1	0x395b6708	0.0002092385
2	0xb93dc8fb	-0.00018099316
3	0x38f3e6c5	0.00011630127
4	0xb97248e5	-0.00023106074
5	0x38f3719b	0.000116083036
6	0xb8ca8031	-9.655988e-05
7	0x394ec24e	0.00019718075
8	0xb953ac58	-0.00020186731
9	0xb99280c1	-0.0002794322
10	0x3912bef2	0.00013994778
11	0xb60d4b1f	-2.1054364e-06
12	0x3929185f	0.00016126175
13	0x375fdaa7	1.3342745e-05
14	0x3964aba8	0.00021807721
15	0x38556a8d	5.088239e-05
16	0xb8828464	-6.223543e-05
17	0x38287e51	4.0171963e-05
18	0x3905bcdc	0.00012754224
19	0xb9594f8a	-0.00020724363
20	0x394d2c9b	0.0001956694
21	0x3980f953	0.00024599824
22	0xb981f8f0	-0.0002479027
23	0xb8818b49	-6.177143e-05
24	0xb796a5d7	-1.7958619e-05
25	0x38eb5519	0.00011221524
26	0xb9b3ab69	-0.0003426925
27	0xb8ebc364	-0.000112420676
28	0x383073de	4.206958e-05
29	0x3945b4b5	0.00018854703
30	0xb8ee9395	-0.00011376214
31	0x38a5da67	7.908494e-05
32	0xb97d69b8	-0.00024167344
33	0x37a2f12d	1.9424211e-05
34	0xb88c6637	-6.694759e-05
35	0x38b4079a	8.584485e-05
36	0xb984c81f	-0.00025326104
37	0xb79fc558	-1.9046172e-05
38	0xb8234dd0	-3.8934697e-05
39	0x39218ab4	0.00015405827
40	0xb9048bf7	-0.00012640642
41	0xb9025dd6	-0.00012432723
42	0xb9c26858	-0.00037080306
43	0xb99e4c9a	-0.0003019318
44	0x3964a3a9	0.00021804743
45	0x37cb87e4	2.4262765e-05
46	0xb8123906	-3.486222e-05
47	0xb945feee	-0.00018882353
48	0xb93d5974	-0.00018057768
49	0x393e9007	0.00018173466
50	0x379471bd	1.7695938e-05
51	0x39410feb	0.00018411844
52	0x3970470e	0.00022914654
53	0xb8f0b3f5	-0.000114776114
54	0x399abde3	0.00029514646
55	0xb811923e	-3.4706893e-05
56	0xb9003986	-0.0001222846
57	0xb91a4ab8	-0.0001471442
58	0xb964f3e6	-0.00021834634
59	0xb72c4306	-1.0267604e-05
60	0xb92c2b27	-0.00016419274
61	0x3991a840	0.0002778191
62	0xb7dfa6ac	-2.6661284e-05
63	0xb953bed3	-0.00020193616
64	0xb924a25f	-0.00015700747
65	0xb851e1f7	-5.003993e-05
66	0xb92baa1b	-0.000163712
67	0x3869f4a3	5.5779365e-05
68	0xb8aaaba4	-8.138202e-05
69	0x38034a22	3.1301875e-05
70	0xb913fe9d	-0.00014113863
71	0x38cac7cd	9.6693264e-05
72	0xb9570aee	-0.0002050807
73	0xb94b6cbe	-0.00019400098
74	0x392ee5c5	0.00016679529
75	0xb8d581fa	-0.000101808415
76	0x39e785b5	0.00044159373
77	0xb925b467	-0.00015802831
78	0xb900e4a6	-0.0001229221
79	0x3961892a	0.0002150877
80	0x38229274	3.8760205e-05
81	0x390800f0	0.0001297032
82	0xb796a8e2	-1.7960036e-05
83	0x3981ff20	0.0002479488
84	0x3920abe7	0.00015322828
85	0x399ae031	0.00029540205
86	0x3967c4b8	0.0002210316
87	0x3983db2f	0.00025149572
88	0xb8c62a99	-9.44931e-05
89	0xb60ced76	-2.0999846e-06
90	0xb9e39468	-0.00043407385
91	0xb91058fa	-0.00013766057
92	0xb8f24b13	-0.00011553443
93	0x390cad4b	0.00013415997
94	0x3918d537	0.00014575278
95	0x39357312	0.00017304372
96	0xb887e6c4	-6.480285e-05
97	0xb95f0ce3	-0.00021271738
98	0x39f014d7	0.00045791894
99	0xb93006b0	-0.00016787159
100	0x39777bbf	0.00023601855
101	0xb7a1b703	-1.9277917e-05
102	0x396ec771	0.00022771746
103	0x38a3b439	7.806015e-05
104	0xb932bf0c	-0.00017046573
105	0x3906da6b	0.00012860603
106	0x39737578	0.00023218046
107	0x39463d49	0.00018905582
108	0xb89b49ab	-7.404698e-05
109	0x37e22e45	2.6962845e-05
110	0xb8c96d5f	-9.604799e-05
111	0x39367882	0.00017401765
112	0x389ccc0f	7.4766685e-05
113	0xb95d4504	-0.00021101913
114	0x392a3a8b	0.00016234272
115	0xb917466e	-0.0001442672
116	0xb7eabb17	-2.7982094e-05
117	0x3895d333	7.1442126e-05
118	0x38df927f	0.00010660756
119	0xb954abfb	-0.00020281963
120	0xb827b1d3	-3.9981514e-05
121	0x391fe9e2	0.0001525055
122	0xb964a47b	-0.00021805048
123	0x3898e63d	7.29081e-05
124	0x3910a8c4	0.0001379578
125	0x384aca78	4.8349117e-05
126	0xb8db16f6	-0.000104470106
127	0xb94c9022	-0.0001950865
128	0x38d333c1	0.00010070904
129	0xb9833f29	-0.00025033325
130	0x398b8a55	0.0002661521
131	0x3942ec4e	0.00018589312
132	0xb9bae5f1	-0.00035648004
133	0x397b765a	0.00023981315
134	0xb8ed7c4f	-0.00011324195
135	0xb8d8584a	-0.00010316128
136	0x393d2121	0.00018036786
137	0x3938f813	0.00017640022
138	0x396fd876	0.00022873454
139	0xb9352e91	-0.00017278852
140	0xb8ee5265	-0.000113640715
141	0x39238497	0.00015594285
142	0xb90fda2c	-0.00013718818
143	0xb9babef7	-0.00035618964
144	0x381b179b	3.6976864e-05
145	0xb9858f66	-0.00025474577
146	0x381d6ad9	3.7531227e-05
147	0xb982a25c	-0.000249165
148	0xb99fbf05	-0.00030469164
149	0x393cd1ee	0.00018007282
150	0xb87444a9	-5.8238078e-05
151	0x38bc4656	8.97764e-05
152	0xb8dd171a	-0.00010542404
153	0x3807c2f2	3.2368065e-05
154	0xb91caecc	-0.00014942436
155	0x395e0b14	0.00021175697
156	0xb8e35ad4	-0.000108411215
157	0xb8b2305e	-8.4967105e-05
158	0xb7e4aa2b	-2.7258959e-05
159	0xb9070077	-0.00012874776
160	0x3934dc20	0.0001724814
161	0x365dc790	3.3047727e-06
162	0x393a5f1d	0.00017773775
163	0xb8bba559	-8.947653e-05
164	0xb983797e	-0.00025076786
165	0xb90d8cb8	-0.0001349923
166	0x393d7490	0.00018067867
167	0xb9b32fcc	-0.00034177152
168	0xb8ec84ef	-0.00011278118
169	0x3985aae5	0.00025495063
170	0xb92d15e7	-0.00016506725
171	0x38ce7c49	9.8459954e-05
172	0xb7d00fd2	-2.48029e-05
173	0xb876f66d	-5.8880472e-05
174	0x3941654a	0.00018443647
175	0xb95a4a0f	-0.00020817689
176	0x38a1e332	7.719397e-05
177	0xb805acd6	-3.1870637e-05
178	0x392a566f	0.00016244662
179	0xb805be11	-3.1886684e-05
180	0x39345e2d	0.00017201221
181	0x38ee5140	0.00011363858
182	0x39513ad2	0.00019953705
183	0xb83b1f1d	-4.461325e-05
184	0x381ba3f5	3.7107577e-05
185	0xb91ed703	-0.00015148152
186	0xb92b05dd	-0.00016310015
187	0xb922f4db	-0.0001554074
188	0xb7740238	-1.454405e-05
189	0x38944570	7.070124e-05
190	0x392574d4	0.00015779148
191	0x392867da	0.00016060416
192	0x394cd7a3	0.00019535287
193	0x39406b64	0.00018350553
194	0x38abacbb	8.186089e-05
195	0xb9c65aac	-0.0003783306
196	0xb9145dcf	-0.00014149326
197	0x390b35d7	0.0001327613
198	0x39842eff	0.00025212017
199	0x39cee2c6	0.0003946034
200	0x3909d355	0.00013144065
201	0xb960670f	-0.00021400697
202	0xb8a00872	-7.6309676e-05
203	0xb67dc5e5	-3.7815128e-06
204	0xb8615ef9	-5.373263e-05
205	0xb869d8e2	-5.5753517e-05
206	0x3908cc35	0.00013046044
207	0x39254698	0.00015761924
208	0xb9c24179	-0.00037051344
209	0x39a741e2	0.0003190181
210	0xb9851d1b	-0.00025389422
211	0xb9012a5b	-0.00012318177
212	0xb9770dc5	-0.00023560885
213	0x391b5c29	0.00014816284
214	0xb9257f92	-0.0001578315
215	0x390e60a7	0.00013578181
216	0xb95bb9ec	-0.00020954729
217	0xb9879795	-0.00025862144
218	0xb8d1e740	-0.0001000897
219	0xb73e1fad	-1.1332258e-05
220	0x39862be0	0.0002559116
221	0x39e72fd6	0.00044095394
222	0x399eada8	0.00030265492
223	0x393aa25a	0.00017798823
224	0x390153d4	0.00012333627
225	0xb88ba5b4	-6.658901e-05
226	0x393d72b1	0.0001806717
227	0xb8469f1e	-4.7355068e-05
228	0x39810d0e	0.00024614524
229	0x38b8c924	8.811269e-05
230	0xb8805bd9	-6.1206236e-05
231	0xb8cca98b	-9.759058e-05
232	0xb996d316	-0.000287675
233	0xb9511e4b	-0.00019943078
234	0x39176ec0	0.0001444174
235	0x393c007a	0.00017929255
236	0x393df8c4	0.00018117117
237	0x38fe3f46	0.000121234494
238	0x392665eb	0.00015868961
239	0x398380b2	0.00025082153
240	0x395da57f	0.00021137854
241	0x3974b395	0.00023336553
242	0x398264a6	0.0002487052
243	0x397da4eb	0.00024189397
244	0x380e0539	3.3860302e-05
245	0x394d0c0f	0.00019554816
246	0xb8e5747b	-0.00010941267
247	0xb93e8f39	-0.00018173167
248	0x39625bcb	0.00021587235
249	0xb92ebfe9	-0.00016665425
250	0x39e8bd3a	0.00044391473
251	0xb8aba79d	-8.185136e-05
252	0x39b38967	0.00034243913
253	0x39e79f6d	0.00044178535
254	0x3961b597	0.0002152532
255	0xb7195882	-9.140118e-06
