model_weights/bad-pose-0_split_1.pt (torch, 473611 bytes, 26 tensors)

conv1.bias f4 [64]
0	0x37d3b764	2.5238558e-05
1	0xb604d6a8	-1.979448e-06
2	0x36b86a45	5.4959987e-06
3	0xb833e051	-4.2885837e-05
4	0xb890bc92	-6.901579e-05
5	0x341a223a	1.4354819e-07
6	0xb6d70e2e	-6.40915e-06
7	0xb6930a55	-4.382144e-06
8	0xb7041c64	-7.874423e-06
9	0x35908f36	1.0770516e-06
10	0x37c84e25	2.3878247e-05
11	0xb7a3d336	-1.9529467e-05
12	0xb911fb9a	-0.00013922006
13	0x37a188ba	1.9256364e-05
14	0xb7d152b1	-2.4953248e-05
15	0xb6586211	-3.224359e-06
16	0x386cf029	5.649045e-05
17	0x3646bba0	2.9613511e-06
18	0x34845c4c	2.465407e-07
19	0xb6d87fd1	-6.4521814e-06
20	0x370bfe08	8.344192e-06
21	0x37f57e90	2.9265211e-05
22	0x383978e1	4.4220014e-05
23	0x371e5ebf	9.439594e-06
24	0x34c6a73f	3.7002062e-07
25	0xb845aaa6	-4.712739e-05
26	0x3461db19	2.1034465e-07
27	0xb836ad2c	-4.355346e-05
28	0xb60b7e33	-2.0786072e-06
29	0xb939d302	-0.00017721581
30	0x379a11c6	1.8366507e-05
31	0xb6ebabb7	-7.023536e-06
32	0x363248c8	2.6566431e-06
33	0x36fc1b6d	7.513378e-06
34	0x372be661	1.02460335e-05
35	0x363c163b	2.8027123e-06
36	0x3677dff2	3.6936221e-06
37	0x37b9fce7	2.2171485e-05
38	0xb60e9347	-2.1245376e-06
39	0x36cba4ea	6.06907e-06
40	0xb573feac	-9.089515e-07
41	0x3781fd08	1.5495825e-05
42	0xb69d7df0	-4.6936257e-06
43	0xb6ee8a74	-7.109071e-06
44	0xb61240ca	-2.1793408e-06
45	0xb5b7f075	-1.3704545e-06
46	0x368b811f	4.1575545e-06
47	0xb7f13a7e	-2.8756676e-05
48	0x380ba9ef	3.3298445e-05
49	0xb653ee8f	-3.158031e-06
50	0xb596c4f7	-1.1233195e-06
51	0xb5d70d76	-1.6022666e-06
52	0x3781c6de	1.5470603e-05
53	0xb72582ce	-9.865222e-06
54	0x36828dd5	3.8908133e-06
55	0x36d00ba3	6.2002377e-06
56	0x366a4300	3.4907716e-06
57	0xb526120a	-6.186607e-07
58	0x36b13c8c	5.2820596e-06
59	0x35c88793	1.4940618e-06
60	0xb786b3b1	-1.605772e-05
61	0xb78edb24	-1.7029764e-05
62	0x3761565a	1.343115e-05
63	0x383855fc	4.3949098e-05

conv1.lin.weight f4 [64, 2]
0	0xbebd84d2	-0.37015396
1	0x3ba85f2e	0.0051382994
2	0xbce1841f	-0.02752882
3	0x3e4e919f	0.20172738
4	0x3ded7556	0.11594646
5	0x3a726bd9	0.0009247638
6	0xbe499366	-0.19685134
7	0xbc608502	-0.0137035865
8	0xbd992c69	-0.07479174
9	0xbda01c58	-0.07817906
10	0x3e86b1a9	0.2630742
11	0x3e087990	0.13327622
12	0xbd865d65	-0.06560782
13	0x3e592d87	0.21208774
14	0xbd652cd5	-0.05595096
15	0x3e8ca6a9	0.27470902
16	0x3b8e2f49	0.004339133
17	0xbe20cf27	-0.15704022
18	0xbd81e3a9	-0.06342251
19	0x3e5ab9b1	0.21359898
20	0xbe2bbd33	-0.16771393
21	0x3d329c07	0.04360583
22	0xbd9c1e31	-0.07622946
23	0xbe543307	-0.2072259
24	0xbd7c05ef	-0.061529096
25	0xbd4601a7	-0.04834142
26	0x3d47b832	0.048759647
27	0x3de21966	0.110400006
28	0xbd4696e3	-0.04848374
29	0xbe575fff	-0.21032713
30	0x3e7f74eb	0.24946944
31	0x3e312aa5	0.17301424
32	0xbe39289e	-0.180819
33	0xbd808916	-0.06276147
34	0x3da3ce4d	0.07998333
35	0xbe89e702	-0.26934057
36	0x3b4efde2	0.0031584431
37	0x3eb3412c	0.3501066
38	0xbda3d6f2	-0.07999982
39	0x3e98e11d	0.29859248
40	0x3eb9ee70	0.36314726
41	0xbc47fe10	-0.012206569
42	0xbeb0ea82	-0.34553915
43	0x3d045327	0.032305863
44	0xbe44919b	-0.19196169
45	0xbe26d19d	-0.16290899
46	0x3ea2821e	0.31739897
47	0xbccd4ed7	-0.025062008
48	0x3e4a0cd0	0.1973145
49	0x3dd5745f	0.10422587
50	0xbdc40585	-0.09571365
51	0xbe210b32	-0.15726927
52	0x3e824e39	0.25450304
53	0x3d194ff1	0.037429754
54	0xbe6f4983	-0.23367886
55	0xbd981912	-0.07426657
56	0x3d75cb01	0.060008053
57	0xbe9d4eaf	-0.30724093
58	0xbd65c434	-0.056095317
59	0xbd5de813	-0.0541764
60	0xbd818c8c	-0.06325635
61	0xbea532f2	-0.3226543
62	0xbea622f5	-0.32448545
63	0x3db10c85	0.08644966
64	0x3e646eb6	0.22307858
65	0x3d938383	0.07202818
66	0x3e571a26	0.21006069
67	0xbe4e8bc1	-0.201705
68	0xbec71b74	-0.38888133
69	0x3d77d5b0	0.060506523
70	0x3d8ddcc2	0.06926872
71	0x3e866f35	0.2625672
72	0x3d166904	0.036721244
73	0x3db0ffd4	0.08642545
74	0x3e06862f	0.13137124
75	0xbc818c75	-0.015814045
76	0x3e724bc9	0.23661722
77	0x3e20b780	0.15695
78	0xbe54a151	-0.20764662
79	0x3eb929b7	0.36164638
80	0xbe829ba9	-0.25509384
81	0x3e9321bb	0.28736672
82	0x3e58f540	0.21187305
83	0xbbaccbf9	-0.005273339
84	0xbdf730d1	-0.12069858
85	0xbe86decc	-0.26341856
86	0x3c800fc9	0.015632527
87	0x3e94b768	0.29046178
88	0xbdc976e4	-0.0983713
89	0x3e99df9e	0.3005342
90	0xbdff9b5a	-0.12480803
91	0x3ec06cc9	0.37582996
92	0x3ecda7ec	0.40167177
93	0xbbe20390	-0.0068973973
94	0xbd80ddec	-0.06292328
95	0xbe103230	-0.14081645
96	0x3d5e94f2	0.054341264
97	0x3d4af1f0	0.049547136
98	0xbd228009	-0.039672885
99	0x3e4525f2	0.19252756
100	0x3e7eceee	0.24883625
101	0xbc7b1dcb	-0.015326927
102	0x3e49345a	0.19648877
103	0xbcc14822	-0.023593966
104	0xbe7395e5	-0.23787649
105	0x3e286bea	0.16447416
106	0x3d39ad82	0.045331486
107	0x3e39a22f	0.18128274
108	0x3e85059d	0.25980845
109	0xbd8c8e62	-0.06863095
110	0xbd5e87c8	-0.05432871
111	0xbe4a1594	-0.19734794
112	0xbe352c49	-0.17692675
113	0x3e50e525	0.20399912
114	0xbde51aa2	-0.111867204
115	0x3ea56773	0.32305488
116	0x3e998e96	0.29991597
117	0xbb9d52fc	-0.0048011523
118	0x3eefb756	0.46819562
119	0x3d05fa97	0.032709684
120	0xbd685c37	-0.056728568
121	0x3e4dd0e8	0.20099223
122	0xbd9fe4df	-0.078073256
123	0xbea6ba5b	-0.32564053
124	0x3e24c8f4	0.16092283
125	0xbe35d2e5	-0.17756231
126	0xbead2c83	-0.33823022
127	0x3dd3ce74	0.10342112

conv2.bias f4 [64]
0	0x3d82b6e6	0.06382541
1	0xbbfed864	-0.0077772606
2	0xbe46e806	-0.19424447
3	0x3d11ad26	0.035565518
4	0xbe432cba	-0.1906003
5	0xbdbcde2c	-0.092220634
6	0xbe6e573e	-0.23275468
7	0xbea9db98	-0.3317535
8	0xbdea70e2	-0.11447312
9	0x3daf8aaa	0.0857137
10	0xbe276f5e	-0.16351077
11	0x3d85c94b	0.06532534
12	0xbca7e23b	-0.020493617
13	0xbe09687a	-0.13418761
14	0xbe84fd67	-0.2597458
15	0xbd9863a0	-0.07440877
16	0xbe91bfce	-0.28466648
17	0x3d9718de	0.0737779
18	0xbe6d2bb0	-0.23161197
19	0xbdad37d3	-0.08457913
20	0xbe9ba626	-0.304002
21	0xbe012150	-0.12610364
22	0xbdd2880f	-0.10279857
23	0xbe3c188f	-0.18368743
24	0x3d0019d2	0.031274624
25	0xbd594d58	-0.053052276
26	0xbd39c4d0	-0.04535371
27	0xbdc71901	-0.09721566
28	0x3d94df26	0.07269125
29	0xbe090d27	-0.13383923
30	0xbdabf48a	-0.083962515
31	0xbda14d1a	-0.07876034
32	0xbe9ffe46	-0.31248683
33	0xbe131d67	-0.14366685
34	0xbe2ec166	-0.17065963
35	0xbe43f81b	-0.19137613
36	0xbeb04d16	-0.34433812
37	0x3cd561f5	0.026047686
38	0xbd6a5f04	-0.05721952
39	0xbe4f34c7	-0.20234977
40	0x3c9240d1	0.017853172
41	0xbc638edc	-0.013889041
42	0x3af2ffd1	0.0018539374
43	0xbc7aac5a	-0.015299881
44	0xbd7f86b4	-0.062384322
45	0xbc5fad5a	-0.01365217
46	0xbe0034ab	-0.12520091
47	0xbe6bd06e	-0.23028728
48	0xbc372e45	-0.011180465
49	0xbc9309dc	-0.017949037
50	0xbc475f45	-0.01216871
51	0xbed4f637	-0.41594097
52	0xbe189f46	-0.14904508
53	0xbe1e6aba	-0.154704
54	0xbee8006b	-0.4531282
55	0xbe8100c5	-0.251959
56	0xbe95f848	-0.29290986
57	0xbcf3cbf9	-0.029760348
58	0xbc4f6a6e	-0.012659652
59	0xbd107741	-0.03526998
60	0x3d9a46b5	0.075330175
61	0xbe7835d1	-0.2423928
62	0xbde390f2	-0.111116305
63	0xbe882738	-0.26592422

conv2.lin.weight f4 [64, 64]
0	0xbe19fa6f	-0.15036939
1	0xbe27c948	-0.16385376
2	0xbe73f8d2	-0.23825386
3	0xbe7d7a9c	-0.24753803
4	0xbe1d8576	-0.15382943
5	0xbe124b11	-0.14286448
6	0x3c8fc80c	0.017551444
7	0xbe475e89	-0.19469656
8	0x3ce6ec88	0.028188959
9	0xbdf44b66	-0.119284436
10	0xbe58e79e	-0.21182105
11	0xbe06bf04	-0.13158804
12	0xbe86c9bc	-0.26325786
13	0xbe326641	-0.1742182
14	0x3c8a5f67	0.016891195
15	0xbea25c42	-0.31711012
16	0xbc860002	-0.016357426
17	0x3e811096	0.25207967
18	0xbc9295c0	-0.017893672
19	0xbe599a05	-0.2125016
20	0xbe902532	-0.28153378
21	0xbddbe021	-0.107361086
22	0xbe8b268f	-0.27177855
23	0x3e236fad	0.1596057
24	0x3ce4ecdd	0.027944976
25	0xbe7cea83	-0.24698834
26	0xbe65955c	-0.22420257
27	0xbec44090	-0.38330507
28	0xbbafb3c7	-0.0053620073
29	0xbe399073	-0.18121509
30	0xbdeff307	-0.11716276
31	0xbe7d2dba	-0.24724475
32	0xbda66aa0	-0.08125806
33	0x3e973670	0.2953372
34	0xbe59e7eb	-0.21279876
35	0xbe64d9bb	-0.22348683
36	0xbdf322ef	-0.118718974
37	0xbe33642b	-0.1751868
38	0xbda83540	-0.08213282
39	0xbd61986b	-0.055076998
40	0xbd9cccc1	-0.07656241
41	0xbda33790	-0.07969582
42	0x3e10a33a	0.14124766
43	0xbe37ce18	-0.17949712
44	0x3dcd5f14	0.100279
45	0xbe7cbb19	-0.24680747
46	0xbd088711	-0.033331934
47	0x3dcd8bd9	0.100364394
48	0xbc34a992	-0.011026757
49	0xbe485068	-0.19561923
50	0x3deac549	0.114634104
51	0x3e1ad787	0.1512128
52	0xbe651a87	-0.223734
53	0xbdf98179	-0.12182898
54	0x3e89a3e6	0.26882857
55	0x3d43944d	0.047748853
56	0xbeaa5003	-0.3326417
57	0xbe78ff82	-0.24316218
58	0x3dee119e	0.11624454
59	0x3dac1d69	0.08404047
60	0xbdedbd1d	-0.11608336
61	0x3d4f1116	0.050553404
62	0xbcb25a34	-0.021771528
63	0xbe88f0e7	-0.26746294
64	0xbe1242e2	-0.14283326
65	0x3d72c1a7	0.059266713
66	0x3dd49e55	0.10381762
67	0xbe89cc64	-0.2691375
68	0xbe0e2e9d	-0.13884969
69	0xbe543130	-0.20721889
70	0x3e205bb5	0.15659983
71	0xbe0af29b	-0.13569109
72	0xbdf8bcc6	-0.12145381
73	0x3e18ecfa	0.1493415
74	0xbe11cf26	-0.14239177
75	0xbc660c38	-0.014040999
76	0xbdf15c2a	-0.11785157
77	0xbdb6392f	-0.08897626
78	0x3e281e48	0.16417801
79	0xbe43353f	-0.1906328
80	0xbe4407a1	-0.19143535
81	0x3d429185	0.04750206
82	0xbd85ad82	-0.065272346
83	0x3e1c06d7	0.15236984
84	0xbe17a8de	-0.14810511
85	0x3dbd1080	0.09231663
86	0xbe041f56	-0.12902579
87	0x3de2fcc8	0.110833704
88	0xbe82e809	-0.25567654
89	0xbdfd11f0	-0.12356937
90	0x3d3df342	0.046374567
91	0xbe61c8bd	-0.22049232
92	0x3d02288b	0.031776946
93	0xbd89ff7c	-0.06738183
94	0x3e76c34c	0.24097937
95	0xbdb29468	-0.087197125
96	0x3dcfbd9e	0.101435885
97	0x3dcd8079	0.1003427
98	0xbe1f88cd	-0.15579529
99	0xbd83b361	-0.06430698
100	0xbe305d60	-0.1722312
101	0x3d9db991	0.077014096
102	0x3c6b163d	0.014348564
103	0x3e41a1c1	0.1890936
104	0x3d9c10aa	0.07620366
105	0xbe413504	-0.1886788
106	0xbe22efc0	-0.1591177
107	0x3d797ae9	0.060908232
108	0x3c5c7a4a	0.01345689
109	0xbc2e265a	-0.010629261
110	0xbbd1c8ac	-0.006402096
111	0x3e253ef1	0.16137291
112	0xbd57cd31	-0.05268592
113	0x3e78d5e7	0.24300347
114	0x3db555b1	0.08854235
115	0xbe5eaa71	-0.21744706
116	0xbc04d322	-0.008106979
117	0x3e10140d	0.14070149
118	0x3cdad811	0.026714357
119	0x3e2c3447	0.16816817
120	0xbda43ffe	-0.08020018
121	0x3df62537	0.12018817
122	0xbdffc473	-0.124886416
123	0xbd1de2ac	-0.03854625
124	0x3e89237a	0.2678488
125	0xbbb338d6	-0.005469422
126	0x3e2a5043	0.1663218
127	0xbe800c55	-0.2500941
128	0x3cf1682d	0.02946862
129	0x3d83dc21	0.06438471
130	0x3c4cb073	0.012493241
131	0x3d99ab1d	0.075033404
132	0x3d5a7cf1	0.05334181
133	0xbdc92676	-0.09821789
134	0x3e130a9d	0.14359517
135	0xbc6e442f	-0.014542623
136	0x3df7aa07	0.12092977
137	0x3e497103	0.19672017
138	0xbe1f03b3	-0.15528755
139	0x3cbd8e42	0.023139123
140	0xbe494519	-0.19655265
141	0x3e407f02	0.1879845
142	0xbc057920	-0.008146554
143	0x3e400a94	0.18754035
144	0x3c8e6c4e	0.017385628
145	0xbdba3224	-0.09091595
146	0x3e043a16	0.12912783
147	0x3e86f6f0	0.26360273
148	0xbe39132f	-0.18073724
149	0xbd78880b	-0.060676616
150	0xbdf88739	-0.12135167
151	0xbc7ab473	-0.0153018115
152	0x3e0cdd25	0.13756235
153	0xbe9b9f0d	-0.30394784
154	0x3e198d6f	0.14995359
155	0x3dc3bd87	0.09557634
156	0x3d9eee7c	0.07760331
157	0xbe0ba6fa	-0.13637915
158	0xbe459b80	-0.192976
159	0xbdd1a712	-0.10236944
160	0xbe1754c0	-0.14778423
161	0x3d04f6ab	0.032461803
162	0xbe264c91	-0.16240145
163	0x3d40af20	0.047042012
164	0xbcd37e53	-0.025817072
165	0xbcf74928	-0.03018625
166	0xbe0072c6	-0.12543783
167	0x3e6e3bb7	0.23264967
168	0x3d8073df	0.06272101
169	0x3cf6edb0	0.030142635
170	0xbd645e5a	-0.055754043
171	0x3dc803fc	0.09766385
172	0xbc588125	-0.013214384
173	0x3e365951	0.17807509
174	0x3df109a1	0.11769415
175	0xbe359279	-0.17731656
176	0x3e2e2d6f	0.17009519
177	0x3e74639e	0.23866126
178	0xbe921207	-0.2852938
179	0xbe82eb50	-0.25570154
180	0x3e21e11d	0.1580853
181	0xbd1fbc1a	-0.038997747
182	0xbd941523	-0.07230594
183	0xbe1cc04a	-0.15307727
184	0x3d8a3e91	0.06750215
185	0xbb249aef	-0.0025116762
186	0xbdb85fe5	-0.090026654
187	0xbe88a408	-0.26687646
188	0x3dc9ec11	0.09859479
189	0xbe65b416	-0.22431979
190	0xbe6788d0	-0.22610784
191	0x3de473a3	0.111548685
192	0x3db9ab70	0.09065902
193	0xbe6b2462	-0.22963098
194	0xbe63404f	-0.221925
195	0x3e1a3d01	0.15062334
196	0x3d72c81e	0.059272878
197	0xbe0d93fc	-0.13825983
198	0x3b97c55e	0.0046316823
199	0xbe31e5d5	-0.1737283
200	0xbea271d2	-0.31727463
201	0xbcbd09d5	-0.023075977
202	0xbd77f5bb	-0.06053708
203	0xbe8512c6	-0.25990885
204	0xbdc7c951	-0.09755195
205	0xbe25397c	-0.1613521
206	0xbdea6862	-0.11445691
207	0xbca8fd18	-0.020628497
208	0x3c5a00df	0.013305872
209	0xbe9df252	-0.30848938
210	0x3d1f9c0b	0.038967174
211	0x3d978b19	0.07399578
212	0xbd5b55ab	-0.053548496
213	0xbd98409c	-0.07434198
214	0x3e05214f	0.13000987
215	0xbd71b0f6	-0.059006654
216	0xbd96c25c	-0.0736129
217	0xbc609e20	-0.013709575
218	0x3e34e4ff	0.1766548
219	0xbdf832ea	-0.12119086
220	0xbe6ec856	-0.2331861
221	0xbe312755	-0.1730016
222	0x3d77351e	0.06035339
223	0xbe6cf2bd	-0.23139472
224	0x3d9cdb7b	0.0765905
225	0xbe2e3df4	-0.1701582
226	0x3dd404d5	0.10352484
227	0x3d418a1a	0.047250845
228	0xbea34110	-0.31885576
229	0x3d358aaa	0.044321693
230	0x3ddfe473	0.10932245
231	0x3df0b422	0.117531076
232	0x3df4a7ed	0.11946092
233	0xbc2677f4	-0.010160435
234	0xbe8fe455	-0.2810389
235	0xbe11ff4b	-0.14257543
236	0xbda9e7bd	-0.08296154
237	0xbd6bcf12	-0.057570525
238	0xbdbae720	-0.09126115
239	0xbe869b11	-0.2629018
240	0xbcb4d4fc	-0.022074215
241	0xbe5aceb3	-0.21367912
242	0xbe3a0ad5	-0.18168195
243	0x3ccc00de	0.024902757
244	0x3e0962d0	0.134166
245	0x3d3e61f1	0.046480123
246	0x3c8ba941	0.01704848
247	0xbe4c7ee2	-0.19970277
248	0x3c919399	0.017770575
249	0x3e17ee42	0.14836982
250	0xbdc9ed3d	-0.09859703
251	0xbe64ab5c	-0.22330993
252	0xbdf99016	-0.12185685
253	0xbd4e0c2a	-0.05030457
254	0x3d886694	0.0666019
255	0xbc2c44d2	-0.010514455

conv3.bias f4 [128]
0	0xb559a68b	-8.108115e-07
1	0x35e98a21	1.7400054e-06
2	0x383acaaa	4.45346e-05
3	0xb74cbecb	-1.220377e-05
4	0xb73a8219	-1.1116755e-05
5	0x377e163f	1.5144759e-05
6	0xb7b731c8	-2.1838481e-05
7	0x37cf0346	2.4677847e-05
8	0xb7571744	-1.2820416e-05
9	0xb7948649	-1.7705506e-05
10	0x36e461a7	6.8062977e-06
11	0xb68792d5	-4.040407e-06
12	0x3896d9e2	7.193141e-05
13	0x383b8b47	4.4713986e-05
14	0x37ae2e13	2.0763871e-05
15	0x36523573	3.132355e-06
16	0xb7877b43	-1.6150652e-05
17	0xb8556b79	-5.088325e-05
18	0xb8dbe17e	-0.00010484735
19	0x379cb39c	1.8680286e-05
20	0x3770862e	1.4336356e-05
21	0xb7e0c860	-2.6796188e-05
22	0x386fa258	5.7133235e-05
23	0x37627b55	1.3499365e-05
24	0x37cfa30a	2.4752244e-05
25	0x39278674	0.00015976449
26	0xb909f595	-0.00013156825
27	0xb80a0474	-3.290591e-05
28	0x386c7150	5.6372315e-05
29	0x382af635	4.0760457e-05
30	0xb78134f4	-1.5402657e-05
31	0x385c2384	5.2485164e-05
32	0x37413111	1.1515121e-05
33	0xb6fabe8c	-7.472763e-06
34	0x3542e03e	7.2596947e-07
35	0xb79948c1	-1.82729e-05
36	0xb767f245	-1.3825081e-05
37	0x3778bad4	1.4825451e-05
38	0xb7ae1fb8	-2.0757187e-05
39	0x382ee38b	4.169675e-05
40	0xb7c614fa	-2.3613207e-05
41	0x382528b6	3.937698e-05
42	0x36e07d4b	6.6903062e-06
43	0xb7ccf3a9	-2.4432158e-05
44	0xb79a23bb	-1.8374869e-05
45	0x36894685	4.0911277e-06
46	0xb8adc4e2	-8.285955e-05
47	0xb7397343	-1.1053696e-05
48	0x3918e7be	0.0001458218
49	0xb7d89c0c	-2.5821872e-05
50	0x384f6c6a	4.9453614e-05
51	0x379d9cc2	1.8788855e-05
52	0xb4ab9ca2	-3.1965197e-07
53	0xb84faff2	-4.9516508e-05
54	0x390ec0e2	0.0001361403
55	0xb58a6058	-1.0309841e-06
56	0x36bf4ed0	5.7014186e-06
57	0x37cce564	2.4425513e-05
58	0x380e24cb	3.3889704e-05
59	0x37cd10ea	2.444578e-05
60	0xb788c9c3	-1.6306416e-05
61	0x3663070a	3.3829733e-06
62	0x380aa467	3.3054876e-05
63	0x36fcd75a	7.5352555e-06
64	0xb6b04048	-5.252692e-06
65	0xb8a1d2e7	-7.716362e-05
66	0xb7dd04ea	-2.6347541e-05
67	0xb6ab7896	-5.110235e-06
68	0xb82d38fc	-4.1299485e-05
69	0xb6b0e438	-5.271777e-06
70	0xb8113b0b	-3.4625682e-05
71	0xb70f1342	-8.527948e-06
72	0x378805a9	1.62151e-05
73	0x38bfc344	9.143961e-05
74	0x37c8fb35	2.3958835e-05
75	0xb64aab6f	-3.0200133e-06
76	0xb524d790	-6.1408446e-07
77	0x38a904f5	8.059471e-05
78	0xb8190aa7	-3.6487963e-05
79	0x3881c8ed	6.188625e-05
80	0x378b15b7	1.6580203e-05
81	0xb7852c52	-1.5875474e-05
82	0xb752db5f	-1.2568052e-05
83	0x3505f461	4.990198e-07
84	0xb772ea65	-1.4478898e-05
85	0x38535b4e	5.0391354e-05
86	0x384aac6c	4.8321133e-05
87	0x37d1bff8	2.5004134e-05
88	0x38760a8e	5.86608e-05
89	0xb7673ff2	-1.3783561e-05
90	0x37c3342e	2.327011e-05
91	0xb6d9c8b2	-6.490468e-06
92	0x3737b34a	1.0949394e-05
93	0xb7370d49	-1.0910743e-05
94	0x3783855d	1.5678519e-05
95	0x38673544	5.51243e-05
96	0xb7a1795a	-1.9249204e-05
97	0x33a2080a	7.545175e-08
98	0x388c7f32	6.699412e-05
99	0xb66b4a10	-3.5060839e-06
100	0xb74e37ae	-1.2291521e-05
101	0x3888f552	6.53068e-05
102	0xb803a4c9	-3.1386302e-05
103	0x35f71cbd	1.8411298e-06
104	0xb81d1ea9	-3.746027e-05
105	0xb6f9633a	-7.4323298e-06
106	0xb827d74f	-4.0016424e-05
107	0x382ae31f	4.074268e-05
108	0xb6460156	-2.9505077e-06
109	0xb60413f0	-1.9681138e-06
110	0x37d9933a	2.5936974e-05
111	0x37a29374	1.9380568e-05
112	0x37e4d383	2.727821e-05
113	0xb7b1dc39	-2.1202593e-05
114	0xb78b9efd	-1.6644126e-05
115	0xb8669160	-5.4971664e-05
116	0xb74e2987	-1.2288226e-05
117	0xb860521a	-5.3482225e-05
118	0xb5d81e7c	-1.6102126e-06
119	0xb7e126b0	-2.6840105e-05
120	0xb5cdef15	-1.5343272e-06
121	0x376c635d	1.4089831e-05
122	0x37276ea7	9.979739e-06
123	0x380d4050	3.3676915e-05
124	0xb7f1e91a	-2.8837985e-05
125	0xb88c5910	-6.6923094e-05
126	0x374fd332	1.2387334e-05
127	0x36e7135b	6.8865897e-06

conv3.lin.weight f4 [128, 64]
0	0xbd8bac79	-0.06820006
1	0xbdb99dd4	-0.090633065
2	0xbe3f7c73	-0.18699817
3	0xbe5f9192	-0.21832874
4	0x3e042f61	0.12908699
5	0xbdc4d777	-0.09611409
6	0x3de74e7b	0.11294266
7	0x3c577090	0.013149396
8	0xbdae6b34	-0.08516541
9	0xbd9af1f8	-0.07565683
10	0x3b0030f8	0.0019560438
11	0xbe65504a	-0.22393909
12	0x3dc4b09e	0.096039996
13	0x3e4d61dc	0.20056862
14	0x3a40a349	0.000734855
15	0xbe69dfd5	-0.22839291
16	0x3d97de65	0.07415465
17	0xbb4f692c	-0.003164838
18	0x3d5dd58a	0.054158725
19	0xbdc64fd2	-0.09683193
20	0x3d6b92ba	0.057512976
21	0x3c9a1bd0	0.01881209
22	0xbdc8aeea	-0.09798987
23	0xbd846806	-0.064651534
24	0x3e13a628	0.14418852
25	0xbe0755d2	-0.13216332
26	0x3c9edc45	0.019392142
27	0x3d5a997b	0.053369027
28	0xbcd972be	-0.026543971
29	0xbd52d496	-0.05147227
30	0x3d578e59	0.052625988
31	0x3dbf22f1	0.093328364
32	0xbc79855d	-0.01522955
33	0xbcd1b7ef	-0.025600402
34	0xbdf48b85	-0.11940674
35	0x3db4abad	0.08821807
36	0x3e1b4e0c	0.15166491
37	0xbdbcf2a9	-0.09225971
38	0x3cc2362e	0.023707476
39	0x3e314ce4	0.17314488
40	0x3d912ead	0.07088981
41	0xbe1e664b	-0.15468709
42	0x3df4a281	0.11945058
43	0x3d8d7d02	0.06908609
44	0x3dab2e0c	0.08358392
45	0xbd1bba92	-0.038019724
46	0x3df4c4d7	0.11951607
47	0xbdddbe2c	-0.10827288
48	0xbdc85fec	-0.09783921
49	0xbe4ac57d	-0.19801898
50	0x3d003de3	0.03130902
51	0x3ccf4cb8	0.025305137
52	0x3e8465cb	0.25858912
53	0x3e080523	0.1328321
54	0x3dc03a88	0.09386164
55	0x3d42a606	0.047521614
56	0x3d5ca3eb	0.05386726
57	0xbe70b691	-0.23507144
58	0x3d162c1a	0.036663152
59	0xbe69b501	-0.22822954
60	0xbd7b2ee0	-0.061324
61	0x3d4b57e1	0.049644355
62	0x3e555410	0.20832849
63	0x3e1c5c5b	0.15269606
64	0xbae74dae	-0.0017647052
65	0xbe38126a	-0.17975774
66	0x3d74b6fd	0.059744824
67	0xbe29a10e	-0.16565344
68	0xbcc81add	-0.024426872
69	0xbd072629	-0.032995377
70	0xbda6c503	-0.08143046
71	0x3d7742bf	0.06036639
72	0xbde5fda8	-0.11230022
73	0x3d81e23f	0.06341981
74	0xbe485c34	-0.19566423
75	0xbc4c9d6b	-0.012488703
76	0xbd89ab9e	-0.067221865
77	0xbd5b1761	-0.053489093
78	0xbdf8bfba	-0.12145944
79	0x3d833d2e	0.064081535
80	0xbdab45b0	-0.08362901
81	0xbdb7e972	-0.08980073
82	0xbe5d651d	-0.21620603
83	0xbe61838e	-0.2202284
84	0x3db6544c	0.08902797
85	0xbe043e10	-0.129143
86	0xbcba5402	-0.022745136
87	0xbcc0ca73	-0.023534035
88	0x3d95da71	0.07317055
89	0x3de48a2e	0.11159168
90	0xbe04b477	-0.12959467
91	0xbe47ba66	-0.19504699
92	0x3dd41731	0.10355986
93	0xbc88215a	-0.016617466
94	0xbcb46b92	-0.02202395
95	0xbd81ac7a	-0.063317254
96	0xbd05ef68	-0.03269902
97	0xbc6dd28b	-0.014515529
98	0x3c449b6f	0.011999949
99	0xbe7a0c68	-0.24418795
100	0x3caf0b96	0.02136783
101	0x3e18f601	0.14937593
102	0xbcdb98b0	-0.026806206
103	0x3d515e1b	0.051115137
104	0xbe00831f	-0.12550019
105	0xbc2c1f39	-0.010505491
106	0xbdf6a215	-0.120426334
107	0xbd7a7441	-0.061146025
108	0xbd9c0c6a	-0.07619555
109	0xbe45e9c8	-0.19327462
110	0xbdb9c6bb	-0.09071108
111	0xbe34023d	-0.17578979
112	0xbcac8a49	-0.021062033
113	0x3c8f0eec	0.01746317
114	0xbd9b24a5	-0.07575349
115	0xbe5518a3	-0.2081018
116	0xbc7ab26f	-0.015301331
117	0x3da736e2	0.08164765
118	0xbe40064e	-0.18752405
119	0x3bb4507a	0.0055027576
120	0xbe7adf35	-0.24499209
121	0x3dcec017	0.10095232
122	0xbdb22139	-0.08697743
123	0xbcba9859	-0.022777723
124	0xbb6ca9d3	-0.0036111965
125	0xbe1872de	-0.14887568
126	0x3dd68f12	0.10476507
127	0xbd90d3b1	-0.07071627
128	0x3e5286c9	0.20559229
129	0xbd4680a3	-0.04846252
130	0x3e6195e2	0.22029832
131	0xbe4ef636	-0.2021111
132	0xbe0a2038	-0.13488853
133	0x3db5ef47	0.08883529
134	0x3d5d0b69	0.05396596
135	0xbe6a4590	-0.22878098
136	0xbd860514	-0.06543937
137	0x3e338671	0.17531754
138	0xbdb6b62c	-0.08921465
139	0x3d5b3dbe	0.05352568
140	0xbddfaa0c	-0.10921106
141	0xbc0577da	-0.008146251
142	0xbdc352ff	-0.095373146
143	0x3d21a0da	0.03946004
144	0xbe671bf7	-0.22569261
145	0x3cbc45c4	0.022982486
146	0xbe711321	-0.23542453
147	0xbd656ac0	-0.056010008
148	0xbe5935a4	-0.21211869
149	0xbceb0eee	-0.028693642
150	0xbd319799	-0.043357465
151	0x3df19551	0.11796058
152	0xbdcbb9df	-0.099475615
153	0xbd1734aa	-0.03691546
154	0x3df3296c	0.11873135
155	0xbd7c7907	-0.06163886
156	0x3d0ce109	0.034394298
157	0xbdb7e762	-0.0897968
158	0xbd071b3c	-0.032984957
159	0xbd4bc906	-0.049752258
160	0x3c2f7d3c	0.010711011
161	0xbe092521	-0.1339307
162	0xbc319b1b	-0.010840203
163	0xbd98c400	-0.07459259
164	0xbe2a59f9	-0.16635884
165	0x3c10b304	0.008831743
166	0xbd32ddbe	-0.0436685
167	0xbde8b562	-0.11362721
168	0xbe43d4c9	-0.1912414
169	0xbe5921c1	-0.21204282
170	0x3dc46903	0.09590342
171	0xbd2c1e4c	-0.04202108
172	0x3d8d71aa	0.06906445
173	0xbd1ccc62	-0.038280852
174	0x3b9ee50e	0.004849083
175	0xbd0867b0	-0.03330201
176	0x3d0fd827	0.03511825
177	0xbe26bc33	-0.1628273
178	0x3a9d2525	0.0011989219
179	0xbea55b8a	-0.322964
180	0xbdf12b34	-0.117758185
181	0x3d1dd43d	0.038532484
182	0xbe86d56a	-0.26334697
183	0x3d87e479	0.066353746
184	0xbe88c8b7	-0.26715633
185	0xbdfc1d1c	-0.1231024
186	0xbda0e361	-0.07855869
187	0x3c3716d0	0.0111748725
188	0x3dea4b82	0.11440183
189	0xbdaae1a5	-0.083438195
190	0xbd930cad	-0.07180152
191	0xbccbb227	-0.024865223
192	0xbd862644	-0.06550267
193	0xbdb3f54f	-0.08787023
194	0xbbdd8669	-0.0067604077
195	0xbddb316d	-0.107027866
196	0x3d0773a2	0.03306926
197	0x3d687d85	0.05676033
198	0x3e423d6d	0.18968745
199	0x3d207285	0.039171714
200	0x3e1d268c	0.15346736
201	0xbe712a6f	-0.23551343
202	0x3cc906a3	0.024539297
203	0xbe626d29	-0.22111954
204	0xbcd40408	-0.025880828
205	0x3cb7ab64	0.022420593
206	0xbe132827	-0.14370786
207	0xbda735a8	-0.08164531
208	0x3c8cca0c	0.017186187
209	0x3d05f736	0.03270646
210	0xbd91c2c9	-0.071172304
211	0x3e3e70f3	0.18597774
212	0x3e906bec	0.28207338
213	0x3d5b7152	0.053574868
214	0xbdc853b2	-0.097815886
215	0x3d2964e3	0.04135598
216	0xbbc10eda	-0.005891663
217	0xbdf9876c	-0.12184033
218	0x3e057eef	0.13036703
219	0xbdcfc38d	-0.1014472
220	0xbe431322	-0.19050267
221	0x3ddeaf6e	0.10873304
222	0xbdc5ba2a	-0.096546486
223	0xbd7b5c4d	-0.06136732
224	0x3e4302c1	0.1904402
225	0x3e1d1be9	0.15342678
226	0xbcc047be	-0.02347171
227	0x3de98eaa	0.11404164
228	0x3dabf8f5	0.08397094
229	0xbe2be38e	-0.16786024
230	0x3dee5395	0.11637036
231	0x3e224a70	0.15848708
232	0x3e0dd55c	0.13850921
233	0xbdaef05e	-0.0854194
234	0xbe4aea1b	-0.19815867
235	0x3e242df2	0.16033152
236	0x3e1f5a0b	0.15561692
237	0x3db93458	0.09043187
238	0xbdb813fd	-0.089881875
239	0xbe1cfa55	-0.15329869
240	0xbddc84eb	-0.107675396
241	0xbd9c0a6f	-0.076191776
242	0xbdcc74ef	-0.09983241
243	0xbd935750	-0.07194388
244	0x3e2c80de	0.16846034
245	0x3e0c8d02	0.13725665
246	0x3df40e1e	0.11916755
247	0x3e822c90	0.25424623
248	0x3d694d2e	0.05695837
249	0x3e10a1bc	0.14124197
250	0xbded17e8	-0.115768254
251	0x3b2dc2a2	0.0026513715
252	0x3dfa57a0	0.122237444
253	0x3da94e2c	0.08266863
254	0xbd918303	-0.071050666
255	0x3c7cb920	0.015424997

conv4.bias f4 [256]
0	0xbd27cef6	-0.040968858
1	0xbd8f318e	-0.06991874
2	0xbd14b7b8	-0.03630802
3	0xbd484b1a	-0.048899747
4	0xbcad9b3d	-0.021192187
5	0xbbe5039e	-0.0069889566
6	0xbcdc4e78	-0.026892886
7	0xbd3084ec	-0.043095514
8	0xbd0fa574	-0.035069898
9	0xbe89a35a	-0.2688244
10	0xbd2b4e55	-0.04182275
11	0x3c575f84	0.013145331
12	0xbd8774ee	-0.066140994
13	0xbdd89220	-0.10574746
14	0xbe0aaac7	-0.13541709
15	0xbd88edba	-0.06685968
16	0xbdc10145	-0.0942407
17	0xbcdd98d9	-0.027050423
18	0xbd14206e	-0.03616374
19	0xbdf60206	-0.12012105
20	0xbe4ea10a	-0.20178619
21	0xbe19ce6d	-0.15020151
22	0xbd1481b9	-0.036256526
23	0xbd68aab7	-0.05680343
24	0xbd960b0d	-0.073263265
25	0xbd9aae18	-0.07552737
26	0xbe06034a	-0.13087192
27	0xbd235b44	-0.03988196
28	0xbda6e893	-0.08149829
29	0xbe038d00	-0.12846756
30	0xbd767fbb	-0.060180407
31	0xbdce91ef	-0.100864284
32	0xbdc3bf02	-0.09557916
33	0xbe8dc563	-0.27689657
34	0x3de23d4a	0.11046846
35	0xbe42d008	-0.1902467
36	0x3c67a333	0.014138031
37	0xbe256116	-0.16150317
38	0xbc664e6a	-0.014056781
39	0xbdde356a	-0.10850032
40	0xbd89cccf	-0.06728517
41	0xbde8cc86	-0.11367135
42	0xbc8538fb	-0.016262522
43	0xbe81c309	-0.25344113
44	0xbddcc421	-0.10779596
45	0xbd8c07b7	-0.06837409
46	0xbc0aff5a	-0.008483732
47	0xbe8fbb53	-0.28072605
48	0xbd98a6e2	-0.07453705
49	0xbd264933	-0.040597152
50	0xbcaf400b	-0.021392843
51	0x3d72a4f4	0.059239343
52	0xbe699d43	-0.22813897
53	0xbd064fa3	-0.03279079
54	0x3d50c476	0.05096861
55	0x38df030b	0.000106340354
56	0x3d4db57a	0.050221898
57	0x3b56a376	0.003275124
58	0xbe1c6dad	-0.15276213
59	0xbcf5d199	-0.03000717
60	0x3aadb023	0.0013251345
61	0xbe27e55c	-0.16396087
62	0xbe266f1c	-0.16253322
63	0x3b239ec1	0.002496645
64	0x3d0688a0	0.03284514
65	0xbd93b9cc	-0.07213172
66	0xbddd8488	-0.10816294
67	0xbe1af7e5	-0.15133627
68	0xbd57d95a	-0.052697517
69	0xbcd8b442	-0.026453141
70	0xbdc815d9	-0.09769792
71	0xbd1ee383	-0.03879119
72	0xbe0da852	-0.1383374
73	0xbc81cfdb	-0.015846184
74	0xbc01168b	-0.00787891
75	0xbd218715	-0.039435465
76	0xbceeb296	-0.02913789
77	0xbd76a9a8	-0.06022039
78	0xbe1505cd	-0.14552994
79	0xbcc51dd3	-0.024062073
80	0xbd1644c6	-0.03668668
81	0xbe13623a	-0.14392939
82	0xbd604202	-0.05475045
83	0xbd2176d0	-0.03941995
84	0xbe91c756	-0.28472394
85	0xbdb87218	-0.09006137
86	0xbd11a964	-0.035561934
87	0xbda13879	-0.078720994
88	0xbdb38437	-0.08765452
89	0xbcb4330b	-0.021996995
90	0xbc87539a	-0.016519357
91	0xbe80d9e8	-0.2516625
92	0xbc21b072	-0.009868728
93	0xbd9e091f	-0.077165835
94	0xbc9af18c	-0.018914007
95	0x3b50c84b	0.0031857665
96	0xbdb8ff48	-0.09033066
97	0xbe10308b	-0.14081018
98	0xbde4046d	-0.11133657
99	0xbe72dbfd	-0.23716731
100	0xbe54e3f8	-0.20790088
101	0x3cb48bc5	0.022039304
102	0xbd2c0402	-0.04199601
103	0xbd66809f	-0.056275006
104	0xbe3fe3ac	-0.18739194
105	0xbe10bd96	-0.14134821
106	0x3d6a6d22	0.057232983
107	0xbc828c96	-0.015936177
108	0xbc3fc341	-0.011704267
109	0x3be71374	0.0070518795
110	0xbd2c3cfa	-0.04205034
111	0xbd7a004e	-0.061035447
112	0xbcc0b0be	-0.023521777
113	0x3d30fe9c	0.043211564
114	0xbc1c648a	-0.009545455
115	0xbe0f47e7	-0.13992272
116	0xbe43fcf8	-0.19139469
117	0xbde318dc	-0.11088726
118	0xbde599df	-0.11210989
119	0xbdbc5539	-0.091959424
120	0xbe132653	-0.14370088
121	0xbd3b2b85	-0.0456958
122	0xbd17debb	-0.037077647
123	0xbcb23cf8	-0.021757588
124	0xbdc9f518	-0.09861201
125	0x3c5b3385	0.013378982
126	0xbce612a0	-0.028085053
127	0xbc9a8876	-0.018863898
128	0xbddded35	-0.10836259
129	0xbe3b8eb1	-0.18316151
130	0xbda44106	-0.08020215
131	0x3d3c64da	0.045994617
132	0xbda1c26e	-0.07898413
133	0xbce94be5	-0.028478572
134	0xbdb07aa4	-0.08617142
135	0xbd35d8e2	-0.04439629
136	0xbdb26bd6	-0.08711974
137	0x3ca2b72d	0.019862736
138	0xbdcfe50f	-0.10151111
139	0x3d22aedf	0.03971755
140	0xbe2943b6	-0.16529736
141	0xbdd52b94	-0.104087025
142	0xbe4b78af	-0.19870256
143	0xbeab815f	-0.3349714
144	0xbdf2e429	-0.11859924
145	0xbd65b81b	-0.05608378
146	0xbe221936	-0.1582993
147	0xbd99a985	-0.075030364
148	0xbd166785	-0.036719818
149	0xbea3e26a	-0.32008678
150	0xbc8c1c33	-0.01710329
151	0x3c8d6d47	0.017264022
152	0xbd8bdd96	-0.068293735
153	0xbd1045cd	-0.035222817
154	0xbdd7a3de	-0.10529302
155	0xbe99947d	-0.299961
156	0xbdb448d8	-0.08802956
157	0xbd3c8b08	-0.046031028
158	0xbd4a33f8	-0.049365968
159	0xbd9bd395	-0.076087154
160	0xbe77e9fc	-0.24210352
161	0xbd5cdf7f	-0.05392408
162	0xbcb8e74e	-0.022571232
163	0xbd816286	-0.0631762
164	0xbdaf2183	-0.08551314
165	0xbcede2b3	-0.029038763
166	0xbe27a184	-0.16370207
167	0xbe68b600	-0.22725677
168	0xbd0629d1	-0.032754723
169	0xbde1d9db	-0.11027881
170	0xbdc4491c	-0.09584257
171	0xbe7aa7fa	-0.2447814
172	0xbe4be1f6	-0.19910416
173	0xbe71c1ca	-0.23609081
174	0x3d3f2bcc	0.046672627
175	0x3c9b0a5c	0.018925838
176	0x3d35ad48	0.044354707
177	0xbe2d9643	-0.16951852
178	0x3ba7564e	0.005106724
179	0xbdace1eb	-0.08441528
180	0xbd80b62f	-0.06284749
181	0xbde1046f	-0.10987174
182	0xbe19e472	-0.15028551
183	0xbacc519b	-0.0015588285
184	0xbea464b8	-0.32108092
185	0xbba9abf2	-0.005177968
186	0xbea49d3d	-0.32151213
187	0xbd8e1537	-0.0693764
188	0xbeb7ea7f	-0.35921094
189	0xbd448192	-0.04797513
190	0xbd74d5e0	-0.05977428
191	0x3bcfb0b9	0.0063382057
192	0xbe520af5	-0.20511992
193	0xbd95c8b0	-0.07313669
194	0xbe480034	-0.19531327
195	0x3c9f3745	0.019435534
196	0xbd625118	-0.05525312
197	0xbc54f6d0	-0.012998298
198	0xbb6d3957	-0.0036197507
199	0xbd4a478e	-0.049384646
200	0x39960d48	0.00028620125
201	0xbd86ba8a	-0.06578548
202	0x3de6361e	0.11240791
203	0xbda3d2df	-0.07999205
204	0xbe27d40b	-0.16389482
205	0x3b8ec559	0.004357022
206	0xbc98dd91	-0.018660339
207	0xbe157039	-0.14593591
208	0x3b902912	0.004399427
209	0x3bf45d7e	0.007457434
210	0xbd6d8451	-0.057987515
211	0xbd5fa2b7	-0.054598536
212	0xbb29744e	-0.0025856677
213	0x3ab956c0	0.0014140233
214	0xbc072da7	-0.00825063
215	0xbe91af37	-0.2845399
216	0xbdd803ee	-0.105476245
217	0xbd90f1fd	-0.070774056
218	0xbeaba4be	-0.33524126
219	0xbdb14618	-0.086559474
220	0xb9df91e4	-0.00042642571
221	0xbdb01b60	-0.08598971
222	0xbe485507	-0.19563685
223	0xbd7f4ced	-0.06232922
224	0x3e1d8fca	0.15386882
225	0xbd5484ee	-0.051884584
226	0xbba6982e	-0.005084059
227	0xbe2fa0ab	-0.17151134
228	0xbdcdf22f	-0.100559585
229	0xbd198dd7	-0.037488785
230	0xbe3c4605	-0.18386085
231	0xbd9ebc85	-0.07750801
232	0xbe09bb1f	-0.13450287
233	0xbe6274db	-0.2211489
234	0x3ae0d4c7	0.0017153256
235	0xbc334fad	-0.010944289
236	0xbdd17f74	-0.10229388
237	0xbe13a9ce	-0.14420244
238	0xba664716	-0.00087843963
239	0x3d5a1748	0.05324486
240	0xbe72c802	-0.2370911
241	0xbb2b3ff4	-0.0026130648
242	0xbd5c4a0d	-0.053781558
243	0xbd47d84e	-0.04879027
244	0xbc64c239	-0.013962322
245	0xbdb581a6	-0.08862619
246	0xbc2af2dc	-0.010433879
247	0xbdee0217	-0.11621492
248	0xbd759588	-0.059957057
249	0xbde3e345	-0.111273326
250	0xbdd9b66f	-0.106304996
251	0x3d25fbf9	0.040523503
252	0xbdc7f78e	-0.09764014
253	0xbe3d87ef	-0.18508886
254	0x3d67cc84	0.056591526
255	0xbd773c40	-0.060360193

conv4.lin.weight f4 [256, 128]
0	0xbd81ddc3	-0.06341126
1	0xbd88d7a1	-0.06681753
2	0x3d843b0e	0.06456576
3	0x3cdeb256	0.027184647
4	0x3d4e0464	0.050297156
5	0xbe0827e1	-0.13296463
6	0xbe1a9741	-0.15096761
7	0xbdfab513	-0.122415684
8	0xbe2e8c4c	-0.17045707
9	0x3c9172a0	0.017754853
10	0x3c841d97	0.01612739
11	0xbb221e8e	-0.002473745
12	0xbdf28606	-0.11841969
13	0x3d883f66	0.06652717
14	0x3cd1487c	0.025547259
15	0x3bc8ee46	0.00613192
16	0xbe01c89b	-0.12674181
17	0xbd03dde0	-0.03219402
18	0xbd253470	-0.04033321
19	0xbd08cb06	-0.033396743
20	0xbd14c40c	-0.036319777
21	0xbcd66767	-0.026172353
22	0xbd6bf87c	-0.05761002
23	0x3d951090	0.0727855
24	0xbdded399	-0.10880203
25	0xbdfb960c	-0.122844785
26	0x3d3d2f01	0.046187405
27	0xbd58a27f	-0.052889343
28	0x3d5ef4da	0.054432727
29	0xbc1d5949	-0.009603807
30	0xbd0ec988	-0.034860164
31	0xbe01f1ec	-0.12689942
32	0x3d44ab5e	0.04801499
33	0xbdcac030	-0.09899938
34	0xbd2ef08f	-0.042709883
35	0xbcd704ae	-0.026247349
36	0xbd29b3dc	-0.041431293
37	0xbe053bf7	-0.13011156
38	0xbd91ed86	-0.07125382
39	0xbddbecf3	-0.10738554
40	0xbe065740	-0.1311922
41	0x3d2155b1	0.039388362
42	0xbd46e069	-0.048553858
43	0xbcd6b4f3	-0.02620933
44	0x3d948741	0.0725236
45	0xbd2deefc	-0.04246424
46	0xbc29b2bd	-0.010357556
47	0x3cbf70fb	0.023369303
48	0x3d18ce07	0.037305858
49	0xbd82ddad	-0.063899375
50	0x3d0892f9	0.03334329
51	0xbcae5f8f	-0.0212858
52	0xbe31a0af	-0.17346452
53	0xbdc958c7	-0.09831386
54	0x3ba47647	0.0050189826
55	0xbde6c39d	-0.11267779
56	0xbd806679	-0.06269545
57	0xbd292908	-0.041298896
58	0xbc4fe9c6	-0.012690013
59	0xbe086de4	-0.1332317
60	0xbd55f857	-0.05223879
61	0xbdfc28cc	-0.12312469
62	0xbd88ff3e	-0.066893086
63	0x3afb6579	0.0019180021
64	0xbcb257bb	-0.021770349
65	0x3d8392b0	0.06424463
66	0xbb87c55a	-0.004143399
67	0xbdd12da7	-0.102137856
68	0xbd2423a9	-0.04007307
69	0xbd85568f	-0.0651065
70	0xbe07ce9b	-0.13262407
71	0x3d6fc4e4	0.05853738
72	0x3db2dfb2	0.08734073
73	0xbd9258ef	-0.07145869
74	0xbdfe1089	-0.124054976
75	0x3c60886f	0.013704403
76	0x3d8d272c	0.06892237
77	0xbd50deee	-0.050993852
78	0xbdb233dc	-0.08701298
79	0xbe1c7f42	-0.1528292
80	0x3cf20b5e	0.029546436
81	0xbde06238	-0.10956234
82	0xbcec9dc3	-0.02888382
83	0x3d840543	0.06446316
84	0xbdd10669	-0.10206301
85	0xbc97e91b	-0.01854377
86	0x3b6e057d	0.003631919
87	0xbdaa4626	-0.08314161
88	0x3cdfe622	0.027331416
89	0xbd9affb3	-0.07568302
90	0xbdc6f274	-0.09714213
91	0xbd97abad	-0.074057914
92	0xbd1d71f4	-0.038438752
93	0x3d83c63a	0.06434293
94	0xbddd720e	-0.1081277
95	0xbdbeaede	-0.09310697
96	0x3c8a74de	0.01690143
97	0xbce838ff	-0.02834749
98	0xbe0d0fca	-0.13775554
99	0xbd29c748	-0.041449815
100	0x3dcbdba0	0.099539995
101	0x3d4fd858	0.05074343
102	0x3bcc64bf	0.006237596
103	0x3d832daf	0.06405198
104	0xbd885304	-0.06656459
105	0xbe067b5c	-0.13132995
106	0xbc6e86be	-0.014558492
107	0xbda1474c	-0.07874927
108	0xbd1e569f	-0.038656827
109	0xbcbadbe6	-0.022809934
110	0x3d99e09f	0.07513546
111	0x3c8bf620	0.017085135
112	0xbcc15e03	-0.023604399
113	0xbc930f01	-0.01795149
114	0xbdb2ad18	-0.08724421
115	0x3d7c46c9	0.061590943
116	0x393aab54	0.00017802167
117	0x3bb78c6a	0.0056014555
118	0xbdf8f107	-0.12155347
119	0x3d2aca84	0.04169704
120	0xbdd152e6	-0.1022089
121	0xbd5ed5f3	-0.054403257
122	0x3cc80048	0.024414197
123	0x3d0ac96e	0.033883505
124	0xbe38b6d6	-0.18038496
125	0x3d871388	0.06595522
126	0xbd4eedd2	-0.050519772
127	0xbe1929ca	-0.14957348
128	0x3d91afcb	0.07113608
129	0xbe4a09c1	-0.19730283
130	0xbde3522d	-0.11099658
131	0x3a3d3299	0.00072173175
132	0xbd54c391	-0.05194432
133	0xbc1da60f	-0.009622111
134	0xbd85b2bc	-0.065282315
135	0xbd07479b	-0.033027273
136	0xbdaf8f8d	-0.08572302
137	0xbc9a7064	-0.01885242
138	0xbe2c0548	-0.1679889
139	0x3db2dd60	0.0873363
140	0xbba0dac3	-0.004908891
141	0xbe2fc5fd	-0.1716537
142	0x3dab3b1b	0.08360883
143	0xbafe2a4c	-0.0019391268
144	0xbc8a84df	-0.016909061
145	0x3da2a5ae	0.07941757
146	0xbda25c24	-0.07927731
147	0xbd1de368	-0.03854695
148	0xbd4e78a9	-0.05040804
149	0x3d422416	0.047397695
150	0xbcf610d4	-0.030037321
151	0x3d5cb278	0.05388114
152	0x3cc73560	0.024317443
153	0x3d99724c	0.074925035
154	0xbe2949ca	-0.16532055
155	0xbe085d8c	-0.13316935
156	0x3d8d85c4	0.069102794
157	0xbd684d82	-0.056714542
158	0xbdaff825	-0.08592252
159	0xbd91ad51	-0.071131356
160	0xbe1208a6	-0.14261112
161	0x3d12a3c3	0.035800707
162	0x3d5aacc5	0.053387422
163	0x3bfa1de1	0.0076329564
164	0xbd88f1a4	-0.06686714
165	0xbe34e0bf	-0.17663859
166	0x3d3a20f5	0.045441587
167	0xbd79c1ce	-0.060975842
168	0xbe006e47	-0.12542067
169	0x3d0fc696	0.035101496
170	0xbcb55992	-0.022137437
171	0x3e008535	0.12550814
172	0xbd53e074	-0.051727727
173	0x3d9153dc	0.07096073
174	0xbdd85e6b	-0.10564884
175	0xbc16ac9b	-0.009196426
176	0x3df73341	0.12070323
177	0x3dab7e9e	0.0837376
178	0xbd77e804	-0.060524
179	0x3d847fc3	0.06469681
180	0x3c36b77c	0.0111521445
181	0x3cf8b8b4	0.03036151
182	0x3cd3e0ac	0.025863968
183	0xbbbdb5c4	-0.0057894904
184	0xbd21a77d	-0.03946637
185	0xbdb5abc8	-0.08870655
186	0xbdcffac8	-0.101552546
187	0x3b7f0357	0.0038911903
188	0x3d22efd1	0.039779488
189	0x3db43b19	0.088003345
190	0xbdad5b38	-0.08464664
191	0xbdac6271	-0.08417214
192	0xbd06d37f	-0.032916542
193	0x3d312ff3	0.04325862
194	0x3dc5a1c7	0.09649997
195	0x3ba15c29	0.0049243164
196	0xbc930e8e	-0.017951276
197	0xbe16dd73	-0.14732914
198	0xbdb51c05	-0.08843235
199	0xbd02a0f3	-0.031891774
200	0xbdf6919e	-0.12039493
201	0x3c8c4a8f	0.017125396
202	0xbd6fbbb2	-0.05852861
203	0x3d871ae0	0.06596923
204	0xbd8be30d	-0.06830416
205	0xbd3da2a1	-0.046297673
206	0xbde7c643	-0.11317112
207	0x3d92cc26	0.071678445
208	0xbe297e6d	-0.16552134
209	0x3cb9ef6c	0.022697173
210	0xbe120758	-0.14260614
211	0x3cad5461	0.021158399
212	0xbbd1305e	-0.0063839396
213	0xbd86f059	-0.065888114
214	0x3de4ff4d	0.11181507
215	0x3cd11cf0	0.025526494
216	0xbdcc7632	-0.099834815
217	0x3da6d6b6	0.081464216
218	0xbd5bbf63	-0.053649317
219	0xbcf7b2a5	-0.030236552
220	0xbcffcf45	-0.031226764
221	0xbd76da3b	-0.060266715
222	0xbdaeb71c	-0.08531019
223	0xbd3f7f60	-0.046752334
224	0x3a432c1d	0.0007445233
225	0x3d2eb4f9	0.042653058
226	0xbddd155d	-0.1079509
227	0x3d82c692	0.063855305
228	0xbdc72214	-0.09723297
229	0x3d94b67a	0.07261367
230	0xbdfced58	-0.12349957
231	0xbdb80cee	-0.08986841
232	0xbdcb14d0	-0.09916079
233	0xbdeb7524	-0.11496952
234	0x3c7909c2	0.01520008
235	0x3d46b59e	0.048513047
236	0x3d4985c5	0.04919984
237	0xbc8d8136	-0.017273527
238	0xbdd61255	-0.10452715
239	0xbd0f6cf5	-0.03501602
240	0xbde09203	-0.109653495
241	0xbc6270d5	-0.013820847
242	0xbdb1cfce	-0.08682214
243	0xbd965255	-0.07339922
244	0x3d23f8c0	0.04003215
245	0x3d2c8221	0.042116288
246	0xbe16adcb	-0.14714734
247	0x3ca908ce	0.020634081
248	0x3a95fc5b	0.0011443006
249	0xbdec2b6b	-0.11531719
250	0x3d97b5f8	0.07407755
251	0x3c4514de	0.012028901
252	0xbd07b6c1	-0.033133272
253	0x3df00aa9	0.11720783
254	0xbd7208ab	-0.059090298
255	0xbb4ec97b	-0.0031553197

conv5.bias f4 [256]
0	0xb4ca68ed	-3.7701776e-07
1	0xb7382d87	-1.0977855e-05
2	0xb693021d	-4.3811874e-06
3	0x374707a1	1.1863101e-05
4	0x372fc80f	1.0477393e-05
5	0x353cde9e	7.035941e-07
6	0x37fa5d9f	2.9845918e-05
7	0x376456fb	1.3610111e-05
8	0x37e4459f	2.7212138e-05
9	0x3883137d	6.250197e-05
10	0x3582d198	9.746755e-07
11	0x36ecd7e4	7.058481e-06
12	0xb7a2261e	-1.9329655e-05
13	0x359e450e	1.1792015e-06
14	0x3403be6c	1.2269601e-07
15	0x3640e492	2.8743275e-06
16	0xb8c22ea3	-9.2593276e-05
17	0x364faa7f	3.0944645e-06
18	0xb55143c6	-7.795719e-07
19	0xb66587d8	-3.420273e-06
20	0xb76231c4	-1.3482237e-05
21	0xb5c9cf90	-1.5036076e-06
22	0xb725b4dd	-9.876877e-06
23	0x38e84542	0.00011075522
24	0x35b327e6	1.3348151e-06
25	0xb8935f77	-7.027288e-05
26	0xb7ba085a	-2.2176817e-05
27	0xb5959691	-1.1145186e-06
28	0xb8983259	-7.257303e-05
29	0xb88c80ee	-6.699735e-05
30	0xb50b9043	-5.1991464e-07
31	0x36efc064	7.1451523e-06
32	0xb6cc5ebb	-6.090702e-06
33	0x35c8036a	1.4902155e-06
34	0xb72e24ff	-1.0379822e-05
35	0xb5c92990	-1.4987763e-06
36	0xb5d7ced2	-1.6078941e-06
37	0x36078ad4	2.0197376e-06
38	0xb7d80026	-2.5749276e-05
39	0xb78fbf6e	-1.713607e-05
40	0x3494479e	2.7619257e-07
41	0x37a58c5c	1.9734893e-05
42	0xb70b5f00	-8.3071645e-06
43	0x3849bdf6	4.809905e-05
44	0xb7054c70	-7.945215e-06
45	0x3685ada8	3.983925e-06
46	0x37dd009a	2.6345533e-05
47	0xb84bfd24	-4.8634727e-05
48	0x37e4f5fc	2.7294263e-05
49	0xb5f2c191	-1.808674e-06
50	0xb6f3962e	-7.2594476e-06
51	0xb63191c5	-2.6459904e-06
52	0x36cd0c9a	6.110943e-06
53	0xb760fb5e	-1.3409966e-05
54	0xb71049da	-8.600264e-06
55	0x3828012f	4.0055424e-05
56	0xb603eaf0	-1.9657273e-06
57	0x34699aef	2.175618e-07
58	0x3695da73	4.465977e-06
59	0xb628d3ca	-2.5157228e-06
60	0x360411fe	1.9680006e-06
61	0xb792bc6f	-1.7492303e-05
62	0x35e0c2d9	1.6746009e-06
63	0xb8852ff9	-6.35087e-05
64	0xb78bd5d0	-1.6669655e-05
65	0x35a0f093	1.1990945e-06
66	0xb4fb8e21	-4.6855806e-07
67	0x36cdd6ef	6.1344977e-06
68	0x376ccd69	1.4114522e-05
69	0x339008d2	6.707127e-08
70	0xb50dfe62	-5.289677e-07
71	0xb8960e3a	-7.155207e-05
72	0xb8787d0e	-5.9244274e-05
73	0x37126a7a	8.727069e-06
74	0x35f3ba5c	1.8159149e-06
75	0xb8857abd	-6.364796e-05
76	0xb7f19c5c	-2.880225e-05
77	0xb6669e06	-3.4364652e-06
78	0xb7293dd8	-1.0087584e-05
79	0x377a5b6b	1.4922446e-05
80	0x3785b135	1.5937354e-05
81	0xb6688b19	-3.465166e-06
82	0xb69ae43b	-4.616127e-06
83	0x3741d0c5	1.1552304e-05
84	0x372cfb0f	1.0310453e-05
85	0x37af3368	2.0885564e-05
86	0xb58b698f	-1.0387029e-06
87	0x37f2622a	2.889436e-05
88	0x3783a7a8	1.5694488e-05
89	0x3604d8b1	1.9795664e-06
90	0xb8081252	-3.244199e-05
91	0x3586c4da	1.0041069e-06
92	0xb61856af	-2.2700222e-06
93	0xb448e56a	-1.8709912e-07
94	0x361a1c42	2.2964236e-06
95	0x371f11d3	9.4812885e-06
96	0xb6879cc5	-4.041564e-06
97	0xb64839d2	-2.9835978e-06
98	0xb687dc63	-4.04897e-06
99	0xb839bb1c	-4.4281696e-05
100	0xb69355ea	-4.390943e-06
101	0xb7252fd5	-9.845903e-06
102	0xb90563cc	-0.00012721046
103	0xb8364dea	-4.3464745e-05
104	0x38f821d3	0.00011831862
105	0xb884255f	-6.3012114e-05
106	0x37d17ad8	2.4971945e-05
107	0xb56be191	-8.7872564e-07
108	0xb7dbfdc2	-2.6225e-05
109	0x36e7577c	6.894521e-06
110	0x37379506	1.0942347e-05
111	0xb84c0e15	-4.8650505e-05
112	0x35eb67b9	1.7539052e-06
113	0x36f4ce48	7.295781e-06
114	0x37bf8c22	2.2834229e-05
115	0x378a9e83	1.6524695e-05
116	0xb6206130	-2.3898428e-06
117	0xb761ba99	-1.3454491e-05
118	0x35303835	6.56469e-07
119	0x347ea9f0	2.3717416e-07
120	0xb6b099d8	-5.2631185e-06
121	0x36a2041e	4.8284555e-06
122	0x37f3734b	2.9021545e-05
123	0x3419470f	1.4275086e-07
124	0xb5fd13c3	-1.885572e-06
125	0x37c3ee32	2.335673e-05
126	0xb58af5e3	-1.0353364e-06
127	0xb7e3870b	-2.7123393e-05
128	0xb75e1eba	-1.3239385e-05
129	0xb612e1fe	-2.188724e-06
130	0xb7b510ce	-2.1584707e-05
131	0xb786040b	-1.5975927e-05
132	0x36a3c332	4.8805023e-06
133	0x3709978b	8.20112e-06
134	0x37d45812	2.531338e-05
135	0x3665f4f0	3.4266232e-06
136	0x3716b207	8.982147e-06
137	0xb6c9e14e	-6.0164957e-06
138	0xb63f7acb	-2.8532693e-06
139	0xb69c336e	-4.6551495e-06
140	0x362006f8	2.3845914e-06
141	0x362c6ebf	2.569446e-06
142	0xb81755ae	-3.6081e-05
143	0xb6817c4a	-3.8589687e-06
144	0xb75f24cf	-1.3300406e-05
145	0xb65b6144	-3.269016e-06
146	0x38162ed9	3.5806417e-05
147	0x36b5ba59	5.415914e-06
148	0xb6bc6a85	-5.615237e-06
149	0x36fc46db	7.518434e-06
150	0xb6096ed5	-2.0479104e-06
151	0xb41f949b	-1.4862091e-07
152	0x359c9ae1	1.1667981e-06
153	0x3582ff8e	9.760131e-07
154	0x378303a2	1.5618109e-05
155	0xb7d8a478	-2.5825793e-05
156	0x378dfbd6	1.692578e-05
157	0x35a640ed	1.238686e-06
158	0xb7e8d05f	-2.7753586e-05
159	0x369c31c8	4.6549576e-06
160	0xb47fc337	-2.3819744e-07
161	0x3382953b	6.0807416e-08
162	0x371d8502	9.3888975e-06
163	0xb5839afd	-9.805368e-07
164	0x37356436	1.0811773e-05
165	0xb5681f97	-8.6472704e-07
166	0x369ee3d0	4.735288e-06
167	0xb684c069	-3.956306e-06
168	0x36bd511a	5.6420804e-06
169	0xb812e0c4	-3.5018442e-05
170	0x340bc008	1.3015244e-07
171	0xb58cb045	-1.0482114e-06
172	0xb34243d7	-4.5230845e-08
173	0xb8862da6	-6.3981206e-05
174	0x3794461e	1.7675626e-05
175	0xb8ce7eb2	-9.846444e-05
176	0x37e3ed97	2.7171145e-05
177	0xb7255cd2	-9.856378e-06
178	0x3878e427	5.934029e-05
179	0xb5804b78	-9.558707e-07
180	0xb7d2cb12	-2.5128513e-05
181	0xb55bc19c	-8.1865596e-07
182	0x37c1d62e	2.3107128e-05
183	0xb56c76a5	-8.80895e-07
184	0xb713f401	-8.818694e-06
185	0x3698caf4	4.55358e-06
186	0xb6c45e72	-5.85225e-06
187	0x35460305	7.376514e-07
188	0xb6a73caa	-4.98405e-06
189	0xb7c90111	-2.3961564e-05
190	0xb811761b	-3.468069e-05
191	0x369d548a	4.6888063e-06
192	0x3669920d	3.4804718e-06
193	0xb6d23095	-6.2641434e-06
194	0xb605327f	-1.9847937e-06
195	0xb75c03dd	-1.3113921e-05
196	0x36fa5ec6	7.4616137e-06
197	0x3489ec94	2.5690372e-07
198	0x370985c7	8.196984e-06
199	0xb778dc06	-1.483318e-05
200	0xb756314d	-1.2766873e-05
201	0x388202fb	6.199438e-05
202	0x3710c556	8.629015e-06
203	0xb7b349d4	-2.1372842e-05
204	0xb704eac5	-7.922475e-06
205	0xb6ec7e4c	-7.048051e-06
206	0x345dbdb0	2.0651237e-07
207	0x37f4a0bf	2.916192e-05
208	0x3878a028	5.9276965e-05
209	0xb577be7f	-9.229188e-07
210	0xb816a62f	-3.5917557e-05
211	0x373fd0b1	1.1433077e-05
212	0x3758654a	1.28981865e-05
213	0x3770ae02	1.4345629e-05
214	0xb64c073d	-3.0402582e-06
215	0xb7368493	-1.0878913e-05
216	0x3685f63f	3.9923757e-06
217	0xb85b647a	-5.2307245e-05
218	0xb77d4134	-1.5095156e-05
219	0xb86ccfa7	-5.6460176e-05
220	0xb6aba905	-5.1158736e-06
221	0xb764d748	-1.3639983e-05
222	0xb7a723d6	-1.9924639e-05
223	0x381fb553	3.8077425e-05
224	0x34b536e9	3.375383e-07
225	0xb6b73fcd	-5.4612524e-06
226	0x37554215	1.2711175e-05
227	0x366eed86	3.560302e-06
228	0x36f2cb87	7.2358557e-06
229	0xb604b663	-1.9775696e-06
230	0x372d269b	1.0320592e-05
231	0x369ca1d8	4.6680034e-06
232	0xb646b378	-2.9608764e-06
233	0x36989372	4.547118e-06
234	0x36af4ba1	5.224211e-06
235	0x372267e3	9.6801405e-06
236	0xb792c706	-1.7497234e-05
237	0xb63b69c0	-2.7926726e-06
238	0x3709310b	8.177255e-06
239	0x3679671d	3.7163911e-06
240	0x35c03150	1.4319467e-06
241	0x37ed6629	2.8300174e-05
242	0xb38e4d3a	-6.626438e-08
243	0xb58d6885	-1.0535738e-06
244	0x363d9be4	2.8253935e-06
245	0xb5b628e1	-1.3571954e-06
246	0x3594ed3a	1.1095901e-06
247	0x342280c2	1.5134268e-07
248	0xb740fc9a	-1.1502905e-05
249	0x36a30617	4.8584875e-06
250	0xb78ed7a4	-1.7028135e-05
251	0xb70512da	-7.931807e-06
252	0x34352ff0	1.6874378e-07
253	0xb700b0f1	-7.670592e-06
254	0xb6d04b1f	-6.2076283e-06
255	0x3763622e	1.3553114e-05
