model_weights/clean_split_1.pt (torch, 473446 bytes, 26 tensors)

conv1.bias f4 [64]
00000000: f9a3 8fb5 6672 3db4 b072 d235 a512 e2b5
00000010: 4048 aa34 4a34 32b5 a36b 4bb5 7738 23b4
00000020: 8385 3237 f885 1c34 6df8 8db5 3b93 45b5
00000030: 8c86 6fb4 2e97 1734 3e49 edb5 affc 3cb5
00000040: d4e8 9735 d246 27b7 bb50 2635 7015 8cb4
00000050: 5a68 1e34 ae87 c533 391b d135 421d 1436
00000060: dc54 07b5 76f8 d4b4 da6d 0eb5 a6dc f035
00000070: 5a6c 8035 7dca 8137 228a 8336 520d 11b6
00000080: 1165 90b3 8a8d 29b7 ce1f 7fb6 e606 4ab5
00000090: d9aa 07b5 3d60 c2b4 e8e1 fe33 7787 c1b5
000000a0: 905d 21b4 41c7 4db4 1a38 58b6 9e30 1b34
000000b0: ec83 9034 8112 bfb4 aa2f 0cb5 3163 6936
000000c0: 9da2 ec33 afa7 2335 27fb 2eb4 4937 1334
000000d0: c2a3 0135 ffc1 8eb5 d37f be35 00cc 4eb6
000000e0: 58d6 a7b5 32a2 f4b5 4a07 d334 2f09 43b5
000000f0: 1a6b 0835 a154 e0b4 157a bc36 5bf2 6635
-1.0702053e-06 -1.7643615e-07 1.5679598e-06 -1.6843738e-06 3.1717536e-07 -6.638626e-07 -7.5780025e-07 -1.52011e-07
1.0640712e-05 1.457737e-07 -1.057762e-06 -7.360247e-07 -2.2307557e-07 1.411797e-07 -1.7679192e-06 -7.040316e-07
1.1318139e-06 -9.970465e-06 6.19573e-07 -2.609263e-07 1.475286e-07 9.198207e-08 1.5579636e-06 2.2070749e-06
-5.0414906e-07 -3.9668856e-07 -5.305898e-07 1.7945611e-06 9.568278e-07 1.547229e-05 3.920185e-06 -2.1614437e-06
-6.7239064e-08 -1.010614e-05 -3.8016474e-06 -7.52609e-07 -5.0540035e-07 -3.6205338e-07 1.1868889e-07 -1.4419046e-06
-1.5028331e-07 -1.9164601e-07 -3.2219164e-06 1.4453187e-07 2.6918076e-07 -3.5589986e-07 -5.2223425e-07 3.4777443e-06
1.10191856e-07 6.0966244e-07 -1.6296381e-07 1.3710554e-07 4.8294544e-07 -1.0636285e-06 1.4193305e-06 -3.0815136e-06
-1.2504852e-06 -1.8226622e-06 3.9307116e-07 -7.2656525e-07 5.08198e-07 -4.1784827e-07 5.617049e-06 8.603435e-07

conv1.lin.weight f4 [64, 2]
00000000: 0f27 33be c607 05be 9871 ae3c 8868 713e
00000010: 3e55 103e 60fb c63b 01b2 d2bd 8031 0f3d
00000020: e6a5 51bd 188e debd d16f 543e 5410 473e
00000030: 8fd2 453d 22fe 333e b664 83bd 4a5c 693e
00000040: 4d7f ab3d dc96 c8bd 568f 163e 02f8 543d
00000050: e3f2 2cbe b1de 3a3d cb22 07bd 308b 73be
00000060: ac28 e73d fe5e 493b 677f 163e 885f 8d3d
00000070: 66a6 6ebd 6068 39be b23c 2f3e fa09 823e
00000080: a95c 0abe 3e4b aabd d3b7 fe3d a296 51be
00000090: c3dd 3b3c 63b6 bb3e 3a3b 4abd d57c 9f3e
000000a0: b6cd 8f3e 4771 903d a800 babe d98d 243d
000000b0: b052 23be ebc4 48be edd5 363e 510b 6ebd
000000c0: e6ac 343d 3d9b 573e bbd7 edbd 4354 eabd
000000d0: db7a 083e 6f02 343e c27b 55be fee3 b3bd
000000e0: 8ea3 a63d 58fb 87be dedd a63c d238 b8bd
000000f0: b344 9ebd a022 97be 9ec5 91be 5552 f43d
00000100: 993f ca3d d3a1 3d3e deb9 6c3e 5b2f 4fbe
00000110: cf8e 83be ccff 483e dedf 003e bd1d 433e
00000120: e04d bbbb 4af1 8e3d f952 c13d 07d7 4c3d
00000130: 1777 0a3e ce65 873e 3e1b 95be f3b3 8a3e
00000140: 921f 9dbe d290 6d3e 0f62 f03d df4d 463d
00000150: 4c32 d7bd 2703 92be b74e 9b3d 4a10 5f3e
00000160: 4dc2 8dbd 6d07 9a3e ea7d 65be 606a 913e
00000170: e48c 7e3e bb09 133e 5b6e 0a3c 963e 6cbe
00000180: f2b3 123d 1efa a13d 1b47 3b3d 4acc fc3d
00000190: 7e64 fd3d 3b37 c83d c8e5 883e e1ac 813b
000001a0: 21a8 22be 00f9 783e fa40 533c 413a 423e
000001b0: 2ad4 443e faaf 05be 72e3 603c 6f90 58be
000001c0: 85d3 45be 2d51 383e 4139 35be d00b 7d3e
000001d0: d3c8 7e3e 82a7 223d d047 bd3d 93a4 0d3e
000001e0: f95f 1b3c 7819 9f3e f696 e5bd dcba 9dbe
000001f0: a829 263e 9b77 3cbe a169 7fbe a48b 393e
-0.17495368 -0.12991247 0.0212944 0.23575032 0.14095017 0.0060724467 -0.10287858 0.034959316
-0.051183604 -0.10866946 0.2074578 0.19439822 0.048296507 0.17577413 -0.064156935 0.22789112
0.0837389 -0.09794399 0.14703116 0.05199433 -0.16889529 0.04562253 -0.032992166 -0.23783565
0.112870544 0.0030726786 0.14697038 0.06902987 -0.05826416 -0.18106222 0.17112997 0.25398237
-0.1351191 -0.083151326 0.124374054 -0.20467618 0.011466446 0.36662588 -0.04937289 0.31149927
0.28086632 0.07052856 -0.36328626 0.04017434 -0.15949512 -0.19606368 0.17855044 -0.05811626
0.0441102 0.21055312 -0.11613413 -0.11441853 0.13328116 0.17579053 -0.20847991 -0.087837204
0.08136664 -0.26558948 0.020369466 -0.089952126 -0.07727947 -0.29518604 -0.28471082 0.11929766
0.098754115 0.18518762 0.23117778 -0.20232908 -0.25694892 0.19628829 0.12585399 0.19054313
-0.0057160705 0.06979616 0.09439654 0.050009754 0.13521992 0.26444858 -0.29122347 0.27090415
-0.3068815 0.23199776 0.11737453 0.048414107 -0.1050764 -0.2851803 0.07583373 0.21783558
-0.069218256 0.3008379 -0.22411314 0.2840147 0.24858433 0.1435918 0.008449162 -0.2307075
0.03581614 0.07909034 0.04572211 0.123436525 0.12372683 0.097761594 0.2673781 0.0039573763
-0.15884449 0.24313736 0.01289391 0.18967535 0.19221559 -0.13055411 0.013726102 -0.21148847
-0.1931897 0.17999716 -0.17697622 0.24711537 0.24881296 0.03971053 0.09242213 0.13832311
0.009483331 0.3107412 -0.11210434 -0.30806625 0.16226828 -0.18405001 -0.24942638 0.18119675

conv2.bias f4 [64]
00000000: f33a 04bd c166 1a39 7122 31bd f435 093d
00000010: c656 f1bd f103 d63d 881c 20be f0f9 5dbd
00000020: d050 93bd 7162 253c bd05 f738 eebf e7bc
00000030: 763c 5cbd 8f25 dbbd 9381 28be f7b6 fdbd
00000040: 2c8e 7bbd 8112 bcbd 1960 7abd c6fb 44bd
00000050: 1e0d 39be 2ee9 78bd 9dba 4a3c d1c9 56bc
00000060: 72db 2c3d 24b7 8dbd 43ac 34bb 9fee 01bd
00000070: 1721 4f3d 2ca7 0c3e ffba 3abe 0cbe b63d
00000080: b2f4 06be b90e 4fbd 79c1 1f3d 747a 33be
00000090: a188 5fbd bc19 31be 35a3 03be addf 95bd
000000a0: 2285 d9bb 1279 99bd 111c 3ebd ab00 383c
000000b0: daa1 13be 5337 a8bd 5feb c03c 8519 61be
000000c0: bd4d 72bd 8d5c 8a3b a6ab ad3d 370e cabd
000000d0: bb8d b83d f131 bebc 4228 c6bb c56a 563d
000000e0: 514a 8cbd afca ecbd 751f 31bc 995e f43c
000000f0: 050b 8a3d 7e53 50bd e46f 51bd faab 42be
-0.03228278 0.00014724863 -0.043245737 0.03349872 -0.11784129 0.104499705 -0.15635884 -0.054193437
-0.07193148 0.010094271 0.00011778947 -0.028289761 -0.053768598 -0.10700523 -0.16455679 -0.123884134
-0.061414883 -0.09183217 -0.061126802 -0.048091672 -0.1807141 -0.060769252 0.012373594 -0.01310964
0.042201467 -0.06919697 -0.0027568496 -0.031721707 0.050568666 0.13735646 -0.18235396 0.08922967
-0.13179281 -0.05055115 0.03900287 -0.17527181 -0.05457366 -0.17294973 -0.12855227 -0.073180534
-0.006638185 -0.074937955 -0.046413485 0.011230628 -0.1441721 -0.08213677 0.023549734 -0.21982391
-0.05915617 0.0042224587 0.08480005 -0.098659925 0.09011408 -0.023217173 -0.0060472796 0.052347917
-0.06850112 -0.11562096 -0.010810723 0.029830264 0.06740383 -0.050860874 -0.051132098 -0.19010916

conv2.lin.weight f4 [64, 64]
00000000: 343c 963d 53e7 b6ba eef4 fabd d26b b0bd
00000010: b8ff 353c 9f34 e23d 969a 7a3e 470f 63bd
00000020: 434b d03c c5f0 06bc ee85 08be 914c 53bd
00000030: 9724 0bbe ec96 8a3c 31c4 c93d fd38 d8bd
00000040: 5475 2f3e 9bbe 8d3e b0c9 733e 40d0 33bd
00000050: b098 22be a940 103d c8cc e9bd 4129 4a3e
00000060: 00c1 923e 2b7c 0dbe 9072 6dbd 24f2 32be
00000070: 5d68 4f3c fa77 493d 855f 45bd cc78 1abe
00000080: b32e b23d 511a 4d3e 9482 dbbd 6811 a03b
00000090: f8c0 123d 635d 0dbe b703 0f3e 9250 953d
000000a0: c2e3 fe3c c747 ccbc 3531 883e 3ab7 8f3d
000000b0: cb60 5b3e 7280 f7bd 54af 113d 37f5 4b3e
000000c0: 17ad 553e b229 e2bb 23c0 143e f1a6 e23d
000000d0: 966d 9ebd 02c0 9d3d bd77 543e 422c fb3d
000000e0: ee56 6cbe 6349 c4bd d638 223e 636a 833e
000000f0: f4e2 3b3d ff69 2d3e 4647 b2bd 24ab 35be
00000100: 50fd ddbc 22ed cd3d e7fc 453e 6b56 5ebe
00000110: c1ab 51bd a4c0 87bd d2c8 0e3e 9d3f 2bbe
00000120: 4a63 0bbe eacd 003e b586 b9bd 3a78 be3b
00000130: 3010 94bd 6bc0 d8bb 3311 483e a1de bfbc
00000140: 9f3b c8bd e15d 26bd cda6 dabc 9175 1b3e
00000150: dbec 8bbd d06e 333e b00f 36bd a8ff 5d3e
00000160: 64da d4bd 6337 82bd 56df 203e 17cb 01be
00000170: f2a4 3bbd f8d5 1f3d abf9 843e 398d a8bc
00000180: 7975 653e da94 e53d 5b51 97bd 7b2c d23d
00000190: 8c25 10be 0082 6b3e 1265 563e 0cac 4c3e
000001a0: 0e34 cb3d f195 dabd 8a65 f1bd a9f9 e03d
000001b0: b18e 8ebc 6c60 cdbc bea4 843d 0229 5b3e
000001c0: 6ec1 063e 8ce9 6a3e 8585 6a3e e84a 1dbe
000001d0: 15e8 143d c166 743e e419 ac3d 200d 2b3e
000001e0: ab8f fbbc 69bd e83d e4f2 81bd 0daf 293e
000001f0: 9b59 7a3e cc3d 1c3d 2f68 363e acc8 42be
00000200: 1ec2 e83d 1af7 45bd a4bf dd3c 4e0e 803d
00000210: 89cb 3c3e ab2c 26be 4265 6dbc b706 debd
00000220: 6cae 853e e6fc 893c 36a9 37be b826 233e
00000230: f1fb 06be 1407 323c 7f11 123e ba36 213e
00000240: b5be 823d cd0d 653c be06 23bd dbf2 3d3e
00000250: 295c 48be 2139 6bbd e28e 99bb f761 7a3d
00000260: c578 9e3d 0541 42be 4231 283e 898d 2f3e
00000270: 7e6f 603e 2014 85ba 2712 1bbd 3d69 ecbd
00000280: 799c 30be dac8 283e 3284 31be 490a 08bd
00000290: f8d1 e1bd 16e9 fa3a 04ea 4fbe 5650 4b3e
000002a0: 06b9 3c3d eabb 043c 2549 b03d f5d6 79bd
000002b0: c072 dfbd c693 023e ba6f da3d ebbc b2bc
000002c0: 2737 063e 057f c43d 08aa 8fbe 1c84 51be
000002d0: 5063 063e d535 30be c651 b83d 57aa e8bc
000002e0: 4398 433d d6ed 89bd d6f7 ddbd 3464 90be
000002f0: 6380 7ebd 76c4 93bd 94c7 06be baa6 c33d
00000300: 22ff ab3d da50 fabd 70bd 42be 18e3 1a3e
00000310: b731 b03d 47a5 4bbd 0fdc ed3d b313 4ebd
00000320: 5920 4abc 6ca8 c03d d58e 96bd 581f 14be
00000330: 99ce 30bd af0c ff3b 73cb 03bd 888c 3f3d
00000340: e673 b13c 49c9 85bd dc86 1d3e 7814 243e
00000350: 393a e53c f3ca a8bd 5542 203e 8183 babd
00000360: cc4e 353d fa28 d63c 5ef1 5b3e 2504 febd
00000370: 552b 243d ea0c f3bd 7ac9 2c3e a6f8 74be
00000380: 8628 f53d 3bfe 49bd 2ea2 d43d b961 243e
00000390: db3d 4ebe b190 e53d 8403 4e3e 34b7 e13d
000003a0: 30fe cb3d cd3b 55bb c800 67be 7a31 70bb
000003b0: 3f5a a73c e4dd 93bc 9f4a c4bd e912 2fbe
000003c0: dbd6 073e 2264 d9bd 38aa 23be 41ae 893c
000003d0: 2097 063e 9195 483e e48b 3c3d 0b8b 7bbd
000003e0: d37b de3a 984e 443e 1c67 e2bd 7b7a f8bd
000003f0: 17ad b8bb 7124 b03c a361 703e 76d2 c6bc
0.073357016 -0.0013954438 -0.12253748 -0.08614315 0.011108331 0.11045193 0.24473032 -0.05543449
0.025426513 -0.008236115 -0.1333234 -0.05158669 -0.13588177 0.016917668 0.09851874 -0.10557745
0.17134601 0.27684483 0.23807406 -0.043899775 -0.15878558 0.035217915 -0.11416012 0.197423
0.28662872 -0.13816898 -0.057970583 -0.17475182 0.0126591595 0.049186684 -0.048186798 -0.15085143
0.087003134 0.2002957 -0.10718265 0.0048848875 0.03582856 -0.13805155 0.13966261 0.07290758
0.031114463 -0.02493657 0.26600042 0.070173696 0.21423642 -0.12085046 0.035567597 0.19917761
0.2086681 -0.006901943 0.1452642 0.11066998 -0.077357456 0.07702638 0.20748802 0.12264301
-0.23080036 -0.0958431 0.15841994 0.25667104 0.045870736 0.16934966 -0.087050006 -0.17741066
-0.027098328 0.10054995 0.19334756 -0.21712653 -0.051189188 -0.0662854 0.13943794 -0.16723485
-0.13612095 0.1257855 -0.090588965 0.005812672 -0.0722965 -0.006614735 0.19537811 -0.023421587
-0.09776997 -0.040616874 -0.026690865 0.15181567 -0.06832286 0.1752274 -0.044448555 0.21679556
-0.10393217 -0.063582204 0.15710196 -0.12675129 -0.0458116 0.039022416 0.25971732 -0.020575153
0.22408094 0.11210032 -0.07388564 0.1026239 -0.14076823 0.2299881 0.20936993 0.19987506
0.09922038 -0.1067313 -0.11786945 0.10985119 -0.017402025 -0.025070392 0.064767346 0.21402362
0.13159725 0.22940654 0.22902496 -0.15360606 0.036354143 0.23867323 0.08403376 0.16704226
-0.030708155 0.11364252 -0.06345156 0.16570683 0.24448244 0.03814487 0.1781318 -0.19021863
0.1136515 -0.048331358 0.02706892 0.062527284 0.18437018 -0.16227977 -0.014489474 -0.108411245
0.26109636 0.016844224 -0.17935643 0.15932739 -0.13182046 0.010865945 0.14264487 0.15743533
0.06384031 0.013980341 -0.03980135 0.18549673 -0.19566406 -0.05742753 -0.0046862224 0.061128583
0.07737879 -0.18970115 0.1642504 0.17143835 0.21917531 -0.0010153092 -0.03785911 -0.1154351
-0.1724719 0.16482869 -0.17335585 -0.033212934 -0.110263765 0.0019142951 -0.20304114 0.19854864
0.04607489 0.008101443 0.08607701 -0.060996015 -0.10910559 0.12751684 0.106658414 -0.021818599
0.13106976 0.095945396 -0.2805941 -0.20460552 0.13123822 -0.17208035 0.08999972 -0.028401537
0.04775263 -0.06734817 -0.108382866 -0.2820145 -0.062134158 -0.07215206 -0.1316207 0.09553285
0.08398272 -0.122224525 -0.19017577 0.15125692 0.08603232 -0.049718168 0.116142385 -0.050311755
-0.012336814 0.09407124 -0.07351462 -0.14465082 -0.043165777 0.0077834944 -0.032176446 0.04676488
0.02166171 -0.06532533 0.15383476 0.16023433 0.027981864 -0.082418345 0.15650304 -0.09107114
0.0442646 0.026142586 0.21478793 -0.12403134 0.040080387 -0.118676975 0.16873732 -0.23922977
0.1197062 -0.04931472 0.10382496 0.16052903 -0.20140783 0.11209238 0.20118529 0.11021271
0.09960592 -0.0032536865 -0.22558892 -0.0036650584 0.020428775 -0.018050142 -0.09584545 -0.17097057
0.13265555 -0.10614802 -0.15982902 0.016806724 0.13143587 0.19588305 0.046031848 -0.0614119
0.0016974158 0.19170606 -0.11054823 -0.12132736 -0.0056358683 0.021501752 0.23474745 -0.024270277

conv3.bias f4 [128]
00000000: 30db e735 0b2d 0ab5 7b2e a437 ba0f c935
00000010: 5e8c d134 0d6b 72b5 d1c6 4635 58fb 3136
00000020: cbc3 9cb6 81fb e736 a79d 1238 8c0f 57b5
00000030: c86f 0eb6 62ca 8d35 c6d7 0337 5ab0 dab4
00000040: a438 6037 4d4f c435 ffd8 72b7 99ac 61b7
00000050: a1c7 96b7 d66a 99b6 57e2 ed36 fe2c 06b6
00000060: 26e0 e7b7 6c25 ceb6 d35a 68b7 5f9a 3db6
00000070: 9e92 50b6 f84b 24b7 19ef 92b6 5e02 0f36
00000080: 276b b436 ada0 80b7 d3c6 c835 a162 ceb7
00000090: db7b db35 13d0 0636 0214 8935 6251 03b7
000000a0: 19a6 0135 be29 fb35 9ee0 c2b7 9218 bd37
000000b0: 6298 85b7 014c 8c37 cb76 0cb6 59d2 8eb6
000000c0: 6229 9c36 89ab 1237 1e09 98b6 c71e b333
000000d0: 496d 8737 68ba a136 27f2 d535 d567 1c37
000000e0: 5bdc 21b5 f336 feb5 d07b b435 7420 3d37
000000f0: 3674 f435 be83 c4b6 b3a5 67b5 eea8 8736
00000100: a34d 96b6 acbe c9b6 891e 2235 72ce b6b5
00000110: 2561 3eb6 6b17 b735 13bf edb6 2b50 3cb6
00000120: bfe6 80b6 7476 94b4 b25e 9db6 4a0c 79b7
00000130: 6bd2 84b5 ab7b 0cb7 c7e0 4538 72f8 6935
00000140: b055 49b6 2cdd ecb6 a724 2bb6 297e 8035
00000150: d0e8 2db7 8d51 5937 2071 b734 5e5d 9435
00000160: 5d63 72b4 d20f 16b6 d2ca 3cb6 1d37 9337
00000170: 15d7 abb6 43ea 0938 692c 1437 3be3 a234
00000180: c40d ebb6 92a8 be36 26da 3a35 194b 3c36
00000190: f717 04b8 abe1 7b37 dca5 bdb7 2785 3fb6
000001a0: eafa 69b7 1134 da35 29cd 6237 5f07 aa35
000001b0: 41f3 bb35 f257 07b7 4e75 c036 dd2d e9b6
000001c0: 2ad1 c836 b11b 9435 4691 e9b6 e0a6 0335
000001d0: 9c2a b935 c68f 4e37 24f2 7636 4838 56b6
000001e0: 9479 87b7 bca7 9236 583a 96b8 6fb9 de36
000001f0: e90c 9b36 ed3b 0a37 a503 fa37 0361 6c32
1.7274633e-06 -5.147455e-07 1.9571968e-05 1.4980244e-06 3.9031414e-07 -9.0307805e-07 7.4050064e-07 2.6521357e-06
-4.6719556e-06 6.9136154e-06 3.4955938e-05 -8.0116365e-07 -2.1224714e-06 1.056422e-06 7.858447e-06 -4.0733977e-07
1.3364628e-05 1.4626218e-06 -1.4474847e-05 -1.3451231e-05 -1.7974353e-05 -4.5721927e-06 7.0895e-06 -1.9993745e-06
-2.7641723e-05 -6.143635e-06 -1.3849424e-05 -2.825305e-06 -3.1079758e-06 -9.79285e-06 -4.3789737e-06 2.1310038e-06
5.376892e-06 -1.533361e-05 1.4959027e-06 -2.4603041e-05 1.6352818e-06 2.008867e-06 1.0213118e-06 -7.827157e-06
4.829795e-07 1.8713106e-06 -2.3231198e-05 2.2541997e-05 -1.5925794e-05 1.6724693e-05 -2.0930772e-06 -4.2564175e-06
4.65398e-06 8.742217e-06 -4.5310144e-06 8.3409354e-08 1.6144144e-05 4.8198744e-06 1.5940212e-06 9.3225e-06
-6.0297833e-07 -1.8940467e-06 1.3447079e-06 1.1272834e-05 1.8213238e-06 -5.856592e-06 -8.629533e-07 4.0429795e-06
-4.4793865e-06 -6.012464e-06 6.039414e-07 -1.362014e-06 -2.8368752e-06 1.3641378e-06 -7.0853944e-06 -2.8060847e-06
-3.8415596e-06 -2.7653334e-07 -4.6899886e-06 -1.4844418e-05 -9.896006e-07 -8.373444e-06 4.71778e-05 8.71608e-07
-3.000121e-06 -7.059096e-06 -2.550232e-06 9.573461e-07 -1.0365809e-05 1.2953195e-05 3.4168716e-07 1.1054033e-06
-2.2574154e-07 -2.236095e-06 -2.813224e-06 1.754943e-05 -5.121236e-06 3.288152e-05 8.8318275e-06 3.0340183e-07
-7.0051483e-06 5.6820654e-06 6.960785e-07 2.8057896e-06 -3.149357e-05 1.5013308e-05 -2.260779e-05 -2.8538723e-06
-1.3946303e-05 1.6257419e-06 1.3518417e-05 1.2668132e-06 1.4003382e-06 -8.067103e-06 5.735702e-06 -6.9492803e-06
5.9848144e-06 1.1034919e-06 -6.960853e-06 4.904414e-07 1.3795975e-06 1.2312032e-05 3.67978e-06 -3.1921245e-06
-1.6149868e-05 4.370666e-06 -7.163425e-05 6.637703e-06 4.620863e-06 8.2393935e-06 2.980402e-05 1.3759066e-08

conv3.lin.weight f4 [128, 64]
00000000: c368 7abd 401a c7bd 1aee 44bc 0eb4 58be
00000010: 9a3e 893d 7d4a 6a3e 1313 2b3e 3dd1 d3bd
00000020: 2d93 7dbd 077c 36bd ce85 9bbd 25de 89bd
00000030: 1291 e33d bf9d 4c3e 1366 153a ca27 cabd
00000040: 3ddf aa3c ce1a fe3c 2254 a3bd 59d8 5fbd
00000050: 29c4 563d ab31 f3bd 2fd9 82ba 2190 cf3d
00000060: 2208 093d 18a0 09be b5b3 613c 95e5 79bd
00000070: bf73 febd 550f 50be 5fe1 bf3d f88a 3c3d
00000080: 2f2e 85bd 6676 e23c 7f60 c1bd e535 683d
00000090: 6b2c c83d b6f2 003d 6e6a 443e 30a4 71bb
000000a0: 5eef efbb db98 85bc 3bb8 0d3e 4d3e a33d
000000b0: 549d df3d 489a 483d 6ae7 f83c f431 0f3e
000000c0: 0e0e b93d 676e 59be 8bd5 f33b 5eab 043e
000000d0: c870 bf3d 3332 bb3d 31e4 893d 0d20 2bbd
000000e0: 391f 003c 5332 1dbd e537 a13c ffe2 d7bd
000000f0: 4394 2dbc be7f 0ebe 8d1f 523e bd86 913d
00000100: c792 07be 13e9 20be 47ef 803d b72d 51bd
00000110: 98bb 353d 4afa 99bc 9786 06be 89fd 053e
00000120: 4787 9cbd 8557 43ba c8bc 35be befb a03c
00000130: fde7 0abb a64e e93c 6521 9dbd 055d d83d
00000140: e359 d83c 8c60 a9bd b7b6 eebd e93b 2dbe
00000150: bc2f 103e edd8 81bd 58cd 01be 299c 9c3d
00000160: efcb 4fbc 51d3 f63d dc22 b8bd 934f eebd
00000170: ee36 ce3c e660 a03c ef36 8a3d 262e a5bd
00000180: 7857 263c da27 b03c f5a6 213e 4b01 e7bd
00000190: 6912 e53d f1a5 bd3d 28ab bebd a6ca 073e
000001a0: 26f2 a53d 0913 7d3d 9ec1 74bd 766d 2dbd
000001b0: f667 84bd 19c4 24be ea70 05be 4885 0abe
000001c0: f05f d03c d8f3 133e 649d cd3b 8444 2ebd
000001d0: 82b0 fb3d 60f5 e33d ce5a dfbd 5601 e33d
000001e0: b864 3abe ac7c 023c e0f6 2dbe 5cb9 07be
000001f0: bd83 743d 61d4 b3bc b6af 223e 3adf e33c
00000200: e8ba fe3d 6c8d de3c c1bb 1c3e 2d8d 66bd
00000210: bdf8 61bd ed2d 2b3e c1d9 2b3e 8b23 0bbd
00000220: 0a5f 763d 66a9 2d3e 63bb 4b39 c158 47bd
00000230: 9efd 7ebd c301 073e 1092 3d3e 8365 373e
00000240: 35eb 99bd a24d 2a3e 9da5 d3bd 5ee4 98bd
00000250: c913 c63c e5ed 733a b171 bebd 98b4 ea3d
00000260: 8c2d 01be a7fa 263d 1f52 e43d 2569 0e3c
00000270: 7869 f7bd 194f 81bb 8541 fa3d 6e3f 52bd
00000280: c264 4b3e 6a3b 9b3c 974a 633d c208 133e
00000290: 15a5 913c 2b7d a6bb b370 f03d f9be a23d
000002a0: 7f13 bf3d 90b2 983b a57d 373e e485 da3d
000002b0: 9a63 943e f9b8 1e3e dcd7 90bd 073a 763d
000002c0: 9714 293e eb95 bbbd 32df 8a3d c621 113d
000002d0: 647c 3fbd 8d4d a63d 9210 56ba 7eae 053e
000002e0: fdcd 0abe f3aa 86bd e815 22be 2b83 073d
000002f0: 2a4b 303e b470 a03d 04f1 a03c 7036 af3d
00000300: 0997 ccbd 336d 46bc d43d 34bd a9c2 0ebd
00000310: 735d c23c dbd8 073e 938f b03d 0a87 9b3d
00000320: 8579 d43d 8b6b 4ebd f337 00be 3866 32be
00000330: b1f8 4ebd 7657 5abc 9821 e7bd 48ee f2bd
00000340: c551 9d3d 3afa bb3d 1d20 77bd 6b60 8e3d
00000350: d60a 903d 6852 5ebd b6e7 2abe 3c00 9b3c
00000360: 03ec 5dbd 170e 24be 0adb 6e3d 3d9e a4bd
00000370: 1eb2 a43d 8486 cd3d cf4f 44be bb94 20be
00000380: 0e6c b63d 24c2 a83d 023d 083d 1018 b3bd
00000390: 8e05 153e 7967 67be 7f7b a03d 8293 203e
000003a0: 49d5 7b3c b587 24be ee44 ffbd 4484 923d
000003b0: 24d7 143e 3adb 4ebc 5743 24be 39af 34be
000003c0: 9128 0ebe e2fe 043d 71d6 90bc 182f 2ebc
000003d0: 4f29 163e 1e11 133d bc4c c83d 9eb7 0a3d
000003e0: 23d9 35bd dd5f cbbd ab96 4dbe cbe7 28be
000003f0: d76e 1d3e 8cfc 80bd a4f8 b8bd ff12 29be
-0.061135065 -0.09721804 -0.012019658 -0.21162435 0.067013934 0.22879978 0.16706495 -0.103426434
-0.061907936 -0.044551875 -0.075938806 -0.06731824 0.11111654 0.1998205 0.0005699109 -0.098708704
0.020858401 0.03101864 -0.079750314 -0.054649685 0.052433167 -0.11874708 -0.0009982939 0.10134912
0.03345502 -0.13439977 0.013775756 -0.061009962 -0.124244206 -0.20318349 0.09369158 0.04603097
-0.065029494 0.027644347 -0.09442233 0.056692023 0.09774097 0.031481467 0.19181225 -0.0036871545
-0.007322236 -0.016308239 0.1383981 0.07970867 0.1091868 0.04897526 0.030383784 0.139839
0.09035884 -0.21233521 0.007441228 0.12955996 0.09347683 0.09140434 0.06732977 -0.041778613
0.007819944 -0.03837807 0.019679973 -0.10541343 -0.01059443 -0.13915917 0.20519848 0.071057774
-0.13239585 -0.15713911 0.062956385 -0.051068988 0.044368356 -0.018796105 -0.1313728 0.13084997
-0.076429896 -0.0007451701 -0.17747796 0.01965129 -0.0021195405 0.028479885 -0.07672385 0.10564617
0.026410049 -0.08270368 -0.11655944 -0.16917385 0.14080709 -0.063402034 -0.12675989 0.07646973
-0.012682899 0.12052024 -0.08991024 -0.11636271 0.025172677 0.019577455 0.06748759 -0.08065443
0.01015269 0.021503378 0.15786345 -0.112795435 0.11185152 0.092601664 -0.09309989 0.13260898
0.08102827 0.06178573 -0.05975496 -0.04234072 -0.064651415 -0.1609043 -0.13031355 -0.13527405
0.025436372 0.14448488 0.006274866 -0.04254581 0.122895256 0.11130786 -0.109059915 0.11084239
-0.18202484 0.007964294 -0.16988707 -0.13254303 0.059695948 -0.021951856 0.15887341 0.027816404
0.12437993 0.027167045 0.15305997 -0.05628698 -0.055168856 0.16716738 0.16782285 -0.033969443
0.06014923 0.16959152 0.00019429396 -0.048668627 -0.062253587 0.13184266 0.1851275 0.17909817
-0.07515565 0.16631177 -0.103343226 -0.074654326 0.024179356 0.00093051634 -0.09299029 0.11460227
-0.12615031 0.040766384 0.11148476 0.008692061 -0.120806634 -0.0039461968 0.12219528 -0.051330023
0.19862655 0.01894923 0.055491056 0.1435881 0.017778913 -0.005080839 0.11740246 0.079465814
0.093298905 0.004659958 0.17919023 0.10670069 0.2898224 0.15500249 -0.07072422 0.060113933
0.1651176 -0.09159454 0.067808524 0.0354326 -0.046749488 0.081202604 -0.00081659213 0.13054845
-0.13555141 -0.06575575 -0.15828669 0.033084076 0.17216173 0.078339964 0.019646175 0.08555305
-0.09989745 -0.012110996 -0.044004276 -0.03485361 0.0237262 0.13266318 0.086211346 0.07594116
0.103747405 -0.05039553 -0.12521343 -0.17421806 -0.05053014 -0.013326516 -0.112857044 -0.11861855
0.07681612 0.09178586 -0.06033336 0.06951984 0.07033317 -0.054277807 -0.16689953 0.01892101
-0.054180156 -0.16021 0.05831436 -0.08037994 0.08041786 0.100354224 -0.1917107 -0.15681736
0.089073285 0.082401544 0.033261307 -0.08744824 0.145529 -0.22598065 0.07836055 0.1568127
0.015370675 -0.16067393 -0.12464319 0.07154134 0.14535195 -0.01262551 -0.16041313 -0.17644967
-0.13882662 0.032469638 -0.017680379 -0.010631345 0.14664195 0.035904996 0.09780261 0.033866517
-0.04439653 -0.09930394 -0.20077007 -0.16494672 0.15374313 -0.062981695 -0.090317994 -0.16511153

conv4.bias f4 [256]
00000000: 0ebb 1d3c 2ee8 60bd 647c 2f3d 5260 49bd
00000010: 2deb 693d 7d7a a6bd 1131 9ebd bdab a8bd
00000020: e8b0 a53c fe11 a5bd 98d4 223d 7089 d5bc
00000030: df5a 03be ea5d 6f3b df32 86bd b84b 05bc
00000040: 086e 7bbd bf32 98bc 035a 1dbe 8f9a 36bd
00000050: 05eb 7cbd 4d67 26be bfff 953c a6f9 1ebd
00000060: 4bfe b2bd e6c0 b7bc 2dd0 32bd a10f debd
00000070: ff16 a6bc dc0e a5bc 7b65 1a3d 404b 7bbc
00000080: dd8c 5f3d a3c1 63bd d172 5e3d 1966 9abd
00000090: aeb6 3f3d c21b c3bb d3c3 933b 57b0 50bc
000000a0: 5966 52bd 0f0a 81bb 9b52 cb3d 9c5f a6bd
000000b0: b61d c6bc a7d0 90bc 5f29 a7bd 770a 03bd
000000c0: 7f84 6ebd b7eb 04be 5607 fd3d cd60 a73c
000000d0: 040c 57bd 40de ebbc 8d1d bfbc 37c2 11be
000000e0: a96b 90bd b3c3 043d 61fc cabd f5e6 9f3c
000000f0: b18d f1bd cd93 b8bd c592 adbd 0d1a 993c
00000100: 275b 9dbc fc7d 4ebd ca88 833d 6664 d3bc
00000110: 5322 8fbd 316e 753d 355a e4bc 198b c1bd
00000120: 0929 8fbd 11b0 98bd ff3e 883c bfcd 51bd
00000130: 54ec 003c 3ba5 08be b11d a03d f76b 5a3d
00000140: 0208 2a3c d6b3 fcbd e713 3dbc a709 673d
00000150: aec0 a2bd 8ab4 ddbd dd71 033d 911e 0bbd
00000160: ffe9 96bd 7ecc 493c 1a37 86bc 8d55 c1bd
00000170: ae01 5c3d dc62 45bd 860c 613c 6fe9 673c
00000180: 51d9 4c3b b947 9e3c 109f 063d f735 0abb
00000190: 85be dd3c ab8f 003d 195a e2bd 9ba0 0ebe
000001a0: f3f2 633d c636 dcbd a20d 4d3c 3718 ecbc
000001b0: 611e f4bc 9c01 60bd a018 51bc 5845 ccbc
000001c0: e8e6 ca3d ffd5 fdbb 5cff 7f3d 3ebc 81bd
000001d0: b31d 51bd fcde 8abd 7aa5 5c3c 7695 a4bc
000001e0: e815 02bd 1824 583d 6082 2cbd b643 b53d
000001f0: 3cb8 feba 9225 863d 7f2c fcbd 4f15 66bd
00000200: 7472 f9bb 1a4e 023e 217d 43bd 5024 a83d
00000210: a1ce 6b3d e9bd aebd 17d7 89bd 3645 1e3d
00000220: 1dad 49bd 544d 1d3d f98e 233d bb8b c5bd
00000230: 66e9 b4bc 7dbf 87bd 1a74 a0bd 9221 01be
00000240: 01e5 0ebd 4f57 dbbd 6fb5 8dbc ebfd 77bd
00000250: 15d0 2cbd c571 65bd 2296 10be 6d93 503c
00000260: 45ab 013e 391f 49bc 4f16 1fbd 07c0 bebc
00000270: ad37 f83c 98a8 52bd 99fd 72bd 95f3 02be
00000280: 5589 1bbd 1c26 25bb 4046 27bd c608 8abd
00000290: d09f 5f3d 464b 353d d293 adbd b902 ffbc
000002a0: 3cfe 03be 1a96 7cbd a99a 8d3c 1699 62bd
000002b0: 4694 103d 14e4 213b 82c6 42bd 76b9 0bbd
000002c0: b06d 35bd 2373 c3bb cbf5 19be cd62 ce3c
000002d0: 03d9 d93d 9c50 97bd 700a 1bbd 282f 8ebd
000002e0: d179 a8bd e5b0 643d cc65 0abe e025 59bd
000002f0: f336 b6bd f145 9cbc 231d daba 0130 69bd
00000300: 425d 44bd cf08 55bd 01d7 16be 81f6 5b3d
00000310: fb1c 91bc 1e6c d73c a005 5cbd 8716 f4bc
00000320: e28a 3dbe c3d5 f3bc 6804 033d 84b3 443d
00000330: aae0 44bd f6c4 50bb e1d8 683d 55fe 5fbd
00000340: 63d4 0abd 83f3 103e 209e fa3c c4b0 13be
00000350: 6c3e 5e3c c273 953c a4c0 ed3c 5944 13ba
00000360: bc77 0fbd d701 613b ad47 1cbd 4f7a 6ebd
00000370: e056 aebd a14f 1fbe 2795 b6bd 4d73 d0bd
00000380: cceb 463c f55f 67bd eada 7bbc 36bf d3bd
00000390: cd2a 62bd b895 a4bd da0f a3bc 362a 6ebc
000003a0: 5253 36bd bcfa 07be bf09 35bc 3893 403d
000003b0: 059d 2d3d 71f9 56bc 4d81 8cbd a953 59bd
000003c0: d36f 873d ea3f 6b3b bc9c ac3c 5ef9 c73d
000003d0: e844 5d3d 2aae 4ebd 985e aabd 51ae 90bc
000003e0: 1f8d b5bd 09ab 02be 203d d6bc ab53 453d
000003f0: fdec b8bd 9ddd c43a 4db9 c5bd a4bd d33c
0.009627117 -0.054908924 0.042843238 -0.049164124 0.057109047 -0.081288315 -0.077242024 -0.082358815
0.020225957 -0.08060072 0.039753526 -0.026066512 -0.12827633 0.0036524483 -0.06552672 -0.008135729
-0.06138423 -0.018578885 -0.15366368 -0.044580992 -0.06174757 -0.16250344 0.018310426 -0.038812302
-0.08739909 -0.022430848 -0.043655563 -0.10842825 -0.020274637 -0.020148687 0.037694436 -0.015337765
0.054577697 -0.05560459 0.054308716 -0.07539005 0.046805076 -0.0059542367 0.004509428 -0.012737355
-0.051367138 -0.0039379667 0.09927865 -0.08123705 -0.02418409 -0.017677618 -0.08162188 -0.031992402
-0.058231827 -0.12980543 0.12354915 0.0204319 -0.052501693 -0.0287925 -0.02332952 -0.14234243
-0.070517845 0.032413196 -0.09911419 0.019519309 -0.117946036 -0.09012566 -0.0847526 0.01868918
-0.019208504 -0.050413117 0.06422575 -0.02580471 -0.06988969 0.05991954 -0.027875045 -0.09450359
-0.06990249 -0.07455457 0.016631601 -0.051221605 0.007868845 -0.1334428 0.07818163 0.05332562
0.010377886 -0.123389885 -0.01154039 0.05640569 -0.07946907 -0.10825451 0.03209101 -0.033964697
-0.0736885 0.012316821 -0.016383696 -0.09440146 0.05371254 -0.048189983 0.013735896 0.014154776
0.003125746 0.01932131 0.032866538 -0.0021089294 0.027068386 0.031387012 -0.11052341 -0.13928454
0.055651616 -0.10752635 0.012515457 -0.02882014 -0.029799642 -0.054689035 -0.012762219 -0.02493541
0.09907323 -0.0077464576 0.06249939 -0.063347325 -0.051053714 -0.06780812 0.013467187 -0.0200908
-0.031759173 0.052768797 -0.042116523 0.088508055 -0.0019433568 0.06550135 -0.123131745 -0.056172665
-0.007612521 0.12725106 -0.047726754 0.08210051 0.057570104 -0.08532316 -0.06730478 0.038640223
-0.04923736 0.038403824 0.03993127 -0.09645792 -0.02208395 -0.0662832 -0.078346446 -0.12610462
-0.034886364 -0.10710012 -0.017298428 -0.06054489 -0.04219063 -0.056016702 -0.14119771 0.012730462
0.1266299 -0.0122755105 -0.038839635 -0.023284925 0.030299986 -0.051430315 -0.05932388 -0.12788232
-0.037972767 -0.0025199717 -0.04083848 -0.06739955 0.05459577 0.04426124 -0.0847546 -0.031129228
-0.12889951 -0.061666586 0.017285662 -0.055321775 0.035297655 0.0024702596 -0.047552593 -0.034112416
-0.04429406 -0.005964653 -0.15035169 0.025193596 0.10637095 -0.07388422 -0.03785175 -0.06942588
-0.0822636 0.055832762 -0.13515395 -0.053014636 -0.088971995 -0.01907632 -0.0016640763 -0.056930546
-0.0479405 -0.052010354 -0.14730455 0.05370188 -0.017714014 0.026296671 -0.053716302 -0.029795898
-0.18510011 -0.029765015 0.031986624 0.048022762 -0.04806582 -0.003185568 0.056847457 -0.05468591
-0.033893954 0.14155392 0.030592978 -0.144229 0.013564687 0.018243674 0.029022522 -0.00056177896
-0.035026297 0.0034333372 -0.038154293 -0.05822211 -0.08512664 -0.1555772 -0.08915167 -0.10178242
0.012141179 -0.056487996 -0.015372017 -0.10339205 -0.0552166 -0.08036369 -0.01990502 -0.014536431
-0.044513054 -0.13279241 -0.011049687 0.0470154 0.042386074 -0.013120995 -0.068606 -0.0530583
0.06613126 0.003589625 0.02107083 0.0976436 0.054020792 -0.050459065 -0.083188236 -0.017661246
-0.08864807 -0.12760557 -0.026152194 0.048175495 -0.09029577 0.0015019659 -0.09654484 0.025847264

conv4.lin.weight f4 [256, 128]
00000000: 8203 8ebc 93df 0ebd 2d74 a23d b6e9 8b3d
00000010: f103 8d3d b3b6 f0bd 2d89 2dbe d24c f5bd
00000020: 26d9 1cbe 0e7d 223d 9af1 553d 2c47 1ebd
00000030: 46e3 d5bd c711 af3d c888 cd3d b092 483a
00000040: b10d 94bd 399b 33bc 7389 b6bd c52c 803a
00000050: f7cb 8bbd 3b97 efbc 1f6d 0dbe 54a8 5b3d
00000060: fc00 d1bd f63a d3bd 905c 863d a392 78bd
00000070: b1b0 c53d eb78 473d 21db 8aba c0fa 78bd
00000080: 1433 653d 3910 0cbe a3e4 a1bd 2761 59bd
00000090: 5b60 c7bd f979 a2bd 6285 b3bd 9945 eebd
000000a0: 2692 30be 71e0 a33d 03c8 f4bc 097c 8a3b
000000b0: 1e86 373d 6db9 00bd 44ab 343d cf7c 233d
000000c0: ad91 3b3d 4896 14bd 000f 213d bbdc c5bc
000000d0: 0ec9 25be 6a04 9dbd 13ca ac3d 08b4 c8bd
000000e0: a82d 88bd 75bd aabd ee6d f6bc f287 f1bd
000000f0: eb45 20bd e65c 9cbd 75d2 7cbc 13aa 843d
00000100: aa4d a43b 2d88 a03d a3ab 14bd 7b14 e0bd
00000110: f4f3 02bd 83c2 abbd e1d4 13be 43d3 9c3d
00000120: bd31 933d 1d1a fbbd 4133 0cbe 180c 483b
00000130: a12c 893d 6a43 183d 74d1 8fbc abcc 19be
00000140: ee93 c53c a16e d6bd ab14 4c3d e205 8d3d
00000150: b897 59bc 816d 3a3d d069 eabc 0c0b e0bd
00000160: 5ba9 513d bbf5 76bd 3228 cbbd 88fd 01be
00000170: 9631 8bbd 00fe 943d bebc 0cbe 6e4e 94bd
00000180: c6c3 753c a46c c4bc bf49 e5bd 2247 36bd
00000190: c6a5 623d 24db e33d 6110 063d 26e4 d13d
000001a0: 51f3 44bd 9f70 debd be15 973a ca25 03be
000001b0: 89a3 44bd c63f adbd 3b9c 903d 29bc 8c3d
000001c0: 04a0 8e3d 6c54 8dbc 0c44 f0bd d066 ce3d
000001d0: 691f f3bd 7d76 c5ba 8148 10be 918e e13d
000001e0: f51e 5fbd 1a50 d93c a361 7e3d 3bad 3b3d
000001f0: 27f6 12be e1b8 e13d a18c e0bd 71a1 babd
00000200: 87a7 b83d c183 07be 6956 e3bd 8b2e 5a3c
00000210: 159e 0ebd 6d56 baba e8e3 8abd a7c8 61bc
00000220: a5e2 92bd 57df a9bd 8119 2bbe f7f1 c43d
00000230: da3c 133d 5790 30be 25ea 0e3d 9df4 7ebd
00000240: d4d0 4dbd 5256 6c3d c511 b0bd 1b5c 2abc
00000250: 061e eebd 20f8 c23c 041d 8abd 139b 793d
00000260: 9fe0 a53d 6ce1 453d a44e 27be 0943 f1bd
00000270: 6ab3 c33d dc79 c2bc 88bf acbd 2920 8dbd
00000280: 5c8a 09be f415 913c eaf6 383c add6 213b
00000290: 950b bfbd ba70 17be 810f 873d 2654 20be
000002a0: b412 c6bd c6d4 8d3d 3043 033d 7df7 543d
000002b0: 0ab9 91bd 4da7 763d dede bb3c 3660 c2bc
000002c0: e703 c73d e3e4 c23d 7d17 88bd b50d fe3d
000002d0: f356 4e3d 7789 53bd 068e 513d e4c6 f93c
000002e0: e708 e8bc 77ad 8ebd b947 06be c8eb 91bc
000002f0: 8722 6c3d 7311 cf3d 2cc2 8abd 1c47 9abd
00000300: df40 5cbc b161 113d cca8 b13d 50da fe3b
00000310: 9181 b2ba 0191 05be 66d4 abbd 6b01 dbbd
00000320: 8aba f7bd 362b 743d 2c61 46bd 8d0b 663d
00000330: 3f8d 41bd 7cb7 dfbc bad6 32be 75c8 533d
00000340: fb48 0fbe 632c ab3d 3fca aabd dc14 ec3c
00000350: 9a54 b7bc abfe aebd 654e d83d feed e43c
00000360: eee6 c3bd 9dad 953d 2312 d03c 6f41 90bd
00000370: a75b 00bc cd94 78bd 15e1 b8bd 3b4a d4bc
00000380: 818d 533c 5e92 333d 5d78 cabd db34 a03d
00000390: 68d4 1bbe 8893 753d f657 1ebe 514a a3bd
000003a0: 94dd 43bd 4fd3 07be 4cab 773d 5e29 723d
000003b0: 1e5d fd3c eefd a5ba db70 b3bd 6915 85bc
000003c0: 5cb0 babd 4f0f 283b 97f4 95bd d9be 89bc
000003d0: 5ee6 1d3d 596d 2f3d 92d3 0dbe 4125 7f39
000003e0: 40e9 223c 7dfe adbd 25dd 923c f2db 633b
000003f0: 657e 743a 4f07 8d3c e22a 92bd da69 5b3d
-0.017335657 -0.034881186 0.07932315 0.06831686 0.068855174 -0.11753597 -0.1694686 -0.11977543
-0.1531721 0.039670043 0.052232362 -0.038642094 -0.104437396 0.08548313 0.100358546 0.00076512527
-0.07229174 -0.010962301 -0.08912935 0.0009778967 -0.068260126 -0.029246917 -0.13811158 0.053627327
-0.10205266 -0.1031398 0.06560624 -0.06068672 0.09652842 0.0486993 -0.001059387 -0.06078601
0.055956915 -0.13678063 -0.07904937 -0.053071167 -0.09735175 -0.07933421 -0.08765675 -0.116343684
-0.17243251 0.08001793 -0.02988053 0.004226212 0.04480564 -0.031426836 0.044108644 0.03991395
0.045793224 -0.036276132 0.039320946 -0.024153104 -0.16189978 -0.076668575 0.0843698 -0.09799963
-0.06649333 -0.08336917 -0.030081715 -0.11793508 -0.03912918 -0.076349065 -0.015431036 0.064777516
0.005014141 0.078384735 -0.036296498 -0.10941406 -0.031970933 -0.083867095 -0.14436676 0.076574825
0.07187221 -0.1226084 -0.13691427 0.0030524787 0.066979654 0.037173666 -0.01755593 -0.15019481
0.02411839 -0.104703195 0.049824398 0.06885888 -0.0132808015 0.045514587 -0.028614908 -0.10939607
0.0511869 -0.06029294 -0.09919776 -0.12694371 -0.06796567 0.07275009 -0.13743874 -0.07241522
0.015000289 -0.023977585 -0.111957066 -0.04450143 0.055333875 0.11125782 0.032730464 0.10248594
-0.048083607 -0.108613245 0.0011526865 -0.12807384 -0.04800752 -0.084594294 0.070610486 0.06871826
0.06964114 -0.01725217 -0.11731729 0.10078204 -0.118712254 -0.001506522 -0.14090158 0.110135205
-0.054472882 0.026527453 0.062104832 0.045819502 -0.14351712 0.11021591 -0.10964323 -0.09112824
0.09016328 -0.13233854 -0.11100466 0.013316761 -0.034818728 -0.0014216431 -0.06781751 -0.013780749
-0.07172135 -0.08294552 -0.16708948 0.09616464 0.035946704 -0.17242561 0.034891266 -0.062245
-0.050247982 0.05769951 -0.08597139 -0.010397936 -0.1162682 0.023799956 -0.067438155 0.060938906
0.08099484 0.048310682 -0.16338593 -0.11780364 0.09555705 -0.023739748 -0.08434969 -0.068909
-0.13431686 0.017710663 0.011289338 0.0024694607 -0.09328381 -0.14789096 0.06594754 -0.156571
-0.09671536 0.06925349 0.032046497 0.051993836 -0.071153715 0.060218144 0.02293342 -0.023727518
0.09717541 0.09516313 -0.06645105 0.12404958 0.05037589 -0.05164477 0.051160835 0.030490346
-0.028324557 -0.069666795 -0.13113298 -0.017812625 0.057650115 0.1011075 -0.067753166 -0.07533094
-0.013443201 0.035493556 0.086747736 0.0077774897 -0.0013618936 -0.13043596 -0.08390121 -0.1069363
-0.120961264 0.05961152 -0.048432514 0.05616336 -0.047253843 -0.027309172 -0.17464724 0.051704843
-0.13992684 0.083580755 -0.08339357 0.02881854 -0.022379208 -0.08544668 0.105618276 0.027945515
-0.09565531 0.07308505 0.025399273 -0.070437305 -0.007834352 -0.060688782 -0.09027306 -0.025914302
0.012912155 0.04384076 -0.09886239 0.078225814 -0.15217745 0.05995515 -0.15463242 -0.07973159
-0.047818735 -0.13264202 0.060466096 0.059121482 0.03092819 -0.0012664178 -0.0876176 -0.01624556
-0.09115669 0.002564389 -0.073220424 -0.016814636 0.038549773 0.04282889 -0.13850239 0.00024332573
0.009943306 -0.084958054 0.017927716 0.0034768549 0.00093266956 0.0172154 -0.071370855 0.053567745

conv5.bias f4 [256]
00000000: 5560 8034 0fa4 2f34 1f9f 0f34 6f3b 3c34
00000010: 551d a8b5 1555 bfb5 c2cf db34 b796 c3b4
00000020: 95fe 48b4 b874 8234 27e2 1bb5 fede 7f34
00000030: 4be0 5ab3 d00d 68b4 919e c634 dee4 74b4
00000040: f221 e6b4 203d 5e35 9b7f 86b5 b236 2233
00000050: 95ae 8c34 db76 6ab5 0318 0335 83b6 32b6
00000060: d48b 2b33 9e0f 31b5 26cf a8b5 4eb0 9fb4
00000070: b8e2 09b5 4b35 a734 9de2 f8b3 1cc3 eab4
00000080: b184 d134 c216 0b35 a26e 9135 af3c 2bb5
00000090: 98c4 80b5 e260 3534 6aa3 4734 7a93 c133
000000a0: 405e 9631 b4ea 78b5 f417 8bb5 5920 0636
000000b0: 7448 0b34 94e5 8c35 e29b 9fb4 d32f 9b35
000000c0: f687 f834 766d 4d33 80cf dbb5 fbcb 7fb3
000000d0: 3044 35b5 9339 84b3 97b4 adb4 7e36 17b4
000000e0: d16f 3733 64c4 eb34 5845 26b5 e412 8d35
000000f0: 86ac 06b6 b423 94b4 e56b 23b5 75f6 52b4
00000100: b5ac bf35 cbb3 1534 bded 67b3 71de 80b5
00000110: d5cf ecb3 c4fa 3bb6 1545 e435 24b3 9eb2
00000120: 0a2a 6135 e0fb a634 02a0 21b5 908d 8f34
00000130: 9b43 2b35 8c8e a9b4 91da aeb0 a9c7 87b4
00000140: 62b9 6634 c06e ab34 12fe 3b34 9d38 27b4
00000150: 107c 1a35 7dd0 f834 6e89 6d35 7532 4db4
00000160: e96a b235 2df4 1735 65ae 8bb2 ab99 bab4
00000170: 0691 23b2 8c93 44b3 3e32 99b4 4559 d934
00000180: cb29 b4b4 6b00 3035 4ed8 5836 a7b5 a434
00000190: e13b 7835 6dc4 44b5 c7c2 9235 ff4b 56b5
000001a0: 3546 4fb5 b16e 2334 69c7 ad34 d801 56b5
000001b0: 8a2d 0234 7946 24b5 6344 f5b3 3971 1935
000001c0: 09fb f435 0c80 1934 dd76 a8b5 b1cd e833
000001d0: edf5 b133 0b53 98b3 45a9 a935 b2a1 8c30
000001e0: 60ef ee35 2951 5134 241e 4235 7d50 d4b4
000001f0: 0982 93b4 ed8a 9eb4 3965 4d35 417a 54b5
00000200: 4f2f 2db5 35a7 d1b4 3713 bc34 040e 5a34
00000210: b220 74b4 b981 ccb4 3c31 9e34 fb39 b7b4
00000220: e6e7 d7b4 8d46 c3b4 4400 27b3 c5e8 b9b4
00000230: e3e3 aa34 9a5d 4d34 ce34 8c34 8dee 0d35
00000240: bf3e 9c35 823b 05b5 e180 ba30 3cc5 4035
00000250: e521 91b5 cc80 d334 b6ac 1c34 dc3c db34
00000260: b999 b231 e12a 99b4 eaa8 8c35 9b96 3ab5
00000270: 2b9e 1f35 4523 8eb5 95a7 cab4 34ea 1f34
00000280: e555 0b36 acea eab5 346e c433 8c28 42b5
00000290: e33f 3c34 e714 1634 4527 9fb4 2c93 7532
000002a0: b0f6 82b5 19d2 12b5 f1c5 d1b4 082a 4433
000002b0: 02b5 4bb5 b035 6f34 2381 9bb4 ea2d 1233
000002c0: 8502 aeb4 6a4b a4b5 b963 1eb4 b269 4934
000002d0: d1f1 5333 f47c cd34 f23a 6634 c276 8335
000002e0: 0473 13b4 af7a fa33 6c8d 1d34 1b44 4634
000002f0: 072d 28b5 c545 2034 33df 3db5 1a07 2db5
00000300: d4b5 0c35 84af bf35 73ee 8c34 3f73 4db3
00000310: ea4b 6a35 079b 1535 3668 2eb4 5186 7e33
00000320: 5e25 e135 10ff 2d34 f052 4935 2850 9934
00000330: 7faa a633 c4a2 a0b4 99f9 aab5 34ae a434
00000340: 4504 0f34 49f3 3934 786d 2035 6d96 bfb4
00000350: 355c e7b5 0117 1334 06f5 2b35 8e15 67b5
00000360: 3c74 33b4 8570 46b4 ac81 8035 53c6 feb3
00000370: cfef a433 1394 3534 a3e5 a5b3 2bff 0633
00000380: 9ddc ae35 9689 29b4 c4a8 bab5 654f 8734
00000390: e33f a8b4 9c97 7db5 bd30 5e36 50d1 1a36
000003a0: b38b 7234 10f6 e834 993d 01b3 417f aa35
000003b0: 7ebb 18b5 00e3 9a35 ec51 7435 741f 0a35
000003c0: 8415 fbb5 d407 9f34 ae89 68b5 89aa 1a35
000003d0: 5b5b dbb4 3e90 04b5 aa8b d6b2 fae8 7c34
000003e0: f857 c834 fda7 9a35 6099 ba34 87b8 0ab4
000003f0: d04b 33b5 ee52 80b6 2c77 e334 cced 1e35
2.391195e-07 1.6357829e-07 1.3375801e-07 1.7530486e-07 -1.2525512e-06 -1.4255371e-06 4.0943092e-07 -3.643124e-07
-1.8719068e-07 2.429931e-07 -5.8071095e-07 2.382985e-07 -5.0961074e-08 -2.1611709e-07 3.6995746e-07 -2.2807532e-07
-4.2865537e-07 8.2790393e-07 -1.0020916e-06 3.776831e-08 2.6204057e-07 -8.734475e-07 4.8836245e-07 -2.6630303e-06
3.9941213e-08 -6.5960364e-07 -1.2577264e-06 -2.9744336e-07 -5.1366396e-07 3.114495e-07 -1.15896206e-07 -4.3727857e-07
3.902583e-07 5.181465e-07 1.083554e-06 -6.379077e-07 -9.59396e-07 1.6892184e-07 1.8592769e-07 9.014089e-08
4.3762896e-09 -9.272874e-07 -1.0363278e-06 1.9986385e-06 1.2971742e-07 1.0497629e-06 -2.9729478e-07 1.1562319e-06
4.6292524e-07 4.7829836e-08 -1.6377162e-06 -5.9557333e-08 -6.752698e-07 -6.157202e-08 -3.2355157e-07 -1.4082795e-07
4.2709704e-08 4.3915054e-07 -6.194073e-07 1.0510817e-06 -2.0067978e-06 -2.7593126e-07 -6.087924e-07 -1.9647435e-07
1.4280873e-06 1.3942115e-07 -5.40001e-08 -9.601482e-07 -1.1027411e-07 -2.8011136e-06 1.7007429e-06 -1.8475085e-08
8.3880207e-07 3.1103173e-07 -6.0210016e-07 2.6738826e-07 6.3800843e-07 -3.158242e-07 -1.2722287e-09 -2.529098e-07
2.1487861e-07 3.1931813e-07 1.7508162e-07 -1.5573683e-07 5.7550005e-07 4.6345295e-07 8.8489367e-07 -1.9110469e-07
1.3293148e-06 5.6607206e-07 -1.6261035e-08 -3.4757008e-07 -9.520823e-09 -4.5769e-08 -2.8535027e-07 4.0484352e-07
-3.355802e-07 6.556572e-07 3.2312414e-06 3.067955e-07 9.2474335e-07 -7.3301527e-07 1.0934535e-06 -7.98318e-07
-7.7215674e-07 1.5220827e-07 3.236885e-07 -7.9723895e-07 1.212376e-07 -6.119731e-07 -1.1421141e-07 5.71617e-07
1.8252478e-06 1.4295819e-07 -1.2551569e-06 1.0840757e-07 8.2869384e-08 -7.093157e-08 1.2640745e-06 1.0232297e-09
1.7802049e-06 1.9494168e-07 7.231449e-07 -3.954664e-07 -2.7475497e-07 -2.9530875e-07 7.651575e-07 -7.915406e-07
-6.4516365e-07 -3.9050943e-07 3.503171e-07 2.0307931e-07 -2.2736165e-07 -3.8092347e-07 2.9465616e-07 -3.4128593e-07
-4.02156e-07 -3.6372913e-07 -3.888296e-08 -3.4628297e-07 3.1830777e-07 1.9126165e-07 2.6115453e-07 5.287373e-07
1.1641167e-06 -4.9632956e-07 1.3569911e-09 7.181259e-07 -1.0813206e-06 3.9395525e-07 1.4591464e-07 4.083621e-07
5.197958e-09 -2.852967e-07 1.0479973e-06 -6.950956e-07 5.946228e-07 -1.0590089e-06 -3.7747364e-07 1.4893232e-07
2.0762611e-06 -1.7502657e-06 9.147007e-08 -7.2329635e-07 1.7532106e-07 1.3977443e-07 -2.964463e-07 1.429434e-08
-9.75755e-07 -5.469497e-07 -3.9073305e-07 4.5673033e-08 -7.5886794e-07 2.2278141e-07 -2.896496e-07 3.4035033e-08
-3.241186e-07 -1.22409e-06 -1.4751176e-07 1.8758035e-07 4.9347197e-08 3.827514e-07 2.1441863e-07 9.794824e-07
-1.3732284e-07 1.1663848e-07 1.4673213e-07 1.8464964e-07 -6.26504e-07 1.4926543e-07 -7.0732784e-07 -6.4457856e-07
5.241866e-07 1.4281691e-06 2.6250527e-07 -4.7835098e-08 8.728226e-07 5.573242e-07 -1.6242925e-07 5.9261144e-08
1.6774682e-06 1.6204672e-07 7.4999025e-07 2.8556792e-07 7.7609904e-08 -2.992075e-07 -1.273863e-06 3.067413e-07
1.3319466e-07 1.7317974e-07 5.976394e-07 -3.5685972e-07 -1.7237677e-06 1.369881e-07 6.405902e-07 -8.608557e-07
-1.671296e-07 -1.8481121e-07 9.574483e-07 -1.1863872e-07 7.680466e-08 1.6910808e-07 -7.725182e-08 3.143138e-08
1.3028217e-06 -1.5789405e-07 -1.3907197e-06 2.5203477e-07 -3.1338922e-07 -9.4470465e-07 3.3108947e-06 2.3069624e-06
2.2588829e-07 4.3392401e-07 -3.0091176e-08 1.2703023e-06 -5.689725e-07 1.153996e-06 9.1016295e-07 5.1454776e-07
-1.8707219e-06 2.9621754e-07 -8.6627085e-07 5.761763e-07 -4.08584e-07 -4.938373e-07 -2.497639e-08 2.3554085e-07
3.731691e-07 1.1522785e-06 3.4756795e-07 -1.2919382e-07 -6.679302e-07 -3.8243516e-06 4.2368754e-07 5.9205627e-07

conv5.lin.weight f4 [256, 256]
00000000: 05c6 883d 1bbc 503d 308c 00bd 841f c83d
00000010: 3eed 443d 4331 3dbd b735 0bbd 65dc 88bd
00000020: 5279 2d3d 54ce c23d b755 0bbc 365f 11bc
00000030: 6c5a 8f3b e141 e2bd 91d4 21bd f160 19be
00000040: 4d46 9cbd d59b bb3d a308 a43d 4656 903d
00000050: e147 77bd 2ffe f1bd fd7d 253e 7238 a7bc
00000060: 9a6e abbd bb79 22bd 32a3 cd3d 7b0a 98bd
00000070: e8d6 1ebd 1854 babb c5b0 eebd 1328 46bd
00000080: faec 213d 1f11 e83d 4f36 493d bf4f ff3b
00000090: f95a 0bbe d40a 343d d79d 013e 5cbf a03d
000000a0: 9509 58bc 2527 86bd c2c2 12bd e63d be3b
000000b0: 799e 073e 96a3 163d 6772 893d 0271 89bd
000000c0: 4f08 d03d 31f1 87bd 7220 0a3d 5f22 833c
000000d0: 1a76 8d3c 4f52 89bb e684 d3bd c697 863d
000000e0: 278f d83d 4c53 8abd 387f 653d 8b7b 58bb
000000f0: f76c 3d3b 327f b1bd 81d5 dcbc 268d d0bc
00000100: 7d80 00be faaf 6bbc 83d6 f63b bbb5 8fbd
00000110: 90d3 1a3d d1c5 e0bd df64 95bc fe4e 4abd
00000120: e037 e33d ea67 02be b5dd e33d 4f1e 01be
00000130: 2279 83bd d1ee 10be 4c5e a5bd 9271 b7bd
00000140: 6643 0b3d ab04 82bd 3eee d43b 00a2 0f3e
00000150: b75d 0d3d ebc2 753d 819f 093e 6401 ed3d
00000160: 4824 97bd 4552 a83c aca5 a4bb 5b6a ba3d
00000170: cc52 7fbd ee73 af3d 51bd bc3c d9be e9bd
00000180: 05a4 a0bb f10f fabc 2d13 a33d 8e12 e23d
00000190: 461e 8bbd f177 8fbd b034 b23d 05c0 b33c
000001a0: 11ef d13d 5dd2 bbbc b92f 73bd c5ac a2bd
000001b0: 3a1c 033e d6a9 313d 214b a73c 6e26 f63d
000001c0: e320 553d 6250 29bd a769 3ebd 4209 1e3d
000001d0: c8bb 5f3d 8e0a 89bd 3f50 d9bd 6cf7 aa3d
000001e0: 02c1 6c3b 6f01 e7bd c7a2 e0bd 86c8 27bd
000001f0: 41ba a73b 9804 093d 5b8c 0fbd d34f 30bd
00000200: 56da fc3d 35d6 71bd 512d b63d a9fc b6bd
00000210: 0ff4 0cbe 474a 813d a68b df3d 8a2c 43bd
00000220: 3dda 68bd 66b5 e43c 8277 88bd 3357 683c
00000230: 554d 47bd cd48 31bc f479 1cbd c502 49bd
00000240: 7a1d b73d c40e 5439 1edd 2cbd 0b38 1bbd
00000250: 0013 49bd b136 473d d9e9 853d 6a08 d93c
00000260: 9197 bc3c e585 0ebc ba19 a3bc dea2 2cbd
00000270: 0adb 803c 6ad5 4f3d fe8f 6ebc d400 eebc
00000280: 6363 0fbd bc73 043e f332 d5bd bf9f 8a3d
00000290: 507f 4e3d 6882 1dbd 75a0 c33d 6910 59bd
000002a0: 3f70 053d 1384 a93c 8772 d5bd de69 dfbc
000002b0: 7344 2e3c 64d4 2fbc 807a 1d3b ee2d 56bd
000002c0: dee4 d6bd e16c 7ebc ac45 97bd 74c6 a03d
000002d0: c767 20bc 72fb debd 4f9f 823d 1f84 61bc
000002e0: 9f3b 263d 4c33 acbd 433f 093d 593d 833c
000002f0: 8c7c 943c 1705 e5bd 303a f33c 5487 d9bd
00000300: 014d cdbc 1592 603d 7903 4dbd 7f47 51bc
00000310: ada0 e73c b9b6 813d e5c0 93bd ca54 453c
00000320: edfb ef3c b234 c53d ae34 b33d dbd7 4b3c
00000330: 72ab bf3c ae24 513d 25ae c8bd 4573 b13d
00000340: b7b5 65bd f651 4e3c 3a4d 873c 6183 0a3c
00000350: f347 6c3d dc6c 3f3d 0bac 22be 0670 f3bd
00000360: fb34 de3b 2377 91bc c9ca 9ebc f91c ab3c
00000370: ead3 c83c 6f39 043d ea2c d5bd f94a 89bc
00000380: 92dc 1bbe 2520 d53c 4004 113d 6a27 eb3d
00000390: 8934 8f3d fdbf ba3d 347a cc3d 00df 53bb
000003a0: d4c1 403e ed28 b83d e789 88bc 8f5c fa3d
000003b0: 9802 95bd 0f1e c2bd 597c 21be 004f 9ebd
000003c0: 8e4a 1a3e e470 f9bd 3ab9 fcbd 36fc 0b3e
000003d0: fb7b c73d 0bad 06bd d7be 503d 48fb 953d
000003e0: 1869 95bd 67f7 93bd be62 5f3c f2c8 57bb
000003f0: 1c64 7fbd 0e57 ea3d 7b2f 683d da8e 4dbd
0.06678394 0.05096064 -0.031383693 0.09771636 0.048077814 -0.046189558 -0.033986773 -0.06682662
0.04235203 0.0951201 -0.008504323 -0.008872798 0.004374793 -0.11047722 -0.03950936 -0.14978386
-0.07630596 0.09160582 0.0800946 0.07047705 -0.060371283 -0.1181606 0.16161342 -0.020412657
-0.08370705 -0.039666872 0.10040893 -0.07423874 -0.03877917 -0.0056862943 -0.1165481 -0.04837806
0.03953264 0.113313906 0.04912406 0.007791489 -0.13608922 0.04395564 0.12657867 0.07848999
-0.013185878 -0.06550435 -0.035830267 0.0058057187 0.13244046 0.0367771 0.06711274 -0.06711008
0.10157835 -0.066378005 0.03372235 0.0160076 0.01726823 -0.00419072 -0.10328083 0.06571917
0.10574179 -0.06754169 0.05602953 -0.0033032622 0.002890406 -0.08666839 -0.026957275 -0.02545793
-0.12549014 -0.014385218 0.007532896 -0.07017084 0.037799418 -0.109752305 -0.018236576 -0.04939174
0.11094642 -0.12734953 0.11126272 -0.12609218 -0.064195886 -0.14153601 -0.08074626 -0.08957209
0.033999823 -0.063485466 0.0064981272 0.14026642 0.0345132 0.06000034 0.13439752 0.11572531
-0.07379967 0.020547042 -0.0050246324 0.09102317 -0.06233482 0.08567034 0.023039492 -0.114133544
-0.004902365 -0.03052518 0.07962642 0.11038695 -0.067928836 -0.07005299 0.087014556 0.021942148
0.102506764 -0.022927457 -0.059371684 -0.079431094 0.12803736 0.04337486 0.020421566 0.12019049
0.052033316 -0.041336425 -0.046487477 0.038583048 0.05462244 -0.06691466 -0.10611009 0.08347973
0.0036125784 -0.1127957 -0.10968547 -0.04096272 0.0051186387 0.033451647 -0.035045963 -0.043044876
0.12346332 -0.059042174 0.08895362 -0.0893491 -0.13764976 0.063129954 0.10915308 -0.047649898
-0.056848753 0.027918529 -0.06663419 0.014180946 -0.048657734 -0.01082058 -0.03820224 -0.049074907
0.08941169 0.00020223396 -0.04220306 -0.037895244 -0.049090385 0.048636142 0.065387435 0.02649327
0.023021491 -0.008698915 -0.019909728 -0.04214751 0.015729446 0.050740637 -0.014560698 -0.02905313
-0.035006892 0.12934774 -0.104101084 0.067687504 0.050414383 -0.038454443 0.09552089 -0.052994166
0.03257775 0.02069286 -0.10422235 -0.027272161 0.010636437 -0.01073179 0.0024029315 -0.052289896
-0.10492872 -0.015528888 -0.07386336 0.07850352 -0.009790367 -0.10887803 0.06378042 -0.01376441
0.040584203 -0.084082216 0.033507597 0.016020464 0.018125795 -0.111826114 0.029690832 -0.10621515
-0.025061132 0.054826815 -0.05005214 -0.012773394 0.028274858 0.0633368 -0.07214526 0.012044141
0.029294932 0.096291915 0.08750282 0.012441601 0.023397181 0.05106037 -0.097988404 0.08664564
-0.0560815 0.012592783 0.016516317 0.008454175 0.057685804 0.046734676 -0.15885942 -0.11886601
0.006781218 -0.017757004 -0.019383805 0.020887839 0.024515111 0.032281335 -0.10408957 -0.016759383
-0.1522086 0.026016304 0.035404444 0.11482127 0.06992442 0.0911865 0.09984246 -0.0032328963
0.1882394 0.08992181 -0.01666732 0.122246854 -0.07275885 -0.094783895 -0.15770091 -0.07729912
0.15067503 -0.12179735 -0.12340017 0.1367043 0.09740444 -0.03287987 0.05096325 0.07323319
-0.07295436 -0.072249226 0.013634382 -0.003292617 -0.06235133 0.114423856 0.056685906 -0.050185062
