model_weights/clean_split_0.pt (torch, 473446 bytes, 26 tensors)

conv1.bias f4 [64]
000000 f2 0b 65 38 8c 60 dd b5 bc 41 a0 38 13 cd 68 38
       5.460898e-05 -1.6493882e-06 7.6416385e-05 5.55041e-05
000010 cc 5d 52 38 3f 1c 25 37 d0 a5 96 38 0d c4 b6 36
       5.0155257e-05 9.841343e-06 7.183442e-05 5.446846e-06
000020 03 ca 48 37 a0 8a 6b 38 6b c2 b0 38 d4 32 57 37
       1.19679635e-05 5.615747e-05 8.428547e-05 1.2826833e-05
000030 de 4d 11 b6 2a 3f 74 b8 17 ab 65 38 b5 f3 81 38
       -2.1652008e-06 -5.823296e-05 5.4757194e-05 6.196593e-05
000040 35 cc 23 b8 0b a3 63 b7 75 f9 06 b7 81 0f 27 b8
       -3.905241e-05 -1.3568216e-05 -8.045104e-06 -3.9830342e-05
000050 68 ef 5e b7 22 c5 51 b7 a5 cf ae b8 0a b5 f1 37
       -1.3287972e-05 -1.2503269e-05 -8.335643e-05 2.8813742e-05
000060 6e c9 71 b8 fc bb 64 34 a3 41 c5 b7 b2 fd 47 b7
       -5.7646474e-05 2.1302543e-07 -2.3514795e-05 -1.1920392e-05
000070 57 e5 4a b7 da a3 82 37 82 41 8c 38 c6 28 e4 36
       -1.2093536e-05 1.5573507e-05 6.687922e-05 6.799676e-06
000080 3e 0a 83 b8 cd 21 85 38 e2 f7 fd b6 d9 c7 14 b8
       -6.2484745e-05 6.34823e-05 -7.568845e-06 -3.5472072e-05
000090 d3 0b 39 37 5c d6 ca b7 1a be 3d b8 cb 59 48 38
       1.1029612e-05 -2.4180095e-05 -4.5238157e-05 4.7767342e-05
0000a0 78 7e 9a 37 53 d9 da 37 da f7 d3 b6 ac dd f2 b6
       1.8417122e-05 2.6088825e-05 -6.3171437e-06 -7.237968e-06
0000b0 be 96 82 38 92 7c 5d 38 8b 0c 78 38 50 f7 6c 38
       6.226961e-05 5.280652e-05 5.913949e-05 5.6497112e-05
0000c0 7a 92 0b b9 e9 d9 c1 b5 ed 70 03 b8 6f 43 7d b7
       -0.0001331064 -1.4443041e-06 -3.1338004e-05 -1.5095676e-05
0000d0 b1 39 cc b7 dd 3e 40 37 2d 5a 43 38 50 c8 3a 38
       -2.434556e-05 1.1458728e-05 4.6575606e-05 4.453241e-05
0000e0 ce bc a4 38 a4 7e 7d b8 69 7c 77 b8 89 9c 73 b8
       7.855297e-05 -6.0437844e-05 -5.9005255e-05 -5.80815e-05
0000f0 27 9b 73 b8 b1 44 c5 b8 f2 3a b3 36 61 5e e0 37
       -5.808021e-05 -9.406487e-05 5.341478e-06 2.674683e-05

conv1.lin.weight f4 [64, 2]
000000 4a b6 2f be fe d4 02 be b7 4b fd bb 4a 95 55 3e
       -0.17159382 -0.12776563 -0.007729973 0.2085773
000010 39 5d 94 3d a5 1a 06 bd 9d f5 ef bd cd 43 d6 bc
       0.07244343 -0.032740254 -0.11716769 -0.026155377
000020 78 f8 7f bd 70 5b c5 bd f6 7b 9f 3e dd 6e 78 3d
       -0.062492818 -0.09636581 0.31149262 0.060652602
000030 7c e2 d1 bb 32 41 89 3e 5e 1c 1f be 3a 31 18 3e
       -0.006405173 0.26807553 -0.15538165 0.14862528
000040 a1 b0 cf 3d 3f d5 8a bd 47 13 fd 3d 42 67 ac 3d
       0.10141111 -0.06778955 0.123571925 0.08418132
000050 ab ab b4 bd ba 3b 00 3e 75 54 3a bd 52 6b 7e be
       -0.088218056 0.12522784 -0.0454907 -0.24845627
000060 85 77 9b bc 6e 86 f2 bd b8 c5 2e 3e 26 15 e5 3c
       -0.01897789 -0.11842047 0.17067611 0.027964186
000070 73 b5 dd bd c2 c7 0d be 41 55 78 3e 0b 93 3c 3e
       -0.10825624 -0.13845733 0.24251272 0.18415467
000080 bc 21 32 be eb dd 5b bd 39 fb 96 3d 1d e5 85 be
       -0.17395681 -0.053678434 0.07372136 -0.26151362
000090 39 c6 64 3d fe 4b 94 3e 1c 0b f2 bc b5 ce ae 3e
       0.055853102 0.28964227 -0.029546313 0.3414208
0000a0 2d e4 87 3e 8d 3c c8 3d 3e 3a b3 be a6 e7 41 bd
       0.26541272 0.09777174 -0.35005373 -0.047340058
0000b0 5f 54 11 be ee 8e 57 be f1 9e 49 3e ea ed 61 bd
       -0.14192341 -0.21050617 0.19689538 -0.055158533
0000c0 8c 9a 78 3e 19 f4 79 3d 3b c8 10 be 84 54 a2 bd
       0.24277705 0.061023805 -0.14138882 -0.07926276
0000d0 5b e3 70 3e 40 ed 81 3d bf 32 5d be 7a 8c 93 bd
       0.23524229 0.0634408 -0.2160139 -0.07204528
0000e0 8a cb 8d 3d ac 0f 91 be 56 56 2f 3c 66 2f e0 bd
       0.069235876 -0.2833227 0.010701736 -0.109465405
0000f0 d3 40 91 bd 35 06 98 be 8c b6 81 be 08 12 1f 3e
       -0.07092442 -0.29692236 -0.25334585 0.15534222
000100 ba 37 74 3e 10 bb 8d 3d 00 79 82 3e be bc 34 be
       0.23849383 0.06920445 0.2548294 -0.17650124
000110 fd 14 62 be f9 3a 68 3e b7 09 d4 3d b8 cb 5e 3e
       -0.22078319 0.22678746 0.103534155 0.217574
000120 08 b6 46 3d d7 c6 a7 3d 2e 9d 7b ba a9 8d db 3d
       0.048513442 0.081922226 -0.0009598312 0.10720379
000130 4d b7 81 3e 49 2f 0c 3e e0 af 67 be ee 99 ac 3e
       0.2533516 0.13689913 -0.22625685 0.3371119
000140 ce 50 9a be 90 82 75 3e d6 21 61 3e 5d f3 05 bd
       -0.30139774 0.23975587 0.21985564 -0.032702792
000150 47 3b 00 be a7 fb 85 be 16 4c 08 3e ea 4c 20 3e
       -0.12522613 -0.26168558 0.13310274 0.1565434
000160 c0 9c f8 bd e2 d1 86 3e fe ed 33 be ba 4e a9 3e
       -0.12139273 0.26332003 -0.17571256 0.33067876
000170 f0 44 9a 3e ac 10 c7 3d fa f3 18 bd 84 94 32 be
       0.3013072 0.09719977 -0.03734205 -0.17439467
000180 55 68 52 bb af 97 3c 3d ef 23 bc 3d fc c5 13 3d
       -0.0032105644 0.046043094 0.09186541 0.036077484
000190 7e ed 56 3e fd c2 4f 3d 64 2d 75 3e fc 44 8c 3b
       0.20989034 0.050723065 0.23943096 0.0042806845
0001a0 4c d0 00 be 0e 7e 8c 3e f3 f6 aa 3c 79 3b 4c 3e
       -0.12579459 0.27439922 0.020869708 0.19944562
0001b0 62 0e 80 3e 9c 65 a1 bd 3e d1 96 3d 64 fc f5 bd
       0.25010973 -0.078807086 0.073641285 -0.1201103
0001c0 58 1e 4a be 46 59 34 3e 19 e1 cf bd 22 b7 a3 3e
       -0.19738138 0.1761218 -0.10150356 0.31975657
0001d0 b8 02 8a 3e 5a c4 e9 3b be e9 80 3e e5 51 72 3d
       0.269552 0.0071340026 0.2517833 0.059160132
0001e0 3c 6a c3 bc 02 f6 a6 3e 42 04 bc bd 99 8a a5 be
       -0.023854367 0.32609564 -0.091804996 -0.32332304
0001f0 1e be 08 3e 32 b1 57 be f0 b5 72 be fe 25 49 3e
       0.13353774 -0.21063688 -0.23702216 0.19643399

conv2.bias f4 [64]
000000 20 c8 45 bd 18 04 04 3c 29 41 5b bd 9d 4d 8a bd
       -0.048286557 0.008057617 -0.05352894 -0.06753085
000010 d6 62 08 bd e8 eb b3 bb 48 e6 e6 bc cf d3 df bc
       -0.033297382 -0.0054907687 -0.028185979 -0.027322678
000020 d7 92 6a 3a eb 6b 2d 3d 79 76 31 bc 57 df 95 bc
       0.00089482724 0.042339247 -0.010831469 -0.018294973
000030 f5 7f 92 bd 85 d0 e4 bc 9a 93 a6 bd 41 66 e7 bb
       -0.07153312 -0.027931461 -0.081336215 -0.00706175
000040 25 88 0e 3c 2a 82 9e bd 61 fd 5c bd c8 b4 28 3c
       0.008699452 -0.077396706 -0.05395258 0.010297008
000050 0c bc 88 bd 30 79 7c bd a4 c5 fe bb 60 69 12 3d
       -0.06676492 -0.06163901 -0.0077750254 0.035745025
000060 77 62 dc ba 97 7e a3 3b 9f 9e 90 bb e0 73 3f 3d
       -0.0016814013 0.004989456 -0.0044134404 0.046741366
000070 01 a5 ed 3c 4b 5e 4f bc fc 42 d4 bd e2 c6 ca 3b
       0.029009344 -0.012656759 -0.10364339 0.0061882595
000080 69 9c f8 bc 71 d7 20 3d 7e 05 95 bd 58 10 89 3a
       -0.03034802 0.03926796 -0.07276438 0.0010457141
000090 f7 54 b9 3d a0 97 de bd 9d a5 40 bd 05 12 5a 3d
       0.09049409 -0.10868764 -0.04703294 0.05323984
0000a0 03 ab 1b bc ec d4 df bc 04 e0 5b 3c 60 21 8c 3d
       -0.009501222 -0.027323209 0.013420109 0.06842303
0000b0 2d 2e ea bd d6 70 1c bc 99 29 0a bd a0 f5 01 be
       -0.114345886 -0.009548387 -0.033731077 -0.12691355
0000c0 f1 49 9c 3a 1e 5e 3d 3d 03 74 ad 3d 05 2b c6 bd
       0.0011923892 0.046232335 0.08469393 -0.09676174
0000d0 52 45 97 3d 1b f1 3c 3d 33 a8 7e bd b5 17 e8 39
       0.07386269 0.046128374 -0.062172126 0.0004426815
0000e0 34 de d2 3c 43 36 5b bd 46 39 98 3c 0f ee 5d bc
       0.02574072 -0.053518545 0.018581998 -0.013545527
0000f0 c1 d5 33 bb e9 af 52 3b 6f 88 55 3d 7d 6b 8a bd
       -0.002744064 0.0032148308 0.052132066 -0.06758783

conv2.lin.weight f4 [64, 64]
000000 78 e7 02 bc 94 20 f5 bd 2d 71 d0 bd 22 af 02 be
       -0.007989757 -0.119691044 -0.101778366 -0.1276212
000010 81 e1 a2 bd 22 05 25 3e cd 5b 00 3e 07 aa 38 be
       -0.07953168 0.1611524 0.12535019 -0.1803361
000020 2a 1e 12 bc 6c 9a f6 3b 0f d1 3a be 80 9b 16 be
       -0.0089183245 0.0075257327 -0.18243812 -0.14707756
000030 3f 2f 39 be 9b a8 54 3d df d9 ab ba 94 03 b1 bd
       -0.18084429 0.051918607 -0.0013111195 -0.086432606
000040 c6 e1 c6 3d b5 0a 46 3e 92 8e 22 3e 23 fb 29 be
       0.097110316 0.19340022 0.15874699 -0.16599707
000050 4e e6 d7 bd 13 3d 08 bc 27 f2 55 be 40 4d 68 3e
       -0.10541974 -0.0083153425 -0.20893155 0.22685719
000060 51 67 8f 3e 22 97 67 be d3 db b7 bc 21 e8 7f be
       0.28008512 -0.22616246 -0.022443688 -0.24990894
000070 06 b5 95 bd 2a ac e9 bc 40 64 1b be f0 35 5a be
       -0.07309918 -0.028524477 -0.15174961 -0.21309638
000080 17 0b 03 3e 5d 01 1c 3e 8e 68 3d be b6 c3 83 bb
       0.12797199 0.15234895 -0.18496916 -0.0040211333
000090 33 e5 19 bd 81 27 37 be 56 2c 22 3e 98 62 96 bc
       -0.037572097 -0.17886163 0.15837225 -0.01835756
0000a0 a8 53 d8 bc 50 b0 ff 3b 87 8b 22 3e 6d 94 30 3d
       -0.026407078 0.0078030005 0.15873538 0.0431103
0000b0 f7 00 c7 3d c1 bf 77 be 86 b5 9d 3d ce 84 ca 3d
       0.09716981 -0.24194242 0.077006385 0.09888612
0000c0 e8 2a ed 3d 82 5e ea bc 91 03 2d 3e a5 db 2a 3e
       0.11580449 -0.028609518 0.16895892 0.1668535
0000d0 39 aa 4a be c9 d1 f5 bc 09 b5 47 3e 8d 6f 2d 3d
       -0.19791497 -0.03000726 0.19502653 0.04234271
0000e0 24 52 9a be a2 18 5e be 63 ba 5e 3e c7 95 8a 3e
       -0.30140793 -0.21689084 0.21750788 0.27067396
0000f0 63 48 62 bd 9c f8 88 3d 79 3f 1d be 26 3b 69 be
       -0.055244815 0.066880435 -0.15356244 -0.2277647
000100 e3 24 05 bc b2 a5 82 ba c6 15 81 3e 0c eb 60 be
       -0.00812647 -0.0009967594 0.25211924 -0.21964663
000110 6a 3b 04 bd 02 6b 8d bd ac fc 9f 3d b5 30 72 be
       -0.032283224 -0.06905176 0.07811865 -0.23651393
000120 cd de 00 be 82 80 c6 3d ed 4e 19 be a7 1d 8b 3c
       -0.12584992 0.0969248 -0.14971514 0.016981913
000130 85 d1 b3 bc 8b ab 6c 3d 8e 88 4d 3e 8c 83 53 bd
       -0.021950493 0.057780784 0.20071623 -0.051639125
000140 f0 21 bb bd 3c 8c 0a bd 82 dd ca bd d5 2b 95 3d
       -0.091373324 -0.033825144 -0.099055305 0.07283751
000150 74 59 e8 bc c0 ac 09 3e c1 6c f4 bc 32 18 a3 3e
       -0.028362967 0.13444805 -0.029837014 0.31854397
000160 c9 af ba bd 80 ce 64 bd c2 6c 17 3e 01 d3 b1 bd
       -0.091155596 -0.055860996 0.14787582 -0.08682824
000170 3a 15 1b bd 31 89 50 3d be 9c 86 3e 93 8f 7a bd
       -0.03786204 0.050912086 0.2629146 -0.06117208
000180 f8 d9 60 3e 9a c9 16 3e 15 4d 03 be 0c a6 72 3d
       0.21958148 0.14725342 -0.12822373 0.059240386
000190 c4 90 56 be b5 d6 60 3e 50 aa 31 3e a5 d4 f3 3d
       -0.20953661 0.21956904 0.17350125 0.11905793
0001a0 95 75 42 3d 39 04 17 bd 81 57 f2 bd c0 18 6b 3d
       0.047475416 -0.03686926 -0.11833096 0.05739665
0001b0 b0 44 d6 bd 32 16 e7 bd ef c4 de 3d 24 f9 5c 3e
       -0.1046232 -0.1128353 0.10877406 0.21579415
0001c0 0a 5c b3 3a b0 c5 57 3e c6 11 91 3e e0 ba 6d bd
       0.0013684046 0.21071506 0.28333873 -0.058039546
0001d0 01 14 50 bd 98 a1 1d 3e 53 f3 2e 3e 6f 03 34 3e
       -0.050800327 0.15393674 0.17085008 0.17579435
0001e0 d0 8f b8 bd 4d bf 00 3d 41 76 dc 3c 88 9e 5c 3e
       -0.09011805 0.03143244 0.026911857 0.2154485
0001f0 6f 69 23 3e 8e e8 3d 3d cd 00 38 3e 80 56 75 be
       0.15958188 0.04636436 0.17969055 -0.23958778
000200 97 fd c2 3d b9 43 a1 3c 40 1b 12 3e 3b 07 9e 3d
       0.09521025 0.019685613 0.14268208 0.07716223
000210 02 cb 48 3e 0c ab 01 bc 32 72 c4 3d 6a 97 42 bd
       0.19608691 -0.007914316 0.095920935 -0.04750768
000220 77 c4 8a 3e f1 c5 06 3e fd 81 4c be d9 40 2f 3e
       0.27103016 0.13161446 -0.19971462 0.17114581
000230 7d 1e 96 bd 13 62 4a 3e fd fa d5 3d bc bc 8e 3e
       -0.07330034 0.19763975 0.10448263 0.27878368
000240 3c 71 5c 3d e2 ff 42 3d 49 b8 7c 3d 30 81 80 3e
       0.053818926 0.04760731 0.061699186 0.25098562
000250 8e 91 5f bc 82 97 88 bd 54 77 8f bc 7d 96 20 3e
       -0.013645543 -0.06669523 -0.017512955 0.15682407
000260 f1 f0 88 3e 37 87 51 be 4f 4e 9f 3e ef be 29 3e
       0.26746324 -0.20461737 0.31114432 0.16576742
000270 1c 02 80 3e ab d7 58 bc 98 ee 91 bd 77 3c f4 bd
       0.2500161 -0.013235013 -0.07125586 -0.11925595
000280 55 b5 c9 bc e4 a6 46 3e 68 b8 37 be 35 55 a5 3d
       -0.024622599 0.19399601 -0.17941439 0.080728926
000290 ee 89 94 bd 3b 30 46 3e 6c f8 bd bd be 33 5d 3e
       -0.072528705 0.19354336 -0.09275898 0.2160177
0002a0 e3 9f 7e 3d 84 8a 56 3e 37 c5 5a 3d f4 6a f6 3c
       0.0621642 0.20951277 0.053410735 0.030080296
0002b0 3b 75 7a bd cd 3d 1d 3e 0c 46 9b 3e 58 c6 30 bd
       -0.061146956 0.15355606 0.3032688 -0.043157905
0002c0 ce ba 31 3e fe c4 4d 3e 46 2b e7 bd 74 9f 7d bd
       0.17356417 0.20094678 -0.11287551 -0.061919644
0002d0 b5 cc 26 3e c2 31 c9 bd 2f e1 14 3e db f5 90 bc
       0.16289027 -0.09823944 0.14539026 -0.017695358
0002e0 1f 17 92 3d 99 d4 ac bc 81 0d b2 3d 5d e2 de bd
       0.07133316 -0.021097468 0.08693982 -0.10883019
0002f0 67 d2 dc 3c fe f8 ca bd 2b f6 f0 bd 22 49 be 3d
       0.026955796 -0.09910773 -0.11765703 0.09291293
000300 a3 73 e0 3c 10 f1 66 be a0 4f 87 bd 47 13 d6 3d
       0.02739889 -0.22552896 -0.06606984 0.104528956
000310 47 80 42 3d e6 ab ec 3c 4d 7a 87 3d 08 63 2a be
       0.047485616 0.028890561 0.06615124 -0.1663934
000320 fd 3b 43 3d 20 f2 0c 3e 69 b0 fb bd 54 64 35 be
       0.04766463 0.13764238 -0.12289507 -0.17714053
000330 ed 5a fd bd 56 43 e6 3d bb 28 00 be 81 f5 ec 3d
       -0.12370858 0.11243312 -0.12515537 0.11570264
000340 e7 28 f9 bc 74 19 b3 bd 46 a7 00 3e fb 91 82 3d
       -0.030415012 -0.08745089 0.1256381 0.063755
000350 ff aa 12 3e 40 e4 03 be df fb b7 3d 0c 47 bb 3d
       0.14323042 -0.12880039 0.089835875 0.091444105
000360 a6 68 de 3d c1 a3 52 bd 7f 6c 99 3e fa 21 3a be
       0.10859804 -0.0514257 0.29965588 -0.18177024
000370 0d 09 a4 3c 76 09 02 be d3 66 b2 3d 40 f3 95 be
       0.020023847 -0.12698922 0.087110184 -0.29287148
000380 93 e0 49 3e 73 9a 2f 3d f0 43 4e 3d a8 74 4d 3e
       0.19714575 0.042871904 0.05035776 0.20064032
000390 ff 85 8f be ac 05 d1 3d 77 4e 84 3e 6b c0 4a 3d
       -0.28031918 0.1020616 0.25841114 0.04949991
0003a0 3d 01 2b 3d 44 c5 f9 3d f9 b1 99 be 49 a1 b0 3c
       0.041749228 0.121958286 -0.30018595 0.021561282
0003b0 e0 34 aa bd b1 cb cc bd 26 19 c4 38 02 e1 62 be
       -0.08310866 -0.099997886 9.3506926e-05 -0.22156146
0003c0 35 8a 1d 3d 8f 71 79 bd 4a d6 a8 bd 8e ea 29 3e
       0.038461883 -0.060899314 -0.082439974 0.16593382
0003d0 ce 59 85 3d 9a f9 db 3d fc 38 45 3e d5 03 53 bd
       0.065112695 0.10740967 0.19260019 -0.051517326
0003e0 e5 e4 68 bd 62 34 ce 3d 7a 65 95 3c 4e d3 62 bd
       -0.056858916 0.10068585 0.018236864 -0.055377297
0003f0 4b 8a ae bd 7f 25 56 bd 00 0f 74 3e be 0b 9a bd
       -0.08522471 -0.052281853 0.23833847 -0.07521771

conv3.bias f4 [128]
000000 bb 7a d4 b7 37 78 c3 b8 a8 a7 85 37 e2 dc d9 b8
       -2.532952e-05 -9.320716e-05 1.5932907e-05 -0.00010388509
000010 d4 7d 6a b7 68 df cf b8 b2 69 b2 38 50 fe a0 38
       -1.39767835e-05 -9.912142e-05 8.507389e-05 7.676764e-05
000020 fe eb 67 37 c0 4d 52 b8 1c 48 79 38 7d 7b e3 b8
       1.3823619e-05 -5.0140312e-05 5.9433383e-05 -0.00010847205
000030 0c f3 f2 37 07 4f 9c 37 d3 fc 4d b8 fb 89 d8 b7
       2.8961826e-05 1.863345e-05 -4.911127e-05 -2.5813459e-05
000040 f4 79 a2 b8 98 45 8b 38 10 90 05 37 bf 29 b2 b8
       -7.7474775e-05 6.640999e-05 7.96096e-06 -8.495477e-05
000050 90 df bf b8 99 95 ab b8 c6 a2 af 38 d7 ba 05 36
       -9.1492315e-05 -8.18178e-05 8.374969e-05 1.99273e-06
000060 ea a9 30 b8 81 99 e4 38 27 1b 87 b8 3e 01 58 b8
       -4.2119915e-05 0.000109004795 -6.442359e-05 -5.149957e-05
000070 ed 4b 07 b8 ad f2 84 b8 d7 64 86 b8 33 5c aa b8
       -3.225722e-05 -6.3394524e-05 -6.408401e-05 -8.123405e-05
000080 22 68 a4 38 d3 91 b6 b8 ee 65 af 38 77 b9 a3 38
       7.839526e-05 -8.705598e-05 8.363636e-05 7.806991e-05
000090 8d 71 c5 37 96 85 84 b8 95 9c 01 b8 65 07 8e 38
       2.3537106e-05 -6.319133e-05 -3.0901825e-05 6.772465e-05
0000a0 16 c5 9d b8 05 b9 77 b7 56 f5 79 b8 cd 70 bc b7
       -7.5230535e-05 -1.47654255e-05 -5.9594713e-05 -2.2463873e-05
0000b0 e8 a7 65 38 f7 13 ce b7 4a d2 8c b8 0c fe 77 b7
       5.475423e-05 -2.456641e-05 -6.7148896e-05 -1.4781497e-05
0000c0 42 0f e5 b5 96 5d 90 b5 1d b4 ea b8 c2 c3 61 36
       -1.706627e-06 -1.0756073e-06 -0.00011191538 3.3641559e-06
0000d0 75 90 4a 38 b3 86 43 38 67 77 67 b8 eb 50 b2 b8
       4.829509e-05 4.661707e-05 -5.5185894e-05 -8.5027736e-05
0000e0 8b 1d b0 b8 6f f6 9a b8 9f 0d 95 38 3d a4 4f 38
       -8.397837e-05 -7.389194e-05 7.107411e-05 4.9505605e-05
0000f0 88 d8 8c 38 57 67 4a b8 76 7e 2a 37 52 2e af 38
       6.716052e-05 -4.8256796e-05 1.0162234e-05 8.353278e-05
000100 85 b4 e1 b7 3d 2e 52 38 a8 84 92 38 56 0b 72 b8
       -2.6906151e-05 5.0110964e-05 6.986532e-05 -5.7707854e-05
000110 f4 2c a5 37 60 af 70 37 a1 76 38 b7 57 22 69 38
       1.9690466e-05 1.4345947e-05 -1.0994875e-05 5.558351e-05
000120 78 74 42 38 eb 7c ab 38 dd 3b 48 38 50 1f ad 38
       4.6361674e-05 8.177183e-05 4.7739468e-05 8.255115e-05
000130 c2 70 7c 38 c2 fa a9 36 7e 39 22 b9 8c 50 bc b8
       6.0186496e-05 5.0657845e-06 -0.00015470941 -8.9795416e-05
000140 1a e4 49 b8 0d 67 d4 b8 b8 fd b9 b7 12 2a af 38
       -4.813457e-05 -0.000101281425 -2.2171866e-05 8.3524865e-05
000150 a0 b2 98 38 d1 33 92 38 b1 67 dc b8 6d 6f 8d 38
       7.281196e-05 6.971474e-05 -0.000105097315 6.7441586e-05
000160 6e ff 7c b7 da a0 9b b8 e8 92 9f 37 35 e0 ef 35
       -1.5079842e-05 -7.420937e-05 1.9022686e-05 1.787214e-06
000170 4c 84 14 38 27 15 b8 b8 f1 8b d1 38 62 ea a4 38
       3.540916e-05 -8.777744e-05 9.991963e-05 7.8637866e-05
000180 af 73 d0 38 95 75 90 38 97 50 4e 38 b2 ca 89 b8
       9.939761e-05 6.8883564e-05 4.9189282e-05 -6.570424e-05
000190 50 5d 9d 38 91 07 b2 37 28 89 17 b8 7f 00 5f b7
       7.503724e-05 2.1222777e-05 -3.6128942e-05 -1.3291951e-05
0001a0 8e b0 65 37 b4 14 26 b8 74 aa bf b8 17 9d 4f b8
       1.3690571e-05 -3.9596765e-05 -9.139339e-05 -4.9498947e-05
0001b0 00 e7 8f b8 7d ce ac 38 5d 76 ca b8 79 c9 71 b8
       -6.8617985e-05 8.2400606e-05 -9.6541575e-05 -5.7646514e-05
0001c0 97 5b 0d 39 43 2c da 37 03 05 b8 b8 1d bb 93 38
       0.00013480928 2.6008236e-05 -8.774737e-05 7.044359e-05
0001d0 4e 98 cc 35 18 b7 7a b8 eb 7a e1 b8 df c1 fa 37
       1.5243511e-06 -5.9775164e-05 -0.00010751731 2.98926e-05
0001e0 c6 90 9a b8 2d 85 43 b8 03 b1 4d b8 42 19 85 b8
       -7.3702584e-05 -4.6615653e-05 -4.9040664e-05 -6.346639e-05
0001f0 3f 39 87 b8 60 d2 b2 38 13 80 95 b8 cb bb 89 38
       -6.4479646e-05 8.526887e-05 -7.128729e-05 6.567648e-05

conv3.lin.weight f4 [128, 64]
000000 f2 93 93 bd 22 64 46 be e0 b1 e1 bd 20 d7 b2 bd
       -0.07205953 -0.19374135 -0.11020255 -0.08732438
000010 57 85 37 bc 8d 94 1c 3e eb 16 8f 3d 0a b3 14 be
       -0.011201224 0.15291043 0.06986793 -0.14521423
000020 de d0 08 be e5 07 04 bc ea dc 0e be 07 39 9b bc
       -0.13360927 -0.008058523 -0.1395146 -0.018948091
000030 b1 d6 8c 3d b7 8c ca 3d 47 49 89 bd c0 0a 4d be
       0.06876887 0.098901205 -0.0670343 -0.20023632
000040 c3 6e 6f 3d b5 48 e7 3d de 57 76 3c b7 5c fe bd
       0.05845524 0.11293165 0.015035598 -0.12420028
000050 52 51 9f bd 72 d8 c2 bb 2a 8e e7 bb d7 6c 45 3b
       -0.077791825 -0.0059462124 -0.007066508 0.0030124688
000060 51 97 af 3c f9 ca 76 be a0 d8 9b 3d 56 82 3e 3d
       0.021434458 -0.24100865 0.07609677 0.046511017
000070 54 6a 18 bd 1d 43 06 be 20 e2 24 3c 61 61 81 bc
       -0.037210777 -0.13111539 0.010063678 -0.015793504
000080 ea e4 ae bc e0 97 eb bd c2 b6 08 bd 0a 73 21 bd
       -0.02134939 -0.11503577 -0.033377416 -0.03941635
000090 a0 5e 02 3e ec 80 95 bd 93 fa f2 3d 86 05 42 3d
       0.12731409 -0.072999805 0.118641995 0.04736855
0000a0 96 74 13 3d 6c 26 30 be ba 54 30 3e 73 2c d7 3c
       0.035999857 -0.17202157 0.1721982 0.026266312
0000b0 30 ff dd 3d e9 cb d0 bc 9e 52 77 bc 0a 3e 0c 3d
       0.10839689 -0.025487857 -0.015095381 0.034238853
0000c0 e8 c6 cb 3c 80 05 ec bd f3 4d cd 3d 3f 4c 7e bd
       0.02487512 -0.115244865 0.10024633 -0.062084433
0000d0 a0 cb 20 3e 9e 2b 4f 3c 9e 03 b7 3d 27 08 da bc
       0.15702677 0.0126446765 0.08936237 -0.026615215
0000e0 48 92 8c bd 98 7a 40 be e4 d4 c4 3d 98 fc 42 be
       -0.068638384 -0.18796766 0.09610918 -0.1904167
0000f0 cf 26 16 be 6c e5 81 bd cb 75 0e 3e 27 24 4d 3b
       -0.14663242 -0.06342587 0.13912122 0.0031302066
000100 31 b4 cb bd b2 45 05 be 94 c3 0f 3e 14 73 c0 bd
       -0.09946478 -0.13014868 0.14039451 -0.093969494
000110 5a 51 b8 3d 8c 0f 71 bc 49 23 71 bd 82 9f 49 3e
       0.089998916 -0.014713179 -0.05887154 0.19689754
000120 26 f4 96 bd e6 ea 15 3d e1 e7 37 be 79 43 0e 3d
       -0.07370786 0.03660097 -0.17959549 0.034732316
000130 ff 6f 44 3d 30 c4 e6 3d c5 49 31 3d 74 b6 03 3e
       0.04795837 0.112678885 0.043283243 0.12862569
000140 3c 78 35 bd 8e 9f e6 bd 15 91 53 be c6 ea 96 bd
       -0.044304118 -0.112609014 -0.20660813 -0.07368998
000150 fd 9f 30 3e 62 e0 b0 bd 4c 14 a3 bc 0c ee f1 3d
       0.1724853 -0.086365476 -0.01990714 0.11812982
000160 81 e7 94 bc 83 fc 6f 3e c9 84 cd bd 2e 2e 2a be
       -0.018176796 0.2343617 -0.100350924 -0.16619179
000170 e4 a8 86 3d 40 53 84 3b 09 4c 77 3d 76 71 49 bd
       0.06575182 0.0040382445 0.060375247 -0.04918047
000180 24 54 d6 3d 4e 29 e9 3d 9a a5 39 3d 4a 58 90 bd
       0.10465267 0.11384831 0.045323946 -0.0704809
000190 f6 f1 dc 3d 15 02 5d 3e f5 60 6c bd b0 f7 18 3e
       0.10788338 0.21582825 -0.057709653 0.14938235
0001a0 9f ad 01 3e dc f0 32 3e 86 30 31 bd 7b a5 fe bc
       0.12663887 0.17474693 -0.043259166 -0.031084767
0001b0 8d 24 fe bb 20 d8 a9 bd c1 f1 60 bc 61 e4 0a bd
       -0.007755822 -0.08293176 -0.013729514 -0.033909205
0001c0 8a bb bb 3d 65 90 82 3d eb 5f 01 bd 4c 72 b6 bd
       0.091666296 0.06375197 -0.031585615 -0.08908519
0001d0 a2 eb 32 3e f9 3c 27 3e e1 b9 8e bd 1d bb 07 bc
       0.174727 0.16331853 -0.06969047 -0.008284357
0001e0 21 eb 0d be 15 d1 26 3e ab de 83 bd d0 68 68 bd
       -0.13859226 0.16290696 -0.06438955 -0.056740582
0001f0 bf 8b b7 3d 98 c0 b7 bd 85 12 06 3e d0 aa 03 3e
       0.08962201 -0.08972281 0.13093002 0.12858129
000200 b9 af 00 bd 61 56 15 3b 5e 64 db 3d 6d eb 8e bc
       -0.031417582 0.0022787082 0.10712503 -0.017446244
000210 8a f5 15 bd ff fd c4 3d f4 2e 82 3d 54 46 22 bd
       -0.036611117 0.096187584 0.06356612 -0.03961785
000220 d6 e1 09 bc d4 43 99 3e 05 b3 7b bd 0f c1 97 3d
       -0.00841566 0.2993456 -0.061450023 0.0740987
000230 dc 99 6b 3c 0d bb 01 3e 14 14 32 3e 0d 28 f5 3d
       0.014379945 0.1266901 0.17390472 0.1197053
000240 75 e7 98 bb 6e 56 f1 3d 79 b6 35 be 91 82 bf bc
       -0.0046662637 0.11784063 -0.17745389 -0.023377689
000250 fc 16 b5 bd 78 18 cf 3a 36 3e d0 3c 11 be dd 3d
       -0.088422745 0.0015800139 0.02542029 0.10827268
000260 6e 31 36 be 89 d6 bb 3c 49 b5 67 3e 46 22 9c 3d
       -0.17792293 0.022929447 0.22627749 0.07623725
000270 d1 09 26 bc aa f5 1b 3d 6b 30 d1 3d bf d8 f1 bd
       -0.010134176 0.03807608 0.10214313 -0.11808919
000280 19 79 85 3e 75 a2 1f bd d2 be cf 3d 63 1a 07 3e
       0.26068953 -0.03897329 0.10143818 0.1319366
000290 60 3e 2a 3d c3 77 bf 3d 6f d8 bb bc 4f 91 b4 3d
       0.04156339 0.093490146 -0.022930352 0.08816778
0002a0 24 88 b5 3d 0f a5 02 bc ed e1 96 3e 97 40 cd 3d
       0.088638574 -0.007973923 0.29469243 0.10022085
0002b0 74 f5 6e 3e 6d 36 7d 3d 3c 8e 9d 3d fc b4 d6 3d
       0.2333582 0.061819483 0.07693145 0.10483739
0002c0 04 de 20 3e f6 d0 cd bc c2 68 1f 3e 91 bc af bd
       0.15709692 -0.025124054 0.15567306 -0.08580888
0002d0 cf 02 5c bd 69 20 e4 3d ac 52 90 3c b8 07 b5 3d
       -0.053713616 0.11138994 0.017617546 0.08839363
0002e0 4b 8d 0a be a4 79 a8 bd 66 ea 0f be f6 43 85 ba
       -0.13530461 -0.08226326 -0.1405426 -0.0010167349
0002f0 13 cf 1c 3e a5 52 0e 3e 7e 7e 3c bd 64 d1 40 3e
       0.15313368 0.13898714 -0.04601907 0.18829876
000300 d5 df 74 bd d4 44 e4 bc 92 9c 07 3b 86 ab c7 bd
       -0.059783775 -0.027864851 0.0020692688 -0.097495124
000310 a7 ea a8 bc 97 b3 24 3e 71 2b 0e 3e 4c 82 5f bd
       -0.020619703 0.16084133 0.13883759 -0.05456762
000320 e9 05 ed 3d ae ca e8 bd 30 f7 c7 bd 9b 67 54 bd
       0.11573393 -0.11366783 -0.09763944 -0.05185662
000330 1b 66 34 bc b6 6e 49 3d fa 7a e8 bd 50 67 8c bd
       -0.011010672 0.049177848 -0.11351581 -0.06855643
000340 dd c3 ba 3d b7 b1 9d 3d f9 e0 25 be dd 99 86 3d
       0.09119389 0.07699912 -0.16199102 0.06572316
000350 82 0c aa 3d 8c 6d 7e bd 31 3c 12 be 52 38 63 bd
       0.08303167 -0.06211619 -0.14280774 -0.055473633
000360 33 25 c2 bb e5 51 15 be 8c f1 98 3c c0 dc e2 bd
       -0.0059248446 -0.14582022 0.018669866 -0.11077261
000370 68 e0 a5 3d c5 6f c0 3d 0f 34 08 be a8 04 17 be
       0.08099443 0.09396318 -0.13301109 -0.1474787
000380 da 81 bb 3d 14 14 31 3e 0a b0 f4 bb 0b 81 7a bd
       0.091556266 0.17292815 -0.0074672746 -0.06115822
000390 dd 5d 07 3e 4d bc 28 be 6d eb cd 3d d9 1d 22 3e
       0.132194 -0.16478081 0.100546695 0.15831698
0003a0 31 a9 0f 3d 33 64 1c be cc 44 02 be c3 4c aa 3d
       0.035073463 -0.15272598 -0.12721556 0.083154224
0003b0 1f a9 0c 3e 8d f6 db 3d b5 db dd bd 7a 48 26 be
       0.1373639 0.10740385 -0.108329214 -0.16238585
0003c0 66 9d 1c be 62 a7 0b 3c 60 ba 9f bd cf 5f 1b bd
       -0.15294418 0.008523794 -0.0779922 -0.037933167
0003d0 fb 51 10 3e a6 d0 c5 3c 90 f2 a4 3d 16 8d 98 3c
       0.14093773 0.024147343 0.080540776 0.018621963
0003e0 af 5b 7c bd 31 12 a8 bc f8 50 04 be c9 6f b2 bd
       -0.061610874 -0.020516487 -0.12921512 -0.087127276
0003f0 6f 05 2a 3e d0 34 cb bc 8d 58 19 bd 7b 2b 22 be
       0.16603635 -0.024805456 -0.037437964 -0.15836899

conv4.bias f4 [256]
000000 86 78 2a 3d b8 69 af 3c c9 84 ae 3d 56 ed 36 bd
       0.041618846 0.021412715 0.085214205 -0.044659935
000010 35 42 c1 3d fb 46 6b bd 99 f8 a9 bc c1 17 1f bd
       0.09436456 -0.05744074 -0.020748423 -0.038841013
000020 a3 3e 77 3d 75 d5 1e be 00 05 b3 3d 71 53 63 bc
       0.06036247 -0.15511115 0.08741188 -0.013874874
000030 76 bb 78 bd a1 83 50 bd c0 a7 f4 bb fd 5f 34 3c
       -0.06072565 -0.05090678 -0.0074662864 0.0110092135
000040 c1 85 9a bc 9f 4f d5 3a b2 c2 8a bd 3e dc 05 3d
       -0.018862607 0.0016274339 -0.067754164 0.032680742
000050 41 82 75 bd 4c fb 97 bd b2 07 40 3d ef ab ac bd
       -0.059938673 -0.07420978 0.04688234 -0.08431231
000060 6f 85 4e bd a9 13 81 bc 88 68 c7 3d 5c f7 60 3d
       -0.05042022 -0.015756445 0.09736735 0.0549234
000070 61 71 8b bd 13 df 48 3d 22 3c dc 3c 1a e5 ef 3c
       -0.06808735 0.049040865 0.026884142 0.029284049
000080 f2 c2 8e 3d db fd 8c bd 74 1a f2 3c e1 d4 14 bd
       0.069707766 -0.068843566 0.02955363 -0.03633583
000090 5a 22 c9 3c 50 35 1b 3d cc 86 1b bc 38 a2 d6 bc
       0.024552513 0.03789264 -0.009492587 -0.026200399
0000a0 d8 cb 93 ba 2b 13 8a bd 7f ed 3a 3d 2e a0 7f bd
       -0.001127596 -0.06741937 0.04563665 -0.06240862
0000b0 b8 94 96 bc 9b 5c d0 3c 7f 22 dd bc 78 69 55 3c
       -0.018381462 0.025434783 -0.026993988 0.013025634
0000c0 11 1a 8e bd 7b eb 04 be 1e 77 98 3d f3 f6 8f 3d
       -0.069385655 -0.12980454 0.07444595 0.07029524
0000d0 49 b3 02 be 43 d7 11 bd 88 07 17 3d 20 28 b2 bb
       -0.12763704 -0.03560568 0.036872417 -0.005436912
0000e0 d5 c6 b4 3c e2 71 1f bd 5c b6 5b 3c 5a a0 cc 3c
       0.022067467 -0.038926966 0.013410177 0.024978805
0000f0 a2 82 46 bd c7 8d 85 bd df d6 bf bd 7f 8e 53 3d
       -0.048464425 -0.065211825 -0.09367155 0.051649567
000100 16 7a 9f 3d 63 fd 7d bd f0 72 ce 3d 6b 8f 70 bc
       0.07786958 -0.062009227 0.10080516 -0.014682631
000110 f3 58 e9 bd 38 4c 37 3d 6e a3 38 3c 56 8a 47 bd
       -0.11393919 0.044750422 0.011269433 -0.04871591
000120 8a 60 a0 bd 22 2b 43 bd a8 4e 9a 3d 7d fd 5f 3b
       -0.07830913 -0.047648557 0.07534534 0.003417819
000130 c8 c8 d3 bb 1f bb 36 be af a0 23 bc 71 db 5a 3d
       -0.006463144 -0.17844819 -0.00998704 0.053431932
000140 3c 37 82 bd 55 6f dc bd 20 b5 f1 3c cc 2a 3a 3d
       -0.06358191 -0.107634224 0.029505312 0.04545097
000150 ac 21 02 bd 80 26 a5 bd b3 ed 2c 3d 54 d0 4f bd
       -0.031770393 -0.08063984 0.042218875 -0.050735787
000160 1a aa 90 bd e1 08 2a bc 84 a2 34 3d 68 1f 4e be
       -0.07063694 -0.010378093 0.0441003 -0.20129168
000170 12 57 82 bb 04 79 be bc 61 fc 7d 3c cd b8 76 3d
       -0.0039776647 -0.023251064 0.015502066 0.060234834
000180 e3 26 ea bd 52 55 9d bd 81 c0 e7 3d 24 90 5b 3d
       -0.11433198 -0.07682289 0.11316014 0.05360426
000190 6f 44 65 bd fa 09 15 3d 9c 95 5c 3c fd 18 10 bd
       -0.055973466 0.036386468 0.013463404 -0.03518008
0001a0 3a 97 01 3e fa 82 87 bd 46 30 0c 3d f2 06 14 bd
       0.12655345 -0.06616779 0.034225725 -0.036139436
0001b0 42 00 1d bc 6f dd 9a bb 0f f8 52 3c 1a 13 c4 bc
       -0.009582581 -0.004726104 0.012876525 -0.02393489
0001c0 fb cc 04 3d de 7a 90 3c 57 41 32 3d 38 68 98 bc
       0.032422047 0.017636713 0.043519344 -0.018604383
0001d0 bb 7e 60 3c 11 0a 88 bd 2d 38 7e 3d 53 e7 e0 bc
       0.01370209 -0.06642545 0.062065292 -0.027454054
0001e0 78 a0 0e bd 37 e4 05 3b 07 16 a5 bc 6d 02 d9 3c
       -0.034821004 0.0020430216 -0.020152105 0.026490415
0001f0 b3 76 39 bd 21 d1 63 3d 21 97 d9 bd 0f 6c 8e bd
       -0.045279216 0.055619363 -0.10624529 -0.06954204
000200 fd 2e b4 bc 2d e9 0d 3d 7f dc 3b bd a1 54 68 3d
       -0.021995062 0.034646202 -0.04586458 0.056721333
000210 01 01 88 3d 00 fb 62 bd 6c c5 8e bd ea 9d 95 3d
       0.066408165 -0.055415154 -0.06971249 0.0730551
000220 ea 1f 1d bc 02 ed 32 3d 65 21 6e bd 11 fc 7e bd
       -0.009590128 0.04368306 -0.058137316 -0.062252108
000230 e2 75 8a bc e1 35 e3 3d 7d 57 64 3b 92 57 1e bd
       -0.016901914 0.11094261 0.0034842186 -0.038657732
000240 9c 5e b1 bd ec 18 85 bd 67 a8 f2 bc 02 f1 58 3b
       -0.086606234 -0.06498894 -0.029621316 0.0033102636
000250 13 29 d6 3c e3 ec a7 38 a2 d1 2d bd 2a ea a2 3d
       0.026142633 8.007304e-05 -0.04243625 0.079548195
000260 c0 88 5a 3d 31 11 0b bd 58 a5 12 bd ed 3c 65 bd
       0.05335307 -0.033951942 -0.035802215 -0.055966306
000270 28 79 50 3d 03 65 95 3c 4f 91 37 bd b2 05 bb bd
       0.050896794 0.018236643 -0.04481631 -0.09131946
000280 2c b1 10 bd e8 53 db bc 50 c1 ef bc 14 95 3e bd
       -0.035325214 -0.026773408 -0.029266983 -0.04652889
000290 6d 0d 03 bd 0c 6f 84 bb e4 98 9c bd 2d fe 97 3c
       -0.031995226 -0.004041558 -0.07646349 0.018553818
0002a0 3f 9b d8 bd 11 45 85 bd 15 1d 5b bd 1e 62 1d bd
       -0.10576486 -0.06507314 -0.05349453 -0.03842365
0002b0 d4 83 42 bd aa 0a 44 3d 57 a5 7e bc a2 13 8e 3d
       -0.047489002 0.047861733 -0.01554235 0.069373384
0002c0 ef 4e 48 bd 17 f2 f0 bd ec f8 d8 bc 69 7a b6 bb
       -0.048903402 -0.11764925 -0.026485883 -0.0055687916
0002d0 cb d5 0c 3d 7f ae bd 3c 10 75 fb bc dc 2e 57 bd
       0.034383576 0.023154495 -0.030695468 -0.052534923
0002e0 3d ba 81 bd 99 42 37 3c 61 28 02 be d7 8f 6c bd
       -0.0633435 0.011185312 -0.12710716 -0.057754364
0002f0 2d 9f 9e bd ca de 9c 3c 64 de 1a bc 3e 92 e1 3c
       -0.07745204 0.019149203 -0.009452436 0.027535554
000300 bb ce a3 bd c7 7c 72 bd 7c 9b 89 bd 7f 0e a0 3c
       -0.07998415 -0.05920103 -0.067191094 0.019538162
000310 6e c8 f7 bc 43 39 09 bc 45 2e 32 3d 68 3b 07 bd
       -0.03024694 -0.008375469 0.043501157 -0.03301564
000320 c5 c1 30 3d fa 6c 76 bd 43 48 87 3d 3f b6 9e bd
       0.043153543 -0.060162522 0.0660558 -0.077496044
000330 26 db da bc 20 ac 96 3c 00 17 48 3d 50 c4 78 bd
       -0.026715826 0.018392622 0.04885006 -0.060734093
000340 a3 31 34 bc 2e 81 3e 3d d3 d6 01 bd 67 7d 2f bd
       -0.010998162 0.046509914 -0.031699013 -0.042844202
000350 14 ed 54 bd 74 94 2a ba 47 bd 28 3c 3d b1 9a 3c
       -0.051983908 -0.00065071066 0.0102990335 0.018883342
000360 0a cd bb bd a5 93 cf bc 16 af d6 bb 94 8f 89 bd
       -0.091699675 -0.025338957 -0.0065516336 -0.067168385
000370 62 d6 df bb 09 f3 e5 3b b8 9c cf 3c 0a 65 41 3c
       -0.0068309763 0.0070174974 0.025343284 0.011803875
000380 fa 57 9a 3d 18 13 05 bd fd 74 26 bd 02 26 bb bd
       0.075363114 -0.032488912 -0.040638912 -0.09138109
000390 0a 8c 94 3d 81 a5 5e bd 81 d4 d0 bd e6 a7 64 bd
       0.07253273 -0.054357056 -0.10196782 -0.055824183
0003a0 e3 19 3d bd ce b9 b7 bd 7f 73 22 be b6 25 46 3d
       -0.046167266 -0.08970986 -0.15864371 0.048375808
0003b0 57 88 2a 3d c3 a8 4f 3d cd e6 6f bb fc 89 56 bd
       0.04163393 0.050698053 -0.0036606074 -0.052377686
0003c0 fb b2 58 3d bf 2c 12 3d 73 c1 1d bc 6e f3 d6 3c
       0.052905064 0.035687204 -0.009628641 0.026239123
0003d0 18 44 8c 3d 3e 5a be bd 69 53 18 bd df bb 9d 3d
       0.06848925 -0.09294556 -0.03718892 0.07701849
0003e0 b5 ff f7 bd bc 27 a9 bc 34 c6 ba bc 1f be 2d 3d
       -0.12109319 -0.02064883 -0.022799589 0.04241764
0003f0 02 7e 21 bd 1f 58 58 3c a1 f4 99 bd 98 34 bb 3c
       -0.03942681 0.013204603 -0.075173624 0.022852227

conv4.lin.weight f4 [256, 128]
000000 4c 37 73 bc c6 c8 61 bd e9 f8 b2 3d 01 fd 51 3d
       -0.014844727 -0.055123113 0.08738882 0.051266674
000010 5d 75 cc 3d 26 88 29 bc 3a 98 20 be af e4 d5 bd
       0.09983323 -0.010347402 -0.1568307 -0.104440086
000020 41 8f c6 bd a0 b0 a5 3d 2f b5 c4 3c 0c 8b bc 3d
       -0.09695292 0.08090329 0.024012176 0.092062086
000030 94 2a 72 3c b2 51 c6 3d 46 a7 54 3d 77 98 d0 3c
       0.014780659 0.09683551 0.051917337 0.025463326
000040 73 53 e6 bd 84 b6 aa bc c8 b2 83 bd b7 7f 4b bd
       -0.112463854 -0.020838983 -0.06430584 -0.049682345
000050 fb da b1 bc 9c 86 f5 bc d3 57 ef bd 91 31 14 3e
       -0.021710863 -0.029971413 -0.11686673 0.14472033
000060 55 08 0d be a8 80 ea bd db 84 1f 3e c8 3c a0 3c
       -0.1377271 -0.114503205 0.15578024 0.019560233
000070 e3 2f 0e 3e 24 37 45 3d c9 4a 6d 3d d8 a0 9b bd
       0.13885455 0.04814829 0.05793265 -0.07599038
000080 7f 35 27 3e 72 7c f9 bd e8 81 a9 bd d2 5c eb bc
       0.16329001 -0.12181939 -0.08276731 -0.028730784
000090 95 03 d8 bd 31 88 94 bd 2a e9 2f bd a0 6b ec bd
       -0.10547558 -0.07252539 -0.042946972 -0.11543965
0000a0 31 5f cc bd 2e dc 92 3d 30 f2 3a bd 90 d3 10 3c
       -0.09979094 0.07170902 -0.045641124 0.008839503
0000b0 26 e3 d9 3c 9d fb 47 bc ea 1d 44 3d a4 22 a1 3c
       0.02659757 -0.012205985 0.04788009 0.019669838
0000c0 27 eb 15 3d 5d e0 78 3d 46 44 17 3d 02 40 06 3b
       0.036601212 0.060760844 0.036930345 0.002048493
0000d0 85 9d d0 bd 21 11 90 bd 0f 58 d2 3d 8d de 31 be
       -0.101862945 -0.07034517 0.10270702 -0.17370053
0000e0 72 c4 6e 3c 9a 06 5d bd 66 17 c5 bc 11 97 12 be
       0.014573203 -0.053961374 -0.024059009 -0.1431544
0000f0 24 e0 6e 3d 96 72 e3 bd aa 5a 35 3d 66 33 d2 3c
       0.058319226 -0.1110584 0.044275917 0.025659274
000100 20 73 d8 3d 04 50 90 3d 64 b3 60 bd 9c 2a c0 bd
       0.10568833 0.07046512 -0.05485858 -0.09383127
000110 4d e7 84 3d 25 fe 55 bc e8 c0 10 be 20 fa 8f 3d
       0.064894296 -0.013061081 -0.14136088 0.070301294
000120 d5 67 d8 3d 8f ba af bd da 00 8d bc 9b 5e 5f bc
       0.105666794 -0.08580505 -0.01721232 -0.013633396
000130 3e 5a 5b 3d 89 57 28 3c 09 99 24 ba e5 14 05 be
       0.05355286 0.010274776 -0.00062789075 -0.12996252
000140 df d7 b1 3d 78 03 e2 bd 39 93 0e 3d 9f 42 18 3e
       0.08683752 -0.11035818 0.03480837 0.14869164
000150 71 24 29 bd b2 9b 2c 3d 1c 77 27 bd 34 dc f6 bd
       -0.04129452 0.04214067 -0.040885076 -0.12053719
000160 96 ed 02 3e 78 12 a6 bc e0 a5 fe bc 41 5e 2c be
       0.12785944 -0.020272478 -0.031084955 -0.1683283
000170 75 8b 99 bd d3 6f 71 3d dc 73 0a be ae 74 49 bd
       -0.074973024 0.058944535 -0.1352076 -0.04918354
000180 0e 61 9c 3b 53 51 12 bd d0 d2 28 bd e8 e2 83 bc
       0.004772312 -0.035722088 -0.04121667 -0.016099408
000190 99 4a e3 3d 2b 33 b9 3d 49 ec 59 3b 01 9c 8c 3d
       0.11098213 0.09042963 0.003325241 0.06865693
0001a0 5b 44 a4 bd 0d d4 1b be 9b 8f 84 3a 6e 0c a8 bc
       -0.0802085 -0.1521761 0.0010113599 -0.02051374
0001b0 bf 89 9f bb 1d b0 8d bd 13 a6 bb 3d d4 42 0e 3e
       -0.0048687155 -0.069183566 0.091625355 0.1389268
0001c0 1c 4e ae 3d 46 0e a6 3d af 2f 9f bd 8d a1 b1 3d
       0.08510992 0.08108191 -0.07772767 0.086733915
0001d0 79 43 f7 bd 87 43 83 3c a2 a2 11 be 40 b1 46 bc
       -0.12073416 0.01602341 -0.14222196 -0.012127221
0001e0 82 3b 30 bd f6 a2 26 bd 71 e2 1d 3c 5e 2a 83 bc
       -0.0430255 -0.040682755 0.009636507 -0.016011413
0001f0 93 26 11 be 36 15 26 3d 55 73 02 bd 2b bd 9b bd
       -0.14174871 0.040547572 -0.03184827 -0.0760444
000200 63 5e da 3d 96 77 16 be 54 e0 01 be 0c f5 3d 3d
       0.10662534 -0.14694056 -0.1268323 0.046376273
000210 25 5b 34 3d dc 3d 4d 3d 7e c5 91 bd 4f 1f 2f bd
       0.044032235 0.05010782 -0.07117747 -0.042754468
000220 24 1c b5 bc 41 b0 62 bd 41 44 df bd 58 64 1a 3e
       -0.022108145 -0.05534387 -0.1090169 0.1507734
000230 1d 79 ab 3d 8c 8b 3c be 5a 2b 9e 3d 5a d0 56 bd
       0.0837271 -0.18412608 0.077231124 -0.052444793
000240 83 0e 1a 3c c7 5b f7 3d 28 8e b5 bd 01 c9 8c bd
       0.009402874 0.12078052 -0.08865005 -0.06874276
000250 cb e8 bf bd 94 04 f2 3b a5 35 97 bd 7b 84 d7 3d
       -0.093705736 0.0073857997 -0.07383279 0.105233155
000260 66 1d 71 3d 78 b5 b9 3d 47 fe 77 bd 10 14 ac bd
       0.058865927 0.090678155 -0.060545232 -0.08402264
000270 b6 05 10 3e a3 2a f2 3b 59 fe 21 bd 86 35 5e bc
       0.14064679 0.0073903366 -0.039549205 -0.013562566
000280 c6 85 cf bd e6 dd e7 3c 96 12 36 bc 9a f5 3a bd
       -0.10132937 0.028304052 -0.01111283 -0.04564438
000290 06 9d e2 bd 27 67 6c bd 6e 04 9c 3d a3 e7 0c be
       -0.11065106 -0.05771556 0.076180324 -0.13760237
0002a0 24 18 41 bd d3 80 29 3e fd 45 f6 bc 36 5d 88 3d
       -0.047142163 0.16553049 -0.03006267 0.066584036
0002b0 d3 9d b0 bd 25 ef 2c 3d 5c 04 0e 3c 74 b1 49 3b
       -0.086238526 0.042220253 0.008668032 0.0030775936
0002c0 88 a2 02 3e 18 15 20 3e 6f ad 44 bc 13 b9 1c 3e
       0.12757313 0.15633047 -0.01200424 0.15304975
0002d0 81 ad 9a 3d ab 0e 10 bd eb 4e 22 3e ce b7 6a 3c
       0.075526245 -0.03517024 0.15850417 0.014326049
0002e0 07 9b 81 3c 5a 11 b1 bd be fe 16 be 13 9c ed b9
       0.015820993 -0.08645888 -0.14745614 -0.00045320447
0002f0 68 0a fa 3d a7 9e 2b 3e be 19 49 3c 94 c6 b2 bd
       0.12209016 0.1675974 0.012274204 -0.08729282
000300 7d a3 8d 3d 7d 91 d4 3c 43 1e ab 3d 23 46 01 3d
       0.069159485 0.02594828 0.08355381 0.03156103
000310 fb 26 52 3d 4e 72 c7 bd 19 94 3f bc 0b f4 88 bd
       0.051306706 -0.09738599 -0.011693024 -0.066871725
000320 d5 a3 28 be 94 1f 8d 3d 36 51 40 bc d5 f7 e0 3c
       -0.16468747 0.06890789 -0.011738112 0.027461926
000330 a7 ac 95 bd dd 67 18 bc 45 85 8e bd 07 6c 64 3d
       -0.073083214 -0.009302107 -0.06959013 0.055767085
000340 fc 11 c6 bd 1f 2e a6 3c 06 26 c5 bc 3b 2d da 3d
       -0.09671399 0.020285664 -0.024065983 0.10653158
000350 09 da 05 bd b0 8f e4 bb b7 41 a9 3d 1f d4 0b 3c
       -0.032678638 -0.0069751367 0.08264487 0.00853446
000360 21 d1 de 3c 72 5c e5 3c a7 49 61 3c bc de 84 bd
       0.02719933 0.027998183 0.01375047 -0.06487796
000370 f7 f3 fb bc 0b 90 a0 bd 24 65 ab bd d1 e9 d9 bc
       -0.03075598 -0.07839974 -0.083689004 -0.02660075
000380 0d fc 10 ba 75 59 51 3d 05 1c 87 bd b7 f6 04 3e
       -0.00055307226 0.051110703 -0.06597141 0.12984739
000390 58 43 2e be d9 b3 2a 3d 62 ea 1e be 15 d0 ca bd
       -0.17017877 0.041675422 -0.15519097 -0.0990297
0003a0 02 57 8c bd e7 17 8a bd cb 2d 41 3d 0d b1 d1 3d
       -0.06852533 -0.0674284 0.047162812 0.10238848
0003b0 92 a8 8e 3d 95 eb 14 3b e5 e9 c4 bd fb 29 be 3c
       0.06965746 0.0022723426 -0.09614924 0.023213377
0003c0 07 cc d6 3b 9a 7e 39 3d 2e 78 9a bd 08 f6 a2 3d
       0.0065550837 0.045286752 -0.07542454 0.07957083
0003d0 fb 6c 09 3d 3d 08 70 3d 81 92 13 be 50 b7 a4 bc
       0.033551197 0.058601607 -0.14411356 -0.020106941
0003e0 8b 27 13 3d e9 73 da bc 7d 88 d0 3d d4 8b 31 3a
       0.035926383 -0.026666598 0.10182283 0.000677285
0003f0 09 e8 99 3d dd 99 32 3d 1b ee 94 bd 5c 7b 9c 3d
       0.0751496 0.043603767 -0.072719775 0.076407164

conv5.bias f4 [256]
000000 ba cc 61 b8 94 d1 49 b8 5b 22 70 38 cb 2f 8b b8
       -5.3834847e-05 -4.811732e-05 5.7252455e-05 -6.6369386e-05
000010 c1 e0 aa b8 92 83 a6 38 0f fa 9c b7 60 8c 25 36
       -8.1480954e-05 7.940004e-05 -1.8713092e-05 2.4668625e-06
000020 ef fa 5d b8 75 5a a7 38 55 2d 42 38 6b 40 1d 38
       -5.2924206e-05 7.9800295e-05 4.6295423e-05 3.749171e-05
000030 c4 60 92 38 32 93 18 b7 ae d6 a4 37 b1 57 94 38
       6.9798465e-05 -9.094178e-06 1.9650292e-05 7.073524e-05
000040 74 b6 a0 b8 06 0e 96 b8 cb b0 63 37 05 bb 20 38
       -7.663379e-05 -7.1551694e-05 1.3571417e-05 3.8321148e-05
000050 7e 32 ea 37 27 4d 89 b7 2f 45 a1 b8 32 46 b3 38
       2.7918486e-05 -1.63676e-05 -7.689965e-05 8.54846e-05
000060 05 39 fb 37 79 2e 16 37 f0 22 d5 35 00 cf 80 38
       2.9948083e-05 8.951517e-06 1.5879905e-06 6.1420724e-05
000070 01 9f e2 37 4c f0 06 38 cb 60 5a 37 45 eb 14 b8
       2.7015341e-05 3.2171884e-05 1.3016349e-05 -3.550506e-05
000080 29 c7 52 b8 eb 78 36 b8 3f 68 04 b8 05 73 41 38
       -5.0253384e-05 -4.3504795e-05 -3.156834e-05 4.6121906e-05
000090 bd 44 ae 38 0f 60 2a 38 a6 57 90 b8 d2 5c 85 38
       8.30977e-05 4.062062e-05 -6.882781e-05 6.359223e-05
0000a0 06 e5 8d b8 1b 94 9f 38 26 95 92 38 60 23 69 38
       -6.766063e-05 7.6092976e-05 6.9896036e-05 5.5584474e-05
0000b0 99 cf 80 b8 f7 e9 ce 37 ac e2 15 38 f4 42 82 38
       -6.142184e-05 2.4666062e-05 3.5735473e-05 6.211354e-05
0000c0 ed 05 53 38 00 b1 3e b8 f3 ea c1 36 37 2f 9c 38
       5.031184e-05 -4.5464374e-05 5.7792e-06 7.447454e-05
0000d0 d6 10 b2 38 0e 31 6a b8 df 28 47 38 d2 29 ab 38
       8.490837e-05 -5.5835633e-05 4.748336e-05 8.161705e-05
0000e0 bd c0 8c 37 1d 74 b2 b8 c0 9a 60 b8 34 06 79 38
       1.6779051e-05 -8.509329e-05 -5.3549884e-05 5.9372003e-05
0000f0 73 4b 8e 38 30 f8 c1 37 79 b8 5c b8 0c 7c 9b b8
       6.785141e-05 2.3122964e-05 -5.262389e-05 -7.4140815e-05
000100 58 69 39 b8 37 3a 4a b7 c3 6f 82 38 71 8b 89 38
       -4.4205546e-05 -1.2053692e-05 6.2197e-05 6.558642e-05
000110 5c e1 5a b8 75 18 81 38 b7 25 bb 37 8d 0d a5 b8
       -5.2185133e-05 6.155755e-05 2.23097e-05 -7.870337e-05
000120 d2 4d c0 b5 30 05 7e 38 f6 11 9f b8 a6 02 98 b8
       -1.4327763e-06 6.056315e-05 -7.585056e-05 -7.248418e-05
000130 33 b1 5d 38 49 af 2e b8 38 4c 2b b4 22 8f e9 b7
       5.2855536e-05 -4.164808e-05 -1.5953344e-07 -2.7842416e-05
000140 4e 1b cf b8 ca c9 5c 38 fc b7 44 38 00 fd 0d 38
       -9.875615e-05 5.2640018e-05 4.690139e-05 3.3852644e-05
000150 31 fb 76 b8 6c 7e f4 38 e2 52 aa 38 9a ac a1 38
       -5.888491e-05 0.000116583746 8.12167e-05 7.709228e-05
000160 e5 53 6c b8 a6 dc 64 38 ff e9 1d b7 20 43 38 38
       -5.6344918e-05 5.456493e-05 -9.412411e-06 4.3931534e-05
000170 97 bc 22 38 22 28 80 b5 8c 8c 6a b8 47 f3 99 b8
       3.8799448e-05 -9.548423e-07 -5.5920842e-05 -7.3409225e-05
000180 ee f8 51 37 37 99 2d 38 67 a3 41 37 4a b8 58 b8
       1.2515329e-05 4.1389107e-05 1.15417415e-05 -5.1670046e-05
000190 6b b1 84 b8 11 4f 56 b8 21 3e 40 38 e6 b8 a3 b8
       -6.327297e-05 -5.1095212e-05 4.583423e-05 -7.806886e-05
0001a0 43 a8 ae b8 fa d1 c0 37 21 00 89 b8 06 d4 67 38
       -8.328308e-05 2.2985962e-05 -6.532693e-05 5.5272154e-05
0001b0 ee bd 81 b7 e4 56 2a b8 a9 e5 7c 37 e7 97 a0 b8
       -1.5466441e-05 -4.061208e-05 1.5073842e-05 -7.6576885e-05
0001c0 f3 32 80 38 54 f3 52 38 45 67 b0 37 7c c7 a4 38
       6.113006e-05 5.029452e-05 2.1028924e-05 7.857286e-05
0001d0 c4 00 ee 37 d8 21 4c 38 27 63 92 b8 7f 0d 7c 38
       2.8372167e-05 4.866891e-05 -6.980291e-05 6.009405e-05
0001e0 05 15 9e 38 9b df 1d b8 49 53 f1 b7 32 c1 2c 38
       7.537942e-05 -3.7639966e-05 -2.8768221e-05 4.1187923e-05
0001f0 3e ec 68 35 e2 da 3a b8 e2 16 8d 38 a9 24 a3 38
       8.677051e-07 -4.4549706e-05 6.727666e-05 7.779274e-05
000200 44 52 53 38 74 17 08 b8 2a b0 6e 38 f2 d2 72 38
       5.0382936e-05 -3.244677e-05 5.6907687e-05 5.7893754e-05
000210 49 c2 5e b8 4a 8d f1 37 7e ed 0b 38 e5 a0 ad b7
       -5.3109867e-05 2.8795232e-05 3.3361364e-05 -2.069813e-05
000220 6e 27 9a b7 2d 27 61 38 ac 09 0a 38 ed 3e dd b6
       -1.8376591e-05 5.3680666e-05 3.291077e-05 -6.593639e-06
000230 89 d7 1f b8 fe cc a5 38 f8 c5 fe 37 97 ed a6 b8
       -3.8109287e-05 7.905996e-05 3.0371346e-05 -7.9597514e-05
000240 ca 0b 5e 38 9a 4b b3 36 de 9e 4a 38 bb 6c 91 37
       5.2939904e-05 5.343417e-06 4.830851e-05 1.7335979e-05
000250 17 7f ac 38 3a 56 49 b8 4e 8d 4e 38 c0 7f a6 b8
       8.2252714e-05 -4.800244e-05 4.9245828e-05 -7.939292e-05
000260 8b 55 4a 36 c9 67 6c b8 9e 8d cf 37 02 00 1a 37
       3.0150138e-06 -5.6363442e-05 2.4742269e-05 9.179117e-06
000270 50 14 4a 38 47 8c 91 38 18 c7 82 b8 39 7c 32 37
       4.817947e-05 6.9402675e-05 -6.235967e-05 1.063855e-05
000280 3d 54 ce b6 bf 41 26 b8 21 e0 82 b8 dd 93 a0 b8
       -6.149085e-06 -3.9638715e-05 -6.24063e-05 -7.656936e-05
000290 9f 72 a5 38 42 f1 8d b8 d5 11 39 b7 36 60 9d 38
       7.889163e-05 -6.768342e-05 -1.1031011e-05 7.504264e-05
0002a0 82 31 a0 b8 c7 22 51 b8 94 d4 80 38 bb 42 c8 37
       -7.638616e-05 -4.9861872e-05 6.1431114e-05 2.3872932e-05
0002b0 8f cc 03 38 34 79 28 b7 bf 19 5d 38 72 82 4c b7
       3.1423344e-05 -1.00418e-05 5.2714484e-05 -1.2189719e-05
0002c0 cd 5e 88 38 6d 6e 7c 38 77 8f bc b6 1c bc c0 b6
       6.5026434e-05 6.0184324e-05 -5.619538e-06 -5.7439447e-06
0002d0 99 48 ab b8 79 0e 07 37 41 47 8d b7 a2 21 85 b8
       -8.167438e-05 8.049997e-06 -1.684169e-05 -6.348199e-05
0002e0 7a 4f 87 38 6e 9d 8b 38 24 ca ad 37 10 60 06 38
       6.452105e-05 6.65736e-05 2.0717336e-05 3.2037555e-05
0002f0 ef 44 8d b8 4a 94 7a 38 88 29 ab b8 c2 8a cd 37
       -6.736244e-05 5.974275e-05 -8.161651e-05 2.4502518e-05
000300 e7 16 f8 37 a9 cf 92 38 54 30 2f 37 ae f5 8f 38
       2.9574569e-05 7.000502e-05 1.0442065e-05 6.864533e-05
000310 cc ea 48 37 0f 1f 85 38 51 24 7f 33 74 49 80 38
       1.1975597e-05 6.347719e-05 5.9404844e-08 6.117197e-05
000320 cf 52 a0 b8 42 a8 5e 38 06 79 36 38 7e a4 50 37
       -7.644819e-05 5.3085627e-05 4.3504893e-05 1.2436065e-05
000330 ea 86 a5 38 78 1d 8a b6 14 3e 37 b8 86 93 67 b8
       7.892943e-05 -4.116151e-06 -4.3688415e-05 -5.5212084e-05
000340 0e 79 a2 b8 77 78 19 b8 1b 12 a9 38 fe 6e f0 b8
       -7.74731e-05 -3.6590234e-05 8.0619204e-05 -0.00011464766
000350 2f 32 c8 37 c7 ba 09 b7 45 32 2c 38 bd 35 50 b8
       2.3865226e-05 -8.209324e-06 4.1054813e-05 -4.9641112e-05
000360 f6 88 a1 38 5d 4e b1 b8 f3 69 67 b8 24 eb 75 38
       7.702589e-05 -8.454614e-05 -5.5173365e-05 5.8631544e-05
000370 0c 6a d6 b8 22 5e 63 b8 cb 47 a3 38 e6 b8 77 37
       -0.00010224068 -5.4208685e-05 7.785818e-05 1.4765397e-05
000380 af 7f ac b7 c6 3f 80 38 91 62 64 37 8f 0f ad 38
       -2.0563455e-05 6.115394e-05 1.3612808e-05 8.252181e-05
000390 b5 c2 00 38 31 fa ac b8 2f d0 83 38 b3 d9 4f b8
       3.0698913e-05 -8.248201e-05 6.285344e-05 -4.9555394e-05
0003a0 47 c4 a9 b8 46 24 9f b6 d9 e3 49 37 22 92 a5 38
       -8.0951075e-05 -4.742792e-06 1.20335835e-05 7.8950325e-05
0003b0 b5 46 3d 38 0c c1 e8 b7 d1 38 89 38 e9 17 56 b8
       4.5126963e-05 -2.774645e-05 6.543252e-05 -5.1043844e-05
0003c0 4e 5e 1d 36 ba e5 e6 36 85 40 80 38 32 14 6d b7
       2.3449716e-06 6.881278e-06 6.115533e-05 -1.4131003e-05
0003d0 95 94 8c 38 24 18 ab 38 40 b1 9c 37 e4 8c a3 b8
       6.703396e-05 8.158412e-05 1.8679188e-05 -7.7986886e-05
0003e0 4b 1a 81 38 59 39 1f b8 4f b6 a8 38 d2 c4 42 b7
       6.156097e-05 -3.7961963e-05 8.044822e-05 -1.1609127e-05
0003f0 32 9b ef b8 d3 b7 89 b8 e4 6c 10 37 e2 ee 11 38
       -0.000114253155 -6.566909e-05 8.608422e-06 3.479317e-05
