model_weights/clean_split_3.pt (torch, 473446 bytes, 26 tensors)

conv1.bias f4 [64]
000000 03 1e 5c 35 c1 e9 97 35 fa 7d e8 b6 85 f2 71 b7
       8.200006e-07 1.1318408e-06 -6.9288044e-06 -1.4421185e-05
000010 9f 38 4b b7 54 1d 32 b4 5f 39 1f b4 2e da 20 36
       -1.2112926e-05 -1.6588211e-07 -1.48289e-07 2.3968855e-06
000020 c8 45 ba b7 b6 fe d5 35 e3 a5 51 37 f5 36 87 37
       -2.2205422e-05 1.5943867e-06 1.2495994e-05 1.6118845e-05
000030 e2 ab 85 36 ab 4d 8c b5 af 68 1d b7 d1 4f 82 35
       3.9837187e-06 -1.0453417e-06 -9.382303e-06 9.708984e-07
000040 67 db ed 36 8f 41 5d 36 4d ed 02 36 28 40 d6 35
       7.088692e-06 3.2969726e-06 1.9509637e-06 1.5962914e-06
000050 dc b4 bc ac 3a 7b 2b 36 1c ef d5 b5 6a 22 46 b6
       -5.363361e-12 2.5552713e-06 -1.5939327e-06 -2.952433e-06
000060 8b 9e 0d b6 81 70 80 36 9f 08 6b b3 e3 5d 5b b7
       -2.1102921e-06 3.8277944e-06 -5.4723042e-08 -1.3075277e-05
000070 f5 c1 5c b5 92 62 a4 b6 a1 c3 76 b6 3c 5d d7 34
       -8.223863e-07 -4.899056e-06 -3.6770728e-06 4.0114708e-07
000080 51 20 fe 35 57 e8 a6 b5 08 35 cf 34 6f fb 7f 35
       1.893388e-06 -1.2435584e-06 3.859534e-07 9.5360787e-07
000090 58 39 5b 36 cc 13 3a 36 30 68 aa 35 62 58 93 36
       3.2666921e-06 2.7727683e-06 1.269631e-06 4.3912305e-06
0000a0 9a eb 64 b7 45 f1 6b b6 c5 7b 2e 37 32 f2 cc 34
       -1.3644714e-05 -3.5158166e-06 1.04000255e-05 3.817418e-07
0000b0 31 f4 36 37 ce 98 15 b6 a1 56 54 b4 1e b9 03 b7
       1.0904901e-05 -2.2291674e-06 -1.9775554e-07 -7.851309e-06
0000c0 d5 f2 8d 37 77 c0 02 b6 ca 93 96 b5 4f 63 47 35
       1.6921587e-05 -1.9483539e-06 -1.1218883e-06 7.427779e-07
0000d0 bf 1e 9e 36 71 93 d9 35 fc b5 58 35 d3 55 a9 36
       4.7123463e-06 1.6210671e-06 8.073109e-07 5.0465837e-06
0000e0 e1 7d 11 b7 57 60 48 b6 2f 6d 29 b6 76 82 0f 36
       -8.671982e-06 -2.98584e-06 -2.5246516e-06 2.1384599e-06
0000f0 ab 53 84 b5 1b 37 99 37 19 d1 f8 34 72 9e 04 37
       -9.859117e-07 1.8264682e-05 4.6345738e-07 7.904704e-06

conv1.lin.weight f4 [64, 2]
000000 71 4a 48 be 08 05 dc bd 56 e4 1e 3b a7 2a 87 3e
       -0.19559647 -0.10743147 0.0024244986 0.2639973
000010 16 29 35 3e b3 64 32 3b 1e 8b 38 bd 46 54 8f 3d
       0.17691454 0.0027220666 -0.045054547 0.06998496
000020 90 ea 92 bd ec 7d b1 bd 30 21 0d 3e d6 bf 85 3e
       -0.071736455 -0.08666596 0.13782191 0.26122922
000030 33 e6 e0 3d 73 ab c8 3d 7c f5 90 bd 7c 88 71 3e
       0.10981407 0.09798326 -0.070780724 0.23587221
000040 49 9f e6 3d 5f bd 50 bd 21 0b 06 3b 18 d7 8c 3e
       0.1126085 -0.05096185 0.002045341 0.27507854
000050 24 9c 9c bd 56 f9 09 3e 53 71 63 3d 2a 39 49 be
       -0.07646969 0.1347402 0.055527996 -0.19650713
000060 58 49 d3 bd 1c b4 3c 3c 13 d4 96 3e ab 04 8e bc
       -0.103167236 0.011517551 0.29458675 -0.01733621
000070 a5 c6 e3 bd fc 28 0e be 18 dc 56 3e 2d e4 5c 3e
       -0.11121873 -0.13882822 0.20982397 0.21571417
000080 a7 88 1c be ca 07 9f bd 62 93 c1 3d 04 b9 73 be
       -0.15286504 -0.077651575 0.09451939 -0.23801047
000090 76 dd 8d 3c 3f 3d af 3e 96 45 7e bd 8c 0f a3 3e
       0.017317515 0.34226415 -0.06207808 0.318478
0000a0 5c ea 4b 3e 56 89 26 3e 9f e0 b5 be a1 2c a4 bc
       0.1991362 0.16263327 -0.35522935 -0.020040812
0000b0 a3 8d 46 be c3 e2 27 be 8a 49 84 3e 1d fc b0 bc
       -0.19389968 -0.16395096 0.25837356 -0.021604592
0000c0 bc d3 af 3e d4 1a ca 3b ca 4f c4 bd 96 23 0e be
       0.34341228 0.006167749 -0.09585531 -0.13880762
0000d0 7f 14 27 3e 8c 40 17 3e 78 79 53 be 7c de b3 bd
       0.16316412 0.14770716 -0.20651805 -0.0878267
0000e0 ac a7 7b 3d 9c 59 96 be 17 d9 46 3c ed 11 6e bd
       0.0614392 -0.29365242 0.012136719 -0.058122564
0000f0 84 08 98 bd d0 c1 96 be e0 09 17 be 21 ca 7c 3e
       -0.07423499 -0.29444742 -0.14749861 0.24686481
000100 1d 2a 53 3e e6 55 d0 3d 52 58 91 3e 6a 5a 16 be
       0.20621534 0.10172634 0.28387696 -0.14682928
000110 6e db 5c be 26 38 72 3e 7a 07 6c 3e ec f2 a7 3d
       -0.21568081 0.23654231 0.23049727 0.082006305
000120 34 9c de bc 49 51 61 3d 3c 4b da 3d 1f 15 3e bc
       -0.027174093 0.05500916 0.10658881 -0.011601715
000130 9a 94 60 3e 5a 34 39 3e 1a b7 3e be 27 55 be 3e
       0.21931687 0.18086377 -0.18624535 0.3717434
000140 cd b1 96 be bd 64 7c 3e 84 61 41 3e 6e e3 7b 3c
       -0.29432526 0.24647804 0.18884856 0.015374048
000150 e9 c1 28 be 81 19 62 be 4e 3e 32 3d 6b d0 81 3e
       -0.16480221 -0.22080041 0.04351645 0.25354323
000160 7f 09 d4 bd 48 64 92 3e fd b4 80 be da 25 83 3e
       -0.10353374 0.28592134 -0.25138083 0.25614816
000170 99 cf 4a 3e 27 62 43 3e df 04 c3 3c 90 4c 74 be
       0.19805755 0.19080411 0.023806034 -0.23857331
000180 0d 41 40 bd 03 5b 02 3d c3 43 ba 3d df bc 9c 3d
       -0.046937037 0.031825077 0.09094956 0.07653212
000190 8d a8 05 3e bf 36 f3 3d a0 eb 74 3e ab 6d 37 3c
       0.13052578 0.11875676 0.23918009 0.0111955805
0001a0 a7 e1 18 be 23 52 82 3e ba 62 a4 bc 0d 65 2c 3e
       -0.1492983 0.2545329 -0.020066608 0.16835423
0001b0 22 cd 99 3e 3f 51 14 bd a1 d5 2f 3c 75 9b 82 be
       0.30039316 -0.036210295 0.010732085 -0.2550923
0001c0 a4 39 71 be df da 11 3e cc 8b d7 bd 2b 5b a4 3e
       -0.23557144 0.14243649 -0.10524711 0.32100806
0001d0 2c 47 ab 3e 11 a9 98 bc 86 f5 6e 3e b1 09 60 3d
       0.33452737 -0.018635305 0.23335847 0.054696742
0001e0 97 e3 40 3d ea cb 9b 3e 3b b3 02 be 63 87 92 be
       0.047092047 0.30429012 -0.12763683 -0.28618917
0001f0 20 e9 4f 3e 0f 4a 0c be 1b 9f 95 be b9 09 14 3e
       0.20303774 -0.13700126 -0.2922295 0.14456834

conv2.bias f4 [64]
000000 b9 5b 24 bc 61 5e 84 3c f2 0e 60 be c9 d6 f3 3b
       -0.010031634 0.016158285 -0.21880701 0.007441376
000010 17 be 15 be f7 5b 04 3d 8d 3f 48 bc 0c 5f 48 bd
       -0.14623295 0.032314267 -0.012222183 -0.04891877
000020 6d b4 61 3b a9 d1 a1 bd 95 1e 7c 3b 2f 44 df bc
       0.0034439818 -0.079013176 0.0038470377 -0.027254192
000030 c8 80 3b bd fa c4 1e 3c 31 0b 5f be 3d 9f 4d bd
       -0.045777112 0.009690518 -0.21781613 -0.05020069
000040 64 94 a4 bc 09 21 84 bd 33 77 df 3c 24 43 f7 bc
       -0.02009029 -0.064516135 0.027278518 -0.030183382
000050 89 1f ed bc de 91 c7 bd ec 34 ce bc a2 2a a4 3d
       -0.028945701 -0.09744619 -0.02517172 0.08015944
000060 b3 de 64 3d d6 25 2a bd 42 3d af bd d2 d6 ae bd
       0.055876445 -0.04153999 -0.08556606 -0.085370675
000070 c5 cb 12 3d 39 b8 8c 3a 6f fc af bd 19 2b e5 bc
       0.03583886 0.0010736055 -0.0859307 -0.027974652
000080 d1 bb bb bd 65 4a c3 bd 8f c3 d1 3c 4d 0d f1 bd
       -0.091666825 -0.09535674 0.025605945 -0.11770115
000090 b3 2c cf bd 29 0c e7 bc 81 67 e5 3b 77 44 e3 3b
       -0.101159476 -0.02820404 0.007000864 0.006935652
0000a0 d5 d1 22 bd f8 74 bf bd 30 97 a8 bd 3e 6c 90 3c
       -0.039750893 -0.09348482 -0.08231962 0.017629739
0000b0 67 72 9f bd a6 1b ae bc bc 19 9f 3c f7 a8 c8 bd
       -0.077854924 -0.021253418 0.01942145 -0.097978525
0000c0 0a 65 81 bd 11 42 88 bc b9 e1 b7 3d 1d b9 63 bd
       -0.063181 -0.016633065 0.089786 -0.05559646
0000d0 c1 89 3a 3d 4a b6 a4 3d 77 d3 2f bd a4 cd 7e bc
       0.04554153 0.080425814 -0.042926278 -0.015551958
0000e0 8f 05 83 bc c3 05 ec bc 82 37 b3 3c 13 c9 0b 3c
       -0.015993861 -0.028811341 0.021877054 0.008531827
0000f0 a5 78 17 3d 17 b2 e9 bd 0d 49 26 bd 72 ff f3 bd
       0.03698029 -0.11410921 -0.04059701 -0.11913957

conv2.lin.weight f4 [64, 64]
000000 59 ca 51 3d c7 f6 9d bd 27 bf 46 be 16 60 36 bc
       0.051218364 -0.07713085 -0.19408856 -0.011131307
000010 49 5a 93 bd b0 50 d0 ba a1 b6 8d 3d a3 92 ba bd
       -0.07194955 -0.0015893187 0.06919599 -0.0911
000020 06 c6 c6 bd 6c 4c d6 bd 5f 61 6a bd 4b 4b 18 be
       -0.09705739 -0.10463795 -0.057221767 -0.14872472
000030 0d 28 12 be 6b 8b af bd 85 96 b5 3c ee d1 6e be
       -0.1427309 -0.08571514 0.0221665 -0.2332227
000040 80 e0 26 3e 7c cb 24 3e 39 f6 d7 3d 69 5c d1 bd
       0.16296577 0.16093248 0.1054501 -0.10222704
000050 e8 42 82 be e2 5e 90 3d de 00 2d be e1 6f de 3d
       -0.2544167 0.070493475 -0.16894862 0.10861183
000060 95 58 08 3e 81 f2 3a be 5a 2b 3b be 6f 6b 3e be
       0.13315041 -0.1825657 -0.18278256 -0.1859567
000070 33 65 ce bd 88 e6 91 bb 69 98 07 be 92 cc c8 bd
       -0.10077896 -0.0044525303 -0.13241734 -0.09804644
000080 f2 50 3d bd f5 ab 66 3d 7b ff 96 bd 39 96 00 be
       -0.046219774 0.056316335 -0.07372948 -0.12557305
000090 34 7f 5b 3d c6 94 85 be ce 26 b6 39 7f 9c af 3d
       0.053588107 -0.26090068 0.00034742657 0.08574771
0000a0 6d d1 87 3d 72 5b fa bd 8f f0 47 3e 45 dc 80 bd
       0.06631742 -0.12224473 0.1952536 -0.06292013
0000b0 39 8b 35 3e 68 f7 15 be 39 34 a1 bd dd ee cd 3d
       0.1772889 -0.14645159 -0.07871289 0.10055325
0000c0 bd 3f 31 3e 76 5b 22 be dc 44 a7 3c d3 59 16 3d
       0.1730947 -0.15855202 0.020418577 0.036706757
0000d0 66 aa c3 bd a6 72 32 3a 26 f1 ba 3d d4 3b a4 3c
       -0.09553985 0.0006807245 0.09128027 0.02004806
0000e0 a6 f5 50 be b3 89 0e be 33 a7 86 3d 4d a6 09 3e
       -0.20406207 -0.13919716 0.065748595 0.13442345
0000f0 9e af 52 bd 24 e0 b1 3d 14 6c 61 be f7 ce fc bd
       -0.051437013 0.086853296 -0.22013885 -0.12344163
000100 2f 70 c8 bc d7 b0 80 3d b4 27 89 3e 5d 83 83 be
       -0.024467556 0.062837295 0.26788104 -0.2568616
000110 c9 2c ae bc 43 c9 52 bd b0 fd 20 3e 19 0c 81 be
       -0.02126159 -0.05146147 0.15721774 -0.25204542
000120 99 4c 23 be 87 fa e2 3d ad fb 0e be 8f e7 cf bb
       -0.15947188 0.110829405 -0.13963194 -0.0063447426
000130 f1 6c 64 3d 49 5e 68 3d 3a 7b 50 3e f8 4f de bb
       0.055767957 0.056730542 0.20359507 -0.0067844354
000140 80 7f c3 bd 24 dc 6a bd 1d d5 09 bd c7 49 b3 3d
       -0.09545803 -0.05733885 -0.033650506 0.08754306
000150 77 3c a6 bc 5c f4 6d 3e 66 6f af bc 5f a2 99 3e
       -0.020292504 0.23237747 -0.021415424 0.30006692
000160 ca ef a8 bd 91 5d 0a bd e9 90 37 3e 35 98 d9 bd
       -0.08248861 -0.033780638 0.17926373 -0.10624734
000170 d2 6c 69 bd 1b 3d 1e 3d 65 7c 83 3e 36 50 33 bc
       -0.056988545 0.038632493 0.25680843 -0.010944417
000180 ed b0 7e 3e 7a b0 f0 3d 37 6a 99 bd ca 12 02 3e
       0.2487218 0.1175241 -0.07490962 0.1270248
000190 21 a6 54 be 2a 69 67 3e 7b 15 6b 3e 56 3c fe 3d
       -0.20766498 0.2259871 0.22957413 0.12413852
0001a0 e0 ca da 3d a5 9b 48 bd 1f ae ed bd 62 71 e6 3d
       0.106832266 -0.04897656 -0.116054766 0.11252095
0001b0 be 36 e2 bd 07 26 76 bd 9c b4 ce 3d 36 07 4d 3e
       -0.110455975 -0.06009486 0.10093042 0.20022282
0001c0 61 51 dd 3d 43 2d 84 3e ba 39 8f 3e 4b 6d 77 bd
       0.108065374 0.25815782 0.2797373 -0.060406964
0001d0 c1 8c 1c bd 66 49 43 3e 2d e8 1d 3e ef 88 25 3e
       -0.03822017 0.19070968 0.154206 0.16165517
0001e0 1e c2 96 3c 64 a7 22 3d 19 f2 11 3c 13 86 61 3e
       0.01840311 0.039710417 0.008907818 0.22023802
0001f0 a6 e5 76 3e 72 1f 21 3d 28 b7 20 3e 8c 2a fd bd
       0.24111041 0.03933663 0.15694869 -0.12361631
000200 ec d9 18 3e 51 96 28 3c fa a4 11 3e 80 da e1 3d
       0.1492688 0.0102897445 0.1422309 0.11028004
000210 38 8d 64 3e 42 47 e8 bd 53 9e f2 3c 8b 13 5f bd
       0.22319496 -0.11341716 0.02961651 -0.054461997
000220 00 ab 92 3e 7d dc bc 3d 7d 4e 15 be c5 e7 30 3e
       0.28646088 0.09221742 -0.14580722 0.17275913
000230 46 65 a4 bd a3 64 27 3e ea 68 0e 3e 5a 76 3b 3e
       -0.08027129 0.16346984 0.13907209 0.18306866
000240 b0 c6 d4 3d e7 96 74 3d e2 97 c4 3c 95 61 7f 3e
       0.10389459 0.059714224 0.023998205 0.24939568
000250 5c 4d b0 bd 38 a5 6b bc a0 0c 07 3d 38 0b 0e 3e
       -0.08608505 -0.014382653 0.032971025 0.13871467
000260 06 e5 58 3e 71 81 14 be 61 bc 4b 3e 4e cb 5b 3e
       0.21181116 -0.14502503 0.1989608 0.21464273
000270 35 7c 88 3e e1 f8 04 3c 7f 79 3b bd 6f 55 74 bd
       0.26657262 0.008115978 -0.045770165 -0.05965179
000280 21 7e 14 be 69 7d 41 3e 37 e9 ef bd d5 39 0f 3c
       -0.1450124 0.18895496 -0.11714404 0.008741816
000290 d2 59 7a bd dc 02 0e 3e 7c 21 39 be a4 57 73 3e
       -0.061120816 0.13868278 -0.1807918 0.23763901
0002a0 3c 47 a1 3d bd df 04 3e 95 f4 c2 3d 29 16 c3 bc
       0.07874915 0.12975974 0.095193066 -0.023814278
0002b0 69 e0 6a bd ca d1 2b 3e bd ef 31 3e e7 e2 cd bc
       -0.05734292 0.16779247 0.17376609 -0.02513261
0002c0 02 2a 42 3e d8 cd fd 3d 0b cd 55 be ba 88 c2 bd
       0.18961337 0.12392777 -0.20878999 -0.09498735
0002d0 c3 a8 34 3e a8 ed e7 bd f1 03 13 3e 97 aa 5c bc
       0.17642502 -0.11324626 0.14356972 -0.013468406
0002e0 95 ef c4 3d 16 c7 c2 bc 6a cf aa 3c 3b 80 03 be
       0.09616009 -0.023776572 0.020850856 -0.12841885
0002f0 c5 e4 0a 3b 41 ae 96 bd a7 84 c5 bd 77 3a 15 3e
       0.0021193486 -0.07357455 -0.09644442 0.14573084
000300 0e bc 40 3d 2e f8 69 be e1 09 26 be 30 28 c6 3d
       0.047054343 -0.2284858 -0.16214706 0.09675634
000310 c7 ba 9c 3d e4 3d f6 bd 85 18 c7 3c b5 be 18 be
       0.076528125 -0.120235234 0.024303684 -0.14916499
000320 cd 27 8f bd 85 53 9b 37 c4 17 02 be 20 c3 48 be
       -0.06990013 1.8516332e-05 -0.12704378 -0.19605684
000330 33 69 06 be 44 e8 b2 bb 31 79 19 bd a9 25 79 bc
       -0.13126068 -0.005459817 -0.037469093 -0.015206733
000340 23 73 84 bc c0 f9 2a be 46 1a 5f 3d 75 31 6b 3d
       -0.016168183 -0.16696835 0.054468416 0.057420213
000350 0a ce bb 3c c2 7b 0a be e4 10 11 3e fa 51 84 bd
       0.022925396 -0.13523772 0.141666 -0.06460948
000360 62 e3 96 bc 14 7f 82 3b b1 26 1b 3e 99 39 1c be
       -0.018418971 0.003982434 0.15151478 -0.15256347
000370 8a 7a 58 bd bf 21 30 be f4 d8 22 3e 67 71 9a be
       -0.052851237 -0.17200373 0.15903074 -0.30164644
000380 07 8c 83 3d 6b 7e a0 bd 45 69 1d 3d ac 68 93 3d
       0.064231925 -0.07836612 0.03843047 0.07197699
000390 a4 55 9a be 2d 3c 38 3d 5e 43 f2 3d e8 d4 2b 3d
       -0.30143464 0.044979263 0.118292555 0.04195109
0003a0 8d 04 0c 3d 63 2b e4 bc 3d 62 71 be 7c 64 bb bd
       0.034184027 -0.02785272 -0.23572631 -0.09150025
0003b0 69 fc 9f bd f0 a1 dc bd 11 f7 c0 bd 74 48 54 be
       -0.07811815 -0.107730746 -0.09422124 -0.20730764
0003c0 4b 31 1b 3c 5b 5f 34 be 0e d0 0d be e6 f2 92 3c
       0.009472202 -0.176145 -0.13848898 0.017938089
0003d0 a5 9c 68 3d 1d 3f b4 3d 09 b1 71 3d 02 a4 00 be
       0.056790013 0.088011004 0.059006725 -0.12562564
0003e0 d4 8c 84 bd 85 e2 cf 3d c1 2a fc bd 2d eb 22 be
       -0.06472173 0.10150627 -0.12312842 -0.15910025
0003f0 3b 2f d9 bd 52 b4 ac 3c 9d 98 31 3e ba 46 ae bd
       -0.106047116 0.021082077 0.17343374 -0.08509584

conv3.bias f4 [128]
000000 6c 80 6d b7 cd aa e7 37 31 a7 f8 b7 4b 58 96 35
       -1.4156201e-05 2.7616881e-05 -2.9641758e-05 1.1201568e-06
000010 85 a6 86 b7 e5 b2 c3 b6 d4 10 8c 37 64 9c 8d b7
       -1.6051586e-05 -5.832279e-06 1.6697137e-05 -1.6881335e-05
000020 62 b3 f9 b6 f9 ab f7 b7 63 ce 07 b8 61 67 a9 b5
       -7.441661e-06 -2.9524776e-05 -3.237872e-05 -1.2621568e-06
000030 01 4b 46 36 1d 2b 92 b6 4c 1a ea b7 db b9 4b 36
       2.9547957e-06 -4.356158e-06 -2.790722e-05 3.035754e-06
000040 c6 bd 9c 35 98 2a a0 37 a3 7d 47 35 40 6b 59 37
       1.1678137e-06 1.909332e-05 7.43161e-07 1.2959179e-05
000050 a9 d9 88 b7 1a dd 73 37 b7 05 c9 b6 16 39 a0 b6
       -1.631382e-05 1.4535408e-05 -5.990932e-06 -4.7750173e-06
000060 bf 83 2c b7 0d 28 33 b8 a8 87 cf 35 f4 d8 a1 b6
       -1.0282673e-05 -4.2714226e-05 1.5462183e-06 -4.8234306e-06
000070 44 60 49 b7 8c 5c 9a b7 ab ff 49 b7 b7 b0 5d b7
       -1.2002947e-05 -1.8401326e-05 -1.2040061e-05 -1.3213771e-05
000080 87 2f d8 b6 bb ce 35 b8 39 1d 6f 37 fb 98 09 35
       -6.4428345e-06 -4.3346296e-05 1.4252314e-05 5.1259093e-07
000090 9a e6 ec b6 50 a5 44 b7 30 ab 1c b6 ab d2 34 37
       -7.0601936e-06 -1.1721e-05 -2.3345456e-06 1.0777886e-05
0000a0 37 b1 f3 36 83 55 ce b7 4b 50 c8 b7 f6 72 88 b6
       7.262595e-06 -2.4596933e-05 -2.3879247e-05 -4.066499e-06
0000b0 30 17 73 b8 e8 94 13 36 91 08 f6 b6 c6 10 4d b7
       -5.795731e-05 2.1991382e-06 -7.3323686e-06 -1.2222858e-05
0000c0 00 b7 13 b7 e3 08 d4 35 0f d0 3b b7 84 89 98 35
       -8.804491e-06 1.5797817e-06 -1.1194511e-05 1.1364905e-06
0000d0 31 b9 92 b7 b6 c7 0d b8 dd d1 1a 37 03 ab 35 b5
       -1.7490793e-05 -3.3803015e-05 9.227978e-06 -6.767661e-07
0000e0 34 b2 ba b6 22 cc 85 37 f9 52 f2 b7 9b 76 e0 b5
       -5.5639775e-06 1.5949892e-05 -2.8887285e-05 -1.6723819e-06
0000f0 59 f0 c4 b5 6d 1b 31 b7 e8 a0 57 b8 04 cf e4 35
       -1.4673088e-06 -1.0556408e-05 -5.140985e-05 1.7047573e-06
000100 c7 98 61 b6 77 e2 0a b7 1b 20 0f b8 e9 e5 32 37
       -3.361654e-06 -8.278169e-06 -3.4123757e-05 1.0663157e-05
000110 d1 76 b4 37 e1 bd 4a 37 02 32 2b b8 b4 c9 9b b7
       2.1513e-05 1.2084348e-05 -4.081615e-05 -1.8571365e-05
000120 5b 07 aa b6 74 93 43 37 ee 7c 26 b6 8a 51 d4 b6
       -5.067251e-06 1.1657237e-05 -2.4808646e-06 -6.3275847e-06
000130 ee 93 c0 b6 ff bb d5 b6 7d 19 cf b6 d0 ee 62 37
       -5.739267e-06 -6.3697803e-06 -6.172048e-06 1.3526253e-05
000140 ae c4 1a b6 aa ae b9 36 35 29 3a 37 dd 41 d3 36
       -2.306227e-06 5.533763e-06 1.1096058e-05 6.2959575e-06
000150 6e 91 a4 b7 f6 50 84 b6 41 f0 92 37 c7 17 29 37
       -1.9618044e-05 -3.9433316e-06 1.7516433e-05 1.0078721e-05
000160 89 58 c4 35 bb 0d aa b6 31 a0 18 b7 42 a6 be 36
       1.4628905e-06 -5.0679932e-06 -9.0972035e-06 5.681796e-06
000170 4a 4c 8d b7 73 20 81 b8 5f 1d f7 36 5e 79 89 b7
       -1.6844035e-05 -6.1572435e-05 7.364593e-06 -1.6388189e-05
000180 2f b5 bd b7 a0 9f ce 37 d4 65 47 b6 09 71 d5 36
       -2.2614926e-05 2.4631445e-05 -2.9712583e-06 6.3610537e-06
000190 c7 8c 70 b7 c4 e6 06 38 d3 a9 3b b8 b7 aa 6a b6
       -1.4337892e-05 3.2163007e-05 -4.4742435e-05 -3.4968086e-06
0001a0 97 bd 4e 34 9f 5d 29 37 66 2e 09 38 9b 25 92 b6
       1.9254217e-07 1.0094983e-05 3.2706557e-05 -4.355517e-06
0001b0 e2 50 96 35 7a 20 c9 36 f5 03 b1 b7 01 82 94 37
       1.1199411e-06 5.9940476e-06 -2.1101887e-05 1.7703513e-05
0001c0 82 40 ab b7 89 8a eb 36 23 9a 20 b7 d1 30 38 38
       -2.0414827e-05 7.0196734e-06 -9.572631e-06 4.3914482e-05
0001d0 8e 38 ef 37 fa 8e 0b 37 e2 96 83 37 e1 13 f4 b5
       2.8517356e-05 8.318335e-06 1.5686677e-05 -1.8185202e-06
0001e0 b3 4e 30 b7 04 f1 8b b7 1d 30 98 36 32 ac d8 b6
       -1.0508741e-05 -1.6682323e-05 4.535554e-06 -6.457348e-06
0001f0 11 5d e3 35 a7 50 c5 b6 c5 b6 b5 b4 d3 eb 6e 36
       1.6939904e-06 -5.8804467e-06 -3.384686e-07 3.5602031e-06

conv3.lin.weight f4 [128, 64]
000000 a3 3b 81 bd 1b c6 3b be 0e dd 71 be 68 15 0f be
       -0.06310203 -0.1833729 -0.23619482 -0.1397301
000010 8a e5 e9 3b 35 e9 2f 3e a8 38 dc 3d ac 58 29 be
       0.007137959 0.17178805 0.10752994 -0.16537732
000020 de 74 a3 bd 3d 7b 9d bd 49 90 a8 bd 78 39 e3 bd
       -0.07981275 -0.076895215 -0.08230645 -0.11094946
000030 3f 9a 09 3e 35 75 32 3e f6 12 1e bd 51 2e 4c be
       0.13437746 0.17427523 -0.0385923 -0.19939543
000040 95 92 52 3d 5d d0 ce 3d f1 17 2e bd 61 d5 12 be
       0.051409323 0.10098336 -0.0425033 -0.1433921
000050 7c ce 34 bb 6a f7 28 bd c4 5d 0a bd a6 fc 2d 3d
       -0.0027588895 -0.041251577 -0.033780828 0.042477272
000060 d8 e4 9c bc c5 e2 54 be d6 a7 c4 3d 07 44 02 bd
       -0.01915209 -0.2078963 0.09602325 -0.031803157
000070 64 81 a7 bd 83 e7 00 be fc 85 0d 3d 94 5e 05 3d
       -0.08178976 -0.12588315 0.034551606 0.0325609
000080 df 24 2c bd 01 03 fb bc ef cf 4c 3c 8d 89 89 bc
       -0.04202735 -0.03064108 0.012500747 -0.016789222
000090 ed 62 06 3e 0e 96 b9 bd 3f 40 22 3e 7d cf 75 bc
       0.13123675 -0.09061824 0.1584482 -0.015003082
0000a0 3e b6 db 3b fb 82 05 be ee 99 2b 3e d6 2a 2f bd
       0.0067050746 -0.13038246 0.16757938 -0.04276546
0000b0 3b 8e 04 3e e2 18 01 3c f9 1a 12 3c 27 f6 2e 3b
       0.12944882 0.007879468 0.008917564 0.0026697011
0000c0 70 b8 1b 3d 5f a3 fc bd 1f 42 99 3d ed 38 2d bc
       0.03801769 -0.12335848 0.07483315 -0.010572654
0000d0 a0 57 a5 3d 73 ac 83 3d ad 63 04 3e d2 8b 46 3d
       0.08073354 0.064293765 0.12928648 0.048473187
0000e0 d8 b3 75 bc aa 2e 32 be 79 85 88 3c 3e 23 69 be
       -0.014996491 -0.17400613 0.016665207 -0.2276735
0000f0 6f 0a 13 be 17 7b e8 bd 1b 85 1c 3e ee ba cb 3a
       -0.14359449 -0.113516025 0.1528515 0.001554338
000100 a7 2b aa bd 4c e6 1a be ba f9 e5 3d 2f a8 da bc
       -0.08309107 -0.15126914 0.11229272 -0.026691524
000110 09 a3 17 3d aa f7 a3 bc 52 4e 00 be 58 db 55 3d
       0.037020717 -0.020015556 -0.12529877 0.052211136
000120 72 b7 db bd f6 13 2b bd b0 38 44 be 66 ad d6 3d
       -0.10728349 -0.041767083 -0.1916225 0.10482292
000130 e4 ba 1b bc a9 bb 69 3c b1 a7 f7 3c 5f 34 ef 3d
       -0.009505007 0.014265933 0.030231329 0.11679911
000140 bd 13 08 bb 6d 93 2c bd 31 5f 66 bd 44 0e 09 be
       -0.0020763718 -0.042132784 -0.056243125 -0.13384348
000150 48 96 b2 3d 8e 3e b9 3d 71 8f 2d be ec ac d3 3d
       0.0872007 0.090451345 -0.1694925 0.103357166
000160 1f 89 17 3d 79 33 58 3e 6a 11 62 bd a4 76 e3 bd
       0.036996003 0.21113385 -0.05519239 -0.11106613
000170 04 3f bf 3d 94 0d e9 3d 2d 6a 7a 3d b6 ce 99 bd
       0.09338191 0.11379543 0.061136413 -0.0751013
000180 fd bd 16 3e 48 0b 52 bd 06 7c 22 3d ce 6c 96 bd
       0.14720912 -0.05128029 0.03966906 -0.073449716
000190 ed 43 15 3e a3 12 f9 3d ac 2d 0d be 1f ce 4c 3e
       0.14576693 0.12161758 -0.13786954 0.20000504
0001a0 17 d2 7d 3d 7b 80 8d 3e 33 2f 5e 3d 62 11 57 bc
       0.061967935 0.27637085 0.05424423 -0.013126703
0001b0 0b 68 b4 bc a2 0b 29 be 2a e3 23 be 07 ef 2c bd
       -0.022022268 -0.16508344 -0.16004625 -0.04222014
0001c0 dd a5 1e 3d 87 99 dc 3d 3f 58 ff 3d 2d f9 9c bd
       0.0387324 0.107714705 0.124680035 -0.07664714
0001d0 23 47 7b 3d 98 8d f8 3d 40 95 6b 3c f2 b4 38 3d
       0.061347138 0.12136382 0.014378846 0.045094438
0001e0 1d 61 53 be f8 29 75 3e ec 7f 34 be cf 57 ef bd
       -0.20642515 0.23941791 -0.17626923 -0.1168667
0001f0 6c 72 3e 3d 9a 13 e3 bc 66 51 e8 3d 93 a5 61 3d
       0.04649584 -0.027719308 0.113436505 0.055089545
000200 03 f1 8a bc 48 eb 3f 3d 1e eb 5a 3e b9 c3 7c 3c
       -0.016960626 0.04685524 0.21378753 0.015427523
000210 5c 67 87 bd 49 eb ad 3d b3 6e 96 3d 95 b8 60 bd
       -0.06611511 0.08492143 0.07345333 -0.05486353
000220 c5 7b 99 3d c5 90 03 3e 36 35 ad bb 3d ca 5d 3d
       0.0749431 0.12848194 -0.0052858843 0.054147948
000230 1a ab 7f 3c c2 37 dc 3d 71 34 53 3e 09 aa 00 3e
       0.015604759 0.107528225 0.20625474 0.12564863
000240 08 7b 44 bd 8a 22 00 3e 1d 94 a4 bd 5b ec 0d bd
       -0.047968894 0.12513176 -0.08036063 -0.034649234
000250 d5 0b 2f bd cf f8 81 3c 44 ec 11 be cc e7 1e 3e
       -0.042735893 0.015865711 -0.14250284 0.15518111
000260 ca aa 3e be 00 70 b6 3d 53 f6 3f 3e f0 fb b5 3d
       -0.18619838 0.08908081 0.18746309 0.08885944
000270 18 e6 c6 3c 18 e9 e7 3c 21 47 08 3e 6c ae 85 bc
       0.02427964 0.02830939 0.13308384 -0.016318522
000280 e1 61 35 3e 28 99 65 bd 4d f0 e5 3c 70 a9 09 3e
       0.17713119 -0.056054264 0.028068686 0.13443542
000290 2a 3e a1 3d e5 ed 5b 3c ab a1 59 bd 42 77 89 3d
       0.07873185 0.013423418 -0.053132694 0.067122
0002a0 44 11 13 3e 20 6c 23 3d 23 41 5b 3e d9 99 21 3e
       0.14362055 0.039898038 0.21411566 0.15781344
0002b0 7b 33 6e 3e dd eb cf 3d cd 47 81 bc b1 dc 8e 3c
       0.23261826 0.10152409 -0.015781308 0.017439218
0002c0 a7 9e 50 3e da a1 cc bd bf ee cf 3d 9b 8c 1f 3d
       0.20373021 -0.09991808 0.10152959 0.03895245
0002d0 7b c4 b9 bd c9 37 1e 3e ec b0 f0 bc 3d 63 49 3e
       -0.09070679 0.15450968 -0.029381238 0.19666763
0002e0 ad a3 21 be a1 cd 30 bd 06 47 75 bd 1d 8d 8e bc
       -0.15785094 -0.043164853 -0.059882186 -0.017401272
0002f0 8a c8 2d 3e 55 2a 05 3e 54 34 f4 3c 3f a9 de 3d
       0.16971031 0.1300443 0.029810108 0.10872125
000300 87 4e 0d 3b 2b 2f 33 bb 04 8c f5 3b d4 76 0b be
       0.0021561699 -0.0027341347 0.007493498 -0.13619548
000310 87 39 9a 3d 5d be 3a 3e 0f e1 66 3e 29 c0 ef 3c
       0.07530504 0.1823668 0.2254679 0.029266434
000320 b6 78 5b 3e 3a ae e1 bd 7f 40 65 bd a5 fd 25 be
       0.21432766 -0.11019559 -0.05596971 -0.16210039
000330 88 50 43 bd bc a1 f1 3d 8c f5 22 be 37 cd 5a bd
       -0.047684222 0.117984265 -0.15913981 -0.053418364
000340 b5 95 2e bc 8f d3 9a 3c 10 23 57 be 00 2f bb 3d
       -0.01065581 0.018899707 -0.21009469 0.09139824
000350 48 08 47 3e 95 a0 ef bd a6 b7 b2 bd d6 18 e4 bb
       0.19436753 -0.117005505 -0.087264344 -0.0069609685
000360 66 62 3c 3d 31 e9 5a bd 53 bd 4f bd 86 af 2a be
       0.045992278 -0.053445045 -0.050717663 -0.1666852
000370 24 46 99 3d 0f a4 b1 3c 89 f3 c9 bd 9d 35 51 bd
       0.074840814 0.021684675 -0.09860904 -0.05107652
000380 8a 0a cc 3b ed c4 1d 3e 11 6f 1f bd 59 76 38 bd
       0.0062268423 0.15407152 -0.03892428 -0.04503474
000390 63 e5 5a 3d 01 2e 16 be 2d 33 3a 3e 7c b8 d7 3d
       0.053441416 -0.14665987 0.18183585 0.105332345
0003a0 59 c1 4f 3d 1d 3e 47 be aa 25 4d be d4 e1 f1 3d
       0.0507215 -0.19457288 -0.20033899 0.118106514
0003b0 51 f3 bc 3d cc e8 0b 3e cb af ea bd 71 c7 1d be
       0.092260964 0.13663024 -0.11459311 -0.15408112
0003c0 fd 92 47 bd f1 9e 52 bd 5f 56 0f be 7a 1a f2 bd
       -0.048724163 -0.05142111 -0.13997792 -0.11821456
0003d0 4f fb 14 3e ef fe 6f 3c a7 63 47 3b 1c 18 ab bd
       0.14548992 0.014648183 0.0030424388 -0.08354208
0003e0 6d 4a 3d 3d df 2c 6f 3d bc e4 5c be bd 72 98 bd
       0.046213556 0.0583924 -0.2157163 -0.074437596
0003f0 7e 7d 19 3e 97 c5 ed bd ee 4e 5c 3c 32 c6 ad bd
       0.14989278 -0.11609953 0.013446553 -0.084850684

conv4.bias f4 [256]
000000 72 55 b7 3d eb ce 01 bd 13 be a9 3d 59 f5 23 bd
       0.08951844 -0.031691473 0.08288207 -0.040028904
000010 a0 4f 11 bd a5 33 a6 bd 71 56 d9 bd bb 9a e6 bd
       -0.035476327 -0.08115319 -0.106121905 -0.11259981
000020 5f c1 d4 3d 60 d9 1a be 39 35 8f 3d a0 6d 1e 3c
       0.10388445 -0.15121984 0.06992573 0.009669691
000030 dd 3a 2f bc 1d 72 8d bd a7 00 17 3d 73 84 b6 bd
       -0.010695186 -0.06906531 0.036865856 -0.089119814
000040 c8 2b a6 3b 92 0b 92 bc 35 d9 f4 bd 55 4d 4e 3d
       0.005071137 -0.017827783 -0.119554915 0.05036672
000050 4d cf 02 bd 81 0d c9 bc 80 60 c0 3c 58 92 13 be
       -0.03193598 -0.024542572 0.023483515 -0.14411294
000060 ea 51 d9 bd 29 75 f6 3a 4a 52 c7 bd 11 38 87 bd
       -0.10611327 0.0018803227 -0.09732492 -0.06602491
000070 2a f0 da bc 11 be 94 3d 7b ab 46 3d 1a b6 5c 3c
       -0.026725847 0.07262815 0.04850338 0.013471151
000080 e3 f9 17 3d 8d 0c 44 3d d5 08 02 bc 5c c7 1b be
       0.037103545 0.04786353 -0.007936676 -0.15212768
000090 b0 77 9d 3d 57 0c bc bd 49 bc 40 bb 71 d5 65 3d
       0.07688844 -0.09182041 -0.0029409102 0.056111757
0000a0 b4 1e 49 bd 7a 8e 27 3d db 6f 36 3d 5f b2 17 be
       -0.049101546 0.04090736 0.044540267 -0.14814137
0000b0 5e 11 f7 bb a9 c0 79 bc d2 e4 38 be 42 a4 90 bc
       -0.007539912 -0.015243688 -0.18056038 -0.01765645
0000c0 3c 0c 57 bd 01 6c 93 3d 75 e9 50 be 73 e6 24 3e
       -0.052501902 0.071983345 -0.20401557 0.16103534
0000d0 02 36 d6 bc 5c 9e f5 3b 66 ee b4 3c 4b 80 58 be
       -0.0261488 0.0074956845 0.022086333 -0.2114269
0000e0 92 cc 52 3d 80 2b 22 bb ef 7b bf 3c e3 54 0a bd
       0.051464625 -0.0024745166 0.023374526 -0.03377236
0000f0 63 c9 33 be cf ac f6 bd 3e ca 7e 3c bf 6b 8c 3d
       -0.17557292 -0.120446794 0.015551148 0.068564884
000100 bb d7 f1 bd fa be 59 3c 8b d0 35 3e 5d 30 cc bc
       -0.118087254 0.013290161 0.17755334 -0.024925405
000110 24 08 8c bd 13 be 06 3d 02 98 0d 3e 07 ad 9c 3d
       -0.0683749 0.032896113 0.13827518 0.0765019
000120 d2 17 e4 3c b1 4e 2c bd 04 db 53 3d b8 bc fc 3b
       0.02784339 -0.042067233 0.05172254 0.0077129267
000130 9c 61 bd bc ed 1b 03 be 08 e8 37 3d be da dd bd
       -0.023117833 -0.12803622 0.044899017 -0.108327374
000140 2e c9 dd 3d 43 fd 15 be 23 16 a1 3d 3a 99 3b bd
       0.108293876 -0.14647393 0.0786555 -0.045800425
000150 96 25 55 be 19 b7 82 3c 89 18 6d 3d ee 11 a2 3d
       -0.20815119 0.015956448 0.057884727 0.07913576
000160 40 14 88 bd 81 95 97 bb f2 19 03 bc f2 78 3b be
       -0.066444874 -0.0046259766 -0.008001791 -0.18307856
000170 06 29 82 bb 9e 86 50 3d c8 d8 8c 3d 28 12 8c 3a
       -0.0039721755 0.05090963 0.06877285 0.0010686563
000180 ee e2 31 3c 1c 4f e8 3c 51 fc c2 bc c6 f4 8f bc
       0.010857327 0.028358035 -0.023801954 -0.017572772
000190 60 53 83 3c 75 a4 3c 3b 5b 1c dc 3c 58 91 58 bd
       0.016030967 0.0028784547 0.02686899 -0.052872986
0001a0 ba eb 45 3c 6b d4 43 3d b6 33 a5 bd c4 43 c2 bc
       0.012080127 0.04781 -0.08066504 -0.023713954
0001b0 b2 07 03 3d c9 16 80 bb ce 48 7a 3b fc 5b 1d bc
       0.03198976 -0.003908966 0.0038190368 -0.00960445
0001c0 c6 f0 d4 3c 5d 1a 9c bb cf 3f e6 3c a0 70 bd ba
       0.025993716 -0.004763885 0.028106598 -0.001445312
0001d0 ba c8 3a bd 4b ba a5 bd 08 18 ae 3d 64 9e cc bc
       -0.045601584 -0.08092173 0.08500677 -0.02497787
0001e0 78 20 24 bc 98 91 92 3d b1 cb 61 3d de 83 fb bc
       -0.010017507 0.07156676 0.055125896 -0.030702528
0001f0 e5 5d cb 3c 6b 24 1c 3d 04 65 88 bd e7 1e 55 3d
       0.024825046 0.03812067 -0.06659892 0.052031424
000200 9e da 41 be 45 ae 5d 3d 9c c1 60 bd c9 7b 78 3d
       -0.18931052 0.054121275 -0.05487214 0.060664926
000210 b4 58 66 3d b0 b2 b8 bc 4b 7b cc bd 50 25 6b 3d
       0.056236938 -0.022546142 -0.09984454 0.05740863
000220 58 64 93 bd 9e f2 1d 3d 05 ac 8a bd 74 6d 4b be
       -0.071968734 0.038561456 -0.06771091 -0.19865972
000230 3b 88 85 bd f6 a2 08 3d 4e 61 7f bd 18 01 02 be
       -0.065201245 0.033358537 -0.062348656 -0.1269573
000240 80 e6 38 bd d3 37 4c b9 d4 31 1f bd 15 f7 ef bd
       -0.045141697 -0.00019475752 -0.03886588 -0.11717049
000250 7f 98 dd 39 40 ce a4 bd bc f2 58 3e 7b fc 1a 3d
       0.00042266023 -0.080471516 0.21186346 0.03783844
000260 ec 62 d7 3d 8b 66 ff bc bc 64 c5 3d 3b 3a 96 bc
       0.10516915 -0.031176826 0.09638354 -0.018338313
000270 aa 01 19 3d 17 c5 ce 3c 63 1d ce bc b9 e4 07 be
       0.037355103 0.025240464 -0.025160497 -0.13270845
000280 b0 49 81 bd e7 bb 9a bd a2 c5 6d 3d 7f 6a 37 be
       -0.06312883 -0.07555371 0.058049805 -0.17911719
000290 61 94 43 3d f8 a4 cc 3b 8a db 86 3d fc 3c a1 3d
       0.047748927 0.0062452517 0.065848425 0.0787296
0002a0 58 02 74 be 39 55 75 bd a3 de 70 3d 45 05 a2 bd
       -0.23829019 -0.059895728 0.058806073 -0.07911161
0002b0 f7 80 3c 3d b4 b5 40 bd 5b c5 a3 bd dd c2 05 bb
       0.046021428 -0.047048286 -0.07996627 -0.0020410337
0002c0 85 2f 72 be a9 38 be bd ee 41 20 be 85 4b 0d 3d
       -0.2365094 -0.09288151 -0.1565015 0.03449585
0002d0 76 3c 62 3d a4 51 74 bd 8e ee 1a 3c dd df 4a bd
       0.05523344 -0.05964817 0.00945629 -0.0495299
0002e0 89 0d 05 be c0 a2 09 3e 6d 70 51 be ae 6a d0 bd
       -0.12993445 0.1344099 -0.20453043 -0.101765975
0002f0 77 cb 73 bd d4 72 b5 bb f6 fe 70 bb c8 e7 2c bc
       -0.05952021 -0.00553737 -0.0036773062 -0.010553308
000300 78 d0 bb bd f6 6e 1f 3b d4 87 73 be 5f fa 05 3d
       -0.09170622 0.0024327612 -0.23782283 0.032709476
000310 87 9d 4c bc 1a 70 f1 3c ac 1a 11 be 21 da 9b bd
       -0.012488729 0.0294724 -0.14170331 -0.07609964
000320 70 6f 95 3d ff 92 44 bb 4b 77 93 bc d9 d0 62 3d
       0.07296646 -0.0029994843 -0.01800122 0.055374954
000330 7c ca f4 bc 45 03 86 bb 74 9b 26 3d 1b 7b 0b 3c
       -0.029881708 -0.004089745 0.040675595 0.008513237
000340 d2 1a 42 be 77 04 a9 3d 0e 69 28 3d 66 b5 c0 bd
       -0.18955544 0.08252805 0.041115813 -0.09409599
000350 4b 28 e7 bd fa 18 dd bd fe 3b 38 3c 09 fa de 3d
       -0.11286982 -0.107957795 0.011244772 0.10887534
000360 77 67 bf 3d 9e 29 2f bd 8a 97 db bd 73 f4 ec ba
       0.09345906 -0.0427643 -0.10722263 -0.0018078223
000370 4b 59 17 be ed cc f2 bc 60 9f 0d be 6c 17 31 bd
       -0.14780156 -0.029638732 -0.13830328 -0.043235227
000380 f4 70 c5 3c 77 e0 90 bc 6f 13 e8 3c 5c d2 dc bd
       0.024101712 -0.017685158 0.02832958 -0.1078231
000390 03 07 1a be 7b a4 1c bd 0f f9 33 3d 7d 79 67 bd
       -0.15041737 -0.0382428 0.043938693 -0.056512345
0003a0 a2 7e 5a bd 2f 23 89 bc 9b 4a 2a be a8 b3 28 3d
       -0.053343423 -0.01674041 -0.16630022 0.04118696
0003b0 d8 cc bc bd c6 e4 35 3d 84 b9 b6 3d 03 41 ae 3b
       -0.09218758 0.04440763 0.08922103 0.0053178086
0003c0 36 74 13 3d 7c 65 86 3b 00 c2 06 bb d2 34 83 3d
       0.0359995 0.0041014533 -0.002056241 0.06406559
0003d0 16 5b 65 3d c8 a5 c7 bc 44 93 ad bd d9 4b df bc
       0.05599507 -0.024371043 -0.08475354 -0.027257847
0003e0 82 0c 4f be a0 18 15 be 0f 57 22 be f5 a3 70 3d
       -0.20219615 -0.14560175 -0.15853523 0.05875011
0003f0 5d ed 5f bd da 5c 31 bd 6e c2 2e bb 17 db a1 3d
       -0.054669727 -0.04330144 -0.0026666182 0.07903116

conv4.lin.weight f4 [256, 128]
000000 46 98 7d bd e2 87 83 bd 79 d8 9b 3d 99 b2 8a 3d
       -0.061912797 -0.06422402 0.07609648 0.06772346
000010 94 7a f6 3d 5c 5a 93 bd cd ea 27 be 5c 17 00 be
       0.12035099 -0.07194969 -0.16398163 -0.12508911
000020 ed 72 9f bd 81 2d ac 3c 3a 79 29 3d 63 1b ce bc
       -0.07785592 0.021017792 0.041375376 -0.025159543
000030 a2 01 8a bd dd d5 9e 3d d4 9a df 3d 04 c1 0c 3d
       -0.06738593 0.07755635 0.10918203 0.03436376
000040 44 b4 7f bd ab 84 0f bd b5 f9 9e bd 45 42 03 bd
       -0.062427774 -0.03503863 -0.077624716 -0.03204562
000050 14 1f 28 3c d7 5f 38 bd b1 cd e6 bd 47 3a 9d 3d
       0.010261316 -0.045013275 -0.11269701 0.07677131
000060 b3 dc d4 bd 11 0a a7 bd a0 5e cd 3d 0e 42 2f bd
       -0.103936575 -0.08156217 0.10027814 -0.042787604
000070 e1 de db 3d 43 c9 6a 3c 12 f0 b7 3b f0 90 b8 bd
       0.1073587 0.014330211 0.0056133354 -0.0901202
000080 07 f3 86 3d 26 48 0b be 4e c2 83 bd 4c 35 74 bd
       0.065893225 -0.13601741 -0.06433545 -0.05962114
000090 c4 66 e8 bd 88 80 3b bd f6 02 b8 bd 7f 24 9c bd
       -0.11347726 -0.045776874 -0.0898494 -0.076241486
0000a0 03 1d a0 bd 97 d5 a3 3d 8d eb 51 bd 8e 85 38 3d
       -0.078180335 0.079997234 -0.05125003 0.045049243
0000b0 ef 92 0e 3d 66 84 b3 bd 85 76 0d 3d cc 26 3f 3d
       0.034808096 -0.087654874 0.034536857 0.04666786
0000c0 7b e8 0f 3d eb 79 05 bd b2 20 25 3d b6 1a 4c 3b
       0.03513382 -0.032586973 0.040314384 0.003114385
0000d0 dc 30 66 bd 60 30 1c 3a e6 02 df 3d 3b 7f 1d be
       -0.05619894 0.0005958136 0.10889225 -0.15380566
0000e0 e4 47 50 bc e3 fe 14 be 9c 63 79 bd 8c 74 a7 bd
       -0.012712453 -0.14550357 -0.06088601 -0.081765264
0000f0 c4 55 b2 bc 2c 9e 1b be 92 5d 1c 3d 3c 14 a0 3d
       -0.021769412 -0.15197057 0.038175173 0.078163594
000100 27 3f 7e 3d 0c ac 87 3d 89 fe a0 bd 8b e9 b6 bd
       0.062071946 0.06624612 -0.07861049 -0.089312635
000110 21 fc 8b 3d e0 40 9e bd 45 4c ed bd 27 70 32 3d
       0.06835199 -0.07727218 -0.11586813 0.043563988
000120 8e be 19 3e ae 75 e6 bd 4f 69 df bd 63 4f 0c bd
       0.15014097 -0.11252914 -0.10908758 -0.034255397
000130 bd f4 3a 3d 6f 9a 0e bd 54 ab 40 bc 29 7c e7 bd
       0.045643557 -0.034815248 -0.011759598 -0.113029785
000140 13 48 8a 3d f8 31 03 be 64 e5 b5 3d b0 c8 b3 3d
       0.06752028 -0.1281203 0.088816434 0.087785125
000150 90 93 5f bd 0f 15 c6 3d a8 bd e6 bd 14 3a 15 be
       -0.054584086 0.09671985 -0.11266643 -0.14572936
000160 36 0f 24 3d 9e 68 78 bd b1 d1 bb bd 4b 0a e8 bd
       0.04005357 -0.060646646 -0.09170855 -0.11330088
000170 b1 a3 2b bd 43 5e 16 3d de 59 dc bd aa 6a 62 bd
       -0.041904155 0.03671099 -0.10759328 -0.055277504
000180 a7 f0 ad 3c a1 bf b6 bc f0 90 ef bd 88 cd 29 bd
       0.021232916 -0.022308173 -0.116975665 -0.041455775
000190 f1 70 c3 3d 35 5d 87 3d ac 7c 97 3d ad 2d 90 3d
       0.09543026 0.06609575 0.07396826 0.07039962
0001a0 3c 51 fc bd 93 01 e9 bc 38 53 a8 bc 90 3f d3 bd
       -0.12320182 -0.028443133 -0.020547494 -0.10314858
0001b0 ec f9 43 bd 16 db 83 bd 81 10 92 3d b0 8d 8b 3d
       -0.047845766 -0.06438272 0.07132054 0.06814134
0001c0 26 52 ef 3d f6 a4 90 3d a2 e7 de bd 4d 84 97 3d
       0.116855904 0.07062714 -0.10884024 0.07398281
0001d0 93 50 0c be 76 71 77 3c 42 11 f7 bd 09 c8 ac 3d
       -0.13702612 0.015102735 -0.120638385 0.08436591
0001e0 2b 5b ab bd 45 2d 43 bc 37 82 3d 3b 95 ba 74 bd
       -0.08366998 -0.011912649 0.0028916725 -0.05974825
0001f0 a1 88 aa bd 09 24 88 3d c9 67 e3 bd d0 97 bf bd
       -0.08326841 0.06647498 -0.1110378 -0.09355128
000200 8e e0 a4 3d d5 66 06 be a5 ce ce bd 51 d3 bc 39
       0.08050643 -0.13125165 -0.10098008 0.00036015597
000210 30 0d 08 bd 3a e7 03 3d 93 3b da bc 55 53 51 bd
       -0.0332157 0.032202937 -0.026639735 -0.051104862
000220 10 ab 75 bd 30 3b 9e bd fd 69 9c bd e8 c7 e6 3d
       -0.05997759 -0.07726133 -0.07637403 0.11268598
000230 b6 cd 3d 3d 09 66 28 be 68 00 be 3d 1b 0f 63 bd
       0.04633876 -0.16445173 0.09277421 -0.055434328
000240 53 98 99 bd f9 bf 92 3d 38 ef 9c bd 21 10 8f bc
       -0.07499757 0.07165522 -0.07662815 -0.017463746
000250 3f 1b 05 be 77 e2 d1 3c 07 ee 52 bd 2c 0e 00 3e
       -0.12998675 0.025620682 -0.05149653 0.12505406
000260 68 d6 b2 3d c8 c0 0e 3d 31 ed f3 bd 02 cd 04 be
       0.08732301 0.03485182 -0.11910475 -0.1296883
000270 79 0a bc 3d 8a c3 a4 bc 35 9a 8c bd a5 d0 7f bd
       0.09181685 -0.020112772 -0.0686535 -0.06245484
000280 c0 dc 03 be 12 d6 8e 3b 99 77 a2 3c 89 34 c3 bc
       -0.12877178 0.0043590153 0.01983242 -0.023828762
000290 17 62 9b bd 0b 5a 03 be 4f e1 64 3d aa a7 06 be
       -0.075870685 -0.12827317 0.055878934 -0.13149896
0002a0 41 bc cb bc 35 17 e7 3d 96 14 55 bc 28 5a d8 3c
       -0.02487004 0.11283723 -0.013005396 0.026410177
0002b0 58 e4 92 bd bf 15 05 3d 23 12 37 bd 1a 44 f2 bc
       -0.07172459 0.03249144 -0.04469503 -0.029573489
0002c0 fe bf 9d 3d f7 1d ce 3d ba 28 c1 bd 36 54 0f 3e
       0.07702635 0.10064309 -0.09431596 0.13996968
0002d0 9e c1 7d 3d fd 36 1b 3c e2 f1 6b 3d f4 53 23 bd
       0.061952226 0.009473559 0.057603724 -0.039874986
0002e0 7e 26 f8 3a 55 ac 95 bd 4a 23 27 be 8e a4 12 3d
       0.001893237 -0.0730826 -0.16322055 0.035801463
0002f0 e4 c0 83 3d a2 0b b2 3d f5 65 82 bd b0 8b c2 bd
       0.06433275 0.08693625 -0.06367103 -0.094992995
000300 be e7 22 3c 02 44 81 3c 18 22 8b 3d 5a 46 11 bc
       0.009942947 0.015779499 0.06793612 -0.008866871
000310 c7 b2 be 3c c9 b2 dd bd 26 cc 85 bd a9 57 4e bd
       0.023278607 -0.10825116 -0.06533079 -0.050376568
000320 dd 9a 34 be 95 af 95 3c 1c ae 2e bd dd 4a 97 3d
       -0.176372 0.0182722 -0.042646512 0.07387326
000330 36 ff ec bc b7 6c 11 bd 0d 74 1b be 1f 89 80 3d
       -0.028930288 -0.03550407 -0.15180989 0.06276154
000340 b9 e3 f9 bd 15 d1 99 3c 05 de 00 be b2 37 19 3d
       -0.12201638 0.018776456 -0.12584694 0.03740663
000350 b5 5a 18 bd f3 17 60 bd 65 c3 ee 3d e2 d5 fb 3c
       -0.03719588 -0.05471034 0.11658362 0.030741636
000360 47 18 d7 bb 5a 57 d4 3d ab 7a 85 bd ea 03 41 bd
       -0.0065641734 0.103682235 -0.06517538 -0.047122873
000370 64 8e 88 bb 3b 7e a4 bd 7b e6 6c bd 00 d8 ae bc
       -0.004167365 -0.08031889 -0.05783699 -0.021343231
000380 96 c3 e8 bc 52 3a ae 3d c7 b2 ea bd 94 df 9a 3d
       -0.028413575 0.085072175 -0.1145988 0.075621754
000390 30 0a 0f be 91 f1 3b 3d e8 9d fc bd 31 d5 95 bd
       -0.1396873 0.045884673 -0.12334806 -0.07316054
0003a0 c8 05 f1 bd ab 67 25 be 0a 46 96 3d d9 34 88 3d
       -0.11768681 -0.16152827 0.07337578 0.06650705
0003b0 c2 9a 13 3d 55 68 d1 3c 88 2a b3 bd 26 92 6f bc
       0.03603626 0.025562445 -0.087483466 -0.014622247
0003c0 83 f9 b7 bd d6 04 9d 3c a7 7f d0 bd 72 28 39 3d
       -0.089831375 0.019167345 -0.10180598 0.045204587
0003d0 56 65 ad bb 6f e6 13 3d ce b7 00 be d5 e7 41 3d
       -0.005291621 0.03610843 -0.12570116 0.047340233
0003e0 77 07 d6 bb c0 1a 8e bd 4f 14 c4 3d 4c 39 0e 3c
       -0.0065316516 -0.06938696 0.09574186 0.008680653
0003f0 bb 92 38 3d 5f 67 b3 3d 27 88 91 bd 64 65 07 3d
       0.045061808 0.08759951 -0.07106047 0.033055678

conv5.bias f4 [256]
000000 30 d0 1e b5 ab a7 21 b5 e7 e1 05 b6 64 b0 c1 35
       -5.916254e-07 -6.022116e-07 -1.9950037e-06 1.4430957e-06
000010 1e 2e 06 36 5f fa 66 34 dc 77 5c b5 5f 65 c1 b4
       1.99944e-06 2.1511504e-07 -8.2130805e-07 -3.6022809e-07
000020 5a 73 00 36 e5 9b 15 34 f4 30 2e b5 92 8c 6d 35
       1.914063e-06 1.393342e-07 -6.489129e-07 8.8493937e-07
000030 b5 11 3a b4 05 8a e8 35 00 ec 9e 36 17 87 12 b6
       -1.7329042e-07 1.7325516e-06 4.736241e-06 -2.1834328e-06
000040 1e 95 40 b5 22 e7 40 b6 fc e5 c0 b6 4b 89 e4 b3
       -7.174257e-07 -2.8744766e-06 -5.7488196e-06 -1.0642051e-07
000050 09 d2 fe b5 33 f3 83 36 d5 fa 97 b5 fc b4 3c b6
       -1.8985603e-06 3.9324163e-06 -1.1323378e-06 -2.811953e-06
000060 0a 2d e1 36 91 44 d5 b4 e4 89 93 36 1d f6 c8 36
       6.710766e-06 -3.972423e-07 4.396994e-06 5.989116e-06
000070 19 62 b5 b5 f9 4c 6b b5 6b 33 ad b5 ec ea 8a b5
       -1.3514101e-06 -8.765633e-07 -1.2904469e-06 -1.0350172e-06
000080 76 98 1f b7 fd 7a 5c b6 31 f1 3e b6 31 f6 53 36
       -9.512636e-06 -3.2854143e-06 -2.8452598e-06 3.1584752e-06
000090 3b 5b ed b4 e8 b5 f2 35 70 0f f4 b5 33 56 51 b4
       -4.421107e-07 1.8083347e-06 -1.818391e-06 -1.9496001e-07
0000a0 64 5f df b6 c0 a7 a0 35 59 b4 df b5 ce 38 04 b5
       -6.657023e-06 1.1969751e-06 -1.6667283e-06 -4.9256494e-07
0000b0 e0 12 e9 b4 67 67 15 b7 6e 26 41 b5 24 6d 69 36
       -4.3413365e-07 -8.905167e-06 -7.1954025e-07 3.4783234e-06
0000c0 6c 9a 71 b6 4e 65 8c 33 9f c4 11 b5 d5 92 14 b6
       -3.6001684e-06 6.537685e-08 -5.430283e-07 -2.2139186e-06
0000d0 2d c3 8c b5 a2 d6 73 b6 34 c3 ba 35 d4 db 3e b6
       -1.0487616e-06 -3.6334754e-06 1.3914891e-06 -2.8440163e-06
0000e0 e4 e9 e8 b4 dc 7c 8e 35 1c f0 82 33 14 63 e1 36
       -4.3383545e-07 1.0616163e-06 6.0972724e-08 6.7170567e-06
0000f0 71 fc e9 35 3a d6 84 36 d5 6b 9b b4 e8 0b 74 b4
       1.7433323e-06 3.958846e-06 -2.8949458e-07 -2.2728602e-07
000100 ff b2 03 35 8b cf 2b 34 52 58 d8 b5 cc 82 86 35
       4.9061777e-07 1.600112e-07 -1.6118959e-06 1.0021845e-06
000110 2c 8b d2 34 19 cc f6 34 c3 f9 fc 35 ca ad ea 34
       3.921681e-07 4.596957e-07 1.8848153e-06 4.3712345e-07
000120 ca a6 f5 b6 a8 eb ce 34 0e 05 70 b6 89 93 09 36
       -7.320986e-06 3.8541953e-07 -3.576573e-06 2.0500468e-06
000130 bc ea 12 b6 07 45 95 b6 06 ff a0 b6 8b 89 43 36
       -2.1892329e-06 -4.448582e-06 -4.79806e-06 2.9137325e-06
000140 99 3f 20 b6 b0 0b 9b 36 2c 8d 6b b5 ca 30 9a b5
       -2.3878877e-06 4.6207206e-06 -8.7749754e-07 -1.1488094e-06
000150 0b c7 53 b6 0e c7 65 b5 a5 10 ee 31 56 e1 6c b6
       -3.1557308e-06 -8.559881e-07 6.928604e-09 -3.5297903e-06
000160 e9 b1 d4 34 00 4d 63 36 a1 f2 40 36 14 56 b7 b4
       3.9617524e-07 3.3870456e-06 2.8751458e-06 -3.4149036e-07
000170 b9 e6 20 b4 31 1a 55 b5 0e cb 0a 37 36 26 12 37
       -1.4985098e-07 -7.9386797e-07 8.272718e-06 8.711175e-06
000180 9f f9 34 b6 b8 fa b2 35 2b e8 24 b7 92 01 c8 35
       -2.6967389e-06 1.3335002e-06 -9.829218e-06 1.4901618e-06
000190 29 9a e8 b3 ce 02 94 34 8f 39 9d 36 d7 6a 94 35
       -1.08313834e-07 2.756919e-07 4.6856653e-06 1.1057954e-06
0001a0 9f 15 0a 36 17 38 fe 34 09 3a 84 36 16 e7 0e 36
       2.0576188e-06 4.7351998e-07 3.9406627e-06 2.1294159e-06
0001b0 83 f5 0a b6 6d 86 16 b5 e4 a5 7c 35 87 40 b3 34
       -2.070651e-06 -5.607497e-07 9.411872e-07 3.3388298e-07
0001c0 82 73 b9 35 7d de b5 b5 62 22 d6 b6 ac 92 8d b5
       1.3817191e-06 -1.3550303e-06 -6.3816997e-06 -1.0548006e-06
0001d0 57 45 ad b6 e3 48 f8 b3 6a f5 5a b6 d8 1d 0b 35
       -5.163874e-06 -1.1561658e-07 -3.2627381e-06 5.1824964e-07
0001e0 76 45 1f 35 cb 10 4a 35 24 97 31 b5 d9 82 c3 b5
       5.9333195e-07 7.52753e-07 -6.6157577e-07 -1.4566714e-06
0001f0 38 b4 a4 34 31 e5 30 33 46 ca e1 b5 72 26 df 36
       3.0678507e-07 4.118664e-08 -1.6822676e-06 6.6503935e-06
000200 74 a1 ad b5 3e 17 07 b4 b8 ae 60 b7 52 23 98 b4
       -1.2936493e-06 -1.258131e-07 -1.339212e-05 -2.8337905e-07
000210 d7 7c a5 36 32 b8 05 35 ac a6 93 34 32 43 9b 35
       4.9319165e-06 4.98144e-07 2.7502153e-07 1.1567956e-06
000220 8d 49 25 b4 a6 2d 85 36 8d 4f 0c b4 5b 98 ff 35
       -1.539358e-07 3.969023e-06 -1.3067456e-07 1.9043322e-06
000230 45 41 19 b6 06 ff 0a b5 f9 96 5c 35 e5 b2 63 b6
       -2.2836768e-06 -5.1780114e-07 8.217608e-07 -3.3929766e-06
000240 d5 e9 84 b4 d0 6a f8 36 1f 7a 5a b5 86 9d 81 b5
       -2.475705e-07 7.4034106e-06 -8.138904e-07 -9.657094e-07
000250 cc f3 ad 35 84 a4 80 b5 ae d6 a6 b5 36 b1 33 b4
       1.2960459e-06 -9.584624e-07 -1.2430444e-06 -1.6735143e-07
000260 81 51 0a b6 51 db 4d b4 2e 66 28 36 d7 70 a1 36
       -2.0611044e-06 -1.91719e-07 2.5093427e-06 4.81131e-06
000270 97 8a 26 35 30 67 e4 35 ca 47 42 b5 f0 6e 0a b5
       6.2041494e-07 1.7017355e-06 -7.23751e-07 -5.157044e-07
000280 fe 16 89 b6 81 a7 83 b6 47 1d ea 36 a9 89 c8 b5
       -4.085595e-06 -3.9236043e-06 6.9771518e-06 -1.4941226e-06
000290 27 52 81 b4 bb 2e 7e 36 0c dc 8a 35 3f da 1a 37
       -2.4087896e-07 3.787615e-06 1.0345843e-06 9.22993e-06
0002a0 2b 16 89 35 c1 4e df b6 82 c8 bc 35 f4 24 2d b6
       1.0213747e-06 -6.655086e-06 1.4065447e-06 -2.5800518e-06
0002b0 e2 5a 06 b6 30 6c 55 b1 46 6c 8d 35 8e a3 94 36
       -2.0020457e-06 -3.1057077e-09 1.053683e-06 4.429784e-06
0002c0 9c c3 21 36 e5 cc 5c b6 ec 70 b8 36 b5 c8 44 35
       2.410473e-06 -3.290182e-06 5.496773e-06 7.3307757e-07
0002d0 db 8a d6 b4 59 6a dc b6 85 bd 5e 35 db 6c 36 36
       -3.9961637e-07 -6.5688914e-06 8.297723e-07 2.7183476e-06
0002e0 72 98 b5 36 fb 36 17 b5 76 cb 16 b6 9b d7 2a 36
       5.4119673e-06 -5.633189e-07 -2.2470172e-06 2.5457473e-06
0002f0 59 fe 09 b5 d9 cc 12 b6 83 e5 a9 35 ae 11 23 35
       -5.14066e-07 -2.1874932e-06 1.2658278e-06 6.074796e-07
000300 25 dc 1d b6 27 3d 21 36 3d 96 05 37 55 14 07 b5
       -2.3522964e-06 2.4026465e-06 7.962398e-06 -5.0321006e-07
000310 76 ea ac 33 f5 41 4c b4 81 30 82 b4 d0 5e a9 b5
       8.052022e-08 -1.9022976e-07 -2.4249678e-07 -1.2619075e-06
000320 20 d6 17 36 28 b5 e6 b5 d1 4e 55 35 94 7e 0f 35
       2.262539e-06 -1.7189059e-06 7.9463376e-07 5.3455847e-07
000330 cb 5f 34 37 04 b5 8b 34 ac 2a b2 b6 cf c9 31 b5
       1.075114e-05 2.6022474e-07 -5.309781e-06 -6.623131e-07
000340 72 b2 e6 b3 fe c5 9a b5 7b b0 b5 35 81 5a b6 b4
       -1.07426686e-07 -1.1531517e-06 1.3536913e-06 -3.3965992e-07
000350 26 6d 01 b7 d4 eb 15 35 53 66 15 b4 c2 4f 43 b6
       -7.714412e-06 5.585e-07 -1.3913932e-07 -2.910369e-06
000360 10 11 05 b7 8e 15 c7 b4 99 13 dd b5 57 cd 27 35
       -7.93139e-06 -3.7082322e-07 -1.6471487e-06 6.2511157e-07
000370 1b c1 85 b5 88 f2 10 b6 bc 68 ee 36 23 1b 12 36
       -9.965473e-07 -2.1598844e-06 7.1051454e-06 2.177149e-06
000380 df 7a a0 34 ef cb 15 b5 d8 23 81 b1 a0 8f 4e 36
       2.9891723e-07 -5.580359e-07 -3.758469e-09 3.0779993e-06
000390 2c c2 22 b5 1f cd d2 36 f7 6d 87 b4 c7 77 de b6
       -6.063226e-07 6.282367e-06 -2.522572e-07 -6.6300595e-06
0003a0 ee 66 df b4 5f c4 c5 b3 da d9 78 34 30 aa 4a b5
       -4.1611878e-07 -9.209247e-08 2.3176054e-07 -7.549852e-07
0003b0 61 84 a6 b5 9f f8 84 b6 7c 21 af 36 4e e4 0f 35
       -1.2406491e-06 -3.96285e-06 5.2193045e-06 5.360388e-07
0003c0 68 75 17 36 90 1d 8f b6 bf ca 3b 36 16 59 a2 34
       2.2569093e-06 -4.2651736e-06 2.7983185e-06 3.023967e-07
0003d0 5a 1f 79 b5 32 e3 cd 34 04 e8 ab 34 ae 1e b9 b6
       -9.280535e-07 3.8349532e-07 3.2020046e-07 -5.5170012e-06
0003e0 c9 c0 92 37 b7 c9 35 b5 44 ce bd b6 19 ca 40 b4
       1.7494329e-05 -6.772129e-07 -5.6566514e-06 -1.7954916e-07
0003f0 27 4f 5b 36 bc b4 b7 b5 01 ca 2a b6 65 4e fa b4
       3.2679616e-06 -1.3687163e-06 -2.5449556e-06 -4.6623168e-07
