model_weights/clean_split_2.pt (torch, 473446 bytes, 26 tensors)

conv1.bias f4 [64]
000000 4e d3 4a b5 3f a0 b0 35 dd 20 12 b6 7f ef b4 36
       -7.555835e-07 1.315966e-06 -2.1774824e-06 5.392299e-06
000010 28 76 a2 b5 f8 14 fb 34 13 ca ee b4 fd 0c 24 34
       -1.2104329e-06 4.676765e-07 -4.4477983e-07 1.5278415e-07
000020 5d a8 24 37 d6 24 cd b4 e3 59 5c b6 42 d7 fc 36
       9.814362e-06 -3.8211027e-07 -3.2834876e-06 7.5352445e-06
000030 2f ba 36 b7 c4 c6 cf 35 0e a6 92 35 66 ea 20 b5
       -1.0891395e-05 1.548055e-06 1.0926176e-06 -5.994574e-07
000040 92 db af b5 af d0 64 36 0d c2 cc b4 dc 2f 6f 35
       -1.3102419e-06 3.4096117e-06 -3.8139152e-07 8.910408e-07
000050 81 0e 24 b5 2b 38 85 35 89 8d 29 35 9a 32 00 b6
       -6.1115867e-07 9.925619e-07 6.3163367e-07 -1.910294e-06
000060 e0 cc d8 b5 fc 68 1b 35 33 86 75 32 84 de 22 b4
       -1.615288e-06 5.789477e-07 1.429139e-08 -1.5168376e-07
000070 09 e7 3d b6 83 47 12 37 5c 23 6d b6 b1 e8 bf b5
       -2.8297675e-06 8.718928e-06 -3.5336334e-06 -1.4298331e-06
000080 d8 a9 27 b5 06 a4 8e 36 4c 51 a4 b5 16 17 64 b4
       -6.2459503e-07 4.2510246e-06 -1.2242613e-06 -2.1242553e-07
000090 a2 0c 75 34 c4 59 da b5 d5 a5 a4 b3 0e c8 aa b3
       2.2821999e-07 -1.6268391e-06 -7.66701e-08 -7.9526316e-08
0000a0 56 ee 35 35 a4 7f 44 b6 71 ad 2c b6 a7 e2 59 35
       6.777458e-07 -2.9280573e-06 -2.5730953e-06 8.116862e-07
0000b0 ba 84 85 b3 00 cb 13 36 30 f8 06 b5 1a 46 f2 36
       -6.217438e-08 2.2022869e-06 -5.028005e-07 7.220323e-06
0000c0 06 73 14 35 56 00 27 b5 2a 05 0f b4 d3 67 24 b7
       5.530168e-07 -6.2212837e-07 -1.3319791e-07 -9.799335e-06
0000d0 12 49 40 32 30 5c 89 34 0f f5 56 35 e2 4b b8 35
       1.1192485e-08 2.5585314e-07 8.007782e-07 1.3731153e-06
0000e0 8e fa c1 b5 9e 8d c8 34 33 28 a3 b4 a9 72 0c b5
       -1.4452542e-06 3.7355943e-07 -3.0390365e-07 -5.2320917e-07
0000f0 1e cd 54 35 fc 44 97 b5 bb 92 fd b6 c0 f2 ae 35
       7.927464e-07 -1.1270454e-06 -7.5570692e-06 1.303466e-06

conv1.lin.weight f4 [64, 2]
000000 9a 49 77 be 76 5d 69 bd 00 f2 7e bc 25 57 56 3e
       -0.2414917 -0.056973897 -0.015560627 0.2093168
000010 70 39 ea 3d 78 10 a1 bb 21 86 b6 bd 0d a1 10 3d
       0.114367366 -0.0049152933 -0.08912302 0.03530984
000020 f3 a6 93 bd ed a4 91 bd 8d 25 58 3e 65 ea 44 3e
       -0.072095774 -0.07111535 0.21108074 0.1923004
000030 25 e5 d3 3b 35 f7 83 3e 58 91 2b bc 89 e9 91 3e
       0.006466525 0.25774541 -0.010471664 0.28498486
000040 9b fb ab 3d 00 fb b3 bd 79 9d e3 3d 5f 4c ae 3d
       0.08397599 -0.08788109 0.1111402 0.085106604
000050 5d b8 4e be 49 85 aa 3c 84 50 94 3c 2a 50 9a be
       -0.20187517 0.020815508 0.0181048 -0.30139285
000060 1d 67 95 3d c6 5b 45 bd 92 1c 89 3e d7 a4 17 bc
       0.07295058 -0.048183225 0.2677961 -0.0092556095
000070 d3 a4 40 bd 6f 92 46 be dd f5 7e 3e 5e 76 35 3e
       -0.04703219 -0.19391797 0.24898477 0.17720935
000080 e7 61 2b be eb 83 7e bd 85 29 06 3e 17 9f 55 be
       -0.16736566 -0.062137526 0.13101776 -0.20861469
000090 34 6f 4d 3b 48 5a b9 3e f7 47 d6 bc 30 3d a7 3e
       0.00313468 0.36201692 -0.026157362 0.3266387
0000a0 9e ab 5b 3e 8e 01 17 3e 18 2d af be 7d b9 38 bc
       0.21452186 0.14746687 -0.3421409 -0.011274693
0000b0 e9 71 32 be f0 96 33 be 4d 77 3c 3e 4e d7 53 bd
       -0.17426266 -0.17538047 0.18404885 -0.051719002
0000c0 e3 fc 69 3e d5 cf 83 3d 2b 5a d2 bd 54 a7 00 be
       0.22850375 0.06436125 -0.102711044 -0.1256383
0000d0 6f a2 40 3e 9d c8 f8 3d 37 2e 8b be 93 66 d1 bc
       0.18811963 0.12147639 -0.27183697 -0.025561607
0000e0 da 9e 2f 3e 2f 3b 31 be 1b 95 00 39 bf d7 12 be
       0.17150441 -0.17307733 0.00012262577 -0.14340113
0000f0 a0 02 54 bd 2f 00 a1 be fb b0 99 be 6c 2f e6 3d
       -0.051760316 -0.31445453 -0.30017838 0.11239514
000100 7c 79 5e 3e d5 9e ac 3d 47 57 81 3e af 73 34 be
       0.2172603 0.08428732 0.252619 -0.17622255
000110 62 e8 a0 be 54 1b 0d 3e bf a0 02 3e f0 ff 40 3e
       -0.31427294 0.13779956 0.12756632 0.18847632
000120 95 bb 83 3d e2 77 96 3d f0 d4 6f bb e3 a6 f0 3d
       0.06432263 0.073470846 -0.0036595426 0.11750581
000130 1e 29 7d 3e c0 3b 1c 3e bb 21 47 be 8b f4 b9 3e
       0.24722716 0.15257168 -0.19446461 0.36319384
000140 7c c4 95 be dc 07 7f 3e be fd 6e 3e ba 5f 1d bb
       -0.29251468 0.24905342 0.23338982 -0.0024013356
000150 6e c4 13 be 84 f9 74 be aa 85 86 3d fc 68 6c 3e
       -0.144304 -0.23923308 0.06568463 0.23086923
000160 cf 01 9e bd 9e e1 9b 3e a0 4e 91 be 2d ed 68 3e
       -0.07715189 0.3044557 -0.283803 0.22746725
000170 25 d6 75 3e e2 06 16 3e eb 1b eb 3c 6f 36 64 be
       0.24007471 0.14651063 0.028699836 -0.2228639
000180 6e da 2a 3d b9 d0 0c 3d 7c 26 fa ba 91 59 48 3e
       0.041712217 0.03437874 -0.0019084956 0.19565417
000190 87 32 6c 3e a1 58 08 3d da 7c 2d 3e 7f b8 6f bd
       0.2306615 0.033287648 0.16942158 -0.05852556
0001a0 92 db 1e be 46 c3 80 3e 4e 30 63 bb 55 43 30 3e
       -0.15513447 0.25148982 -0.0034666243 0.17213185
0001b0 7c fc 68 3e 16 64 c0 bd b3 0b 1f 3c 1c 62 7c be
       0.22752565 -0.0939409 0.009707379 -0.24646801
0001c0 e0 ba 66 be 27 95 1e 3e 04 ee be bd 42 a7 a8 3e
       -0.22532225 0.15486585 -0.09322742 0.32940108
0001d0 76 f8 a9 3e d2 9c 8b 3b 25 82 39 3e 5d 77 b6 3d
       0.33197373 0.004260638 0.18116052 0.089094855
0001e0 12 83 2a bd 14 43 8c 3e 43 26 86 bd 5a 08 b3 be
       -0.041628905 0.27394927 -0.065502666 -0.3496731
0001f0 be 83 31 3e 16 63 28 be a0 05 9f be f5 27 03 3e
       0.17335412 -0.16444048 -0.3105898 0.12808211

conv2.bias f4 [64]
000000 5a 2d 1f 3e 1d b7 f1 3c 93 a1 61 3d a0 1e 98 bd
       0.15544644 0.02950626 0.05508573 -0.07427716
000010 71 f6 38 ba a1 94 c0 3d 2d ff 48 be 02 4d 36 bd
       -0.00070557656 0.09403349 -0.19628592 -0.044507034
000020 c2 9a ca bd 44 e4 5a 3d 55 a4 e2 bc e8 a5 03 3d
       -0.09892799 0.053440347 -0.02766625 0.032140642
000030 3f 64 0b bd a0 de e7 3c 2f 71 2e be 83 d0 9f bd
       -0.03403115 0.028304398 -0.17035364 -0.07803442
000040 d3 2e 8f bd 36 ef bc bd 27 10 4c 3d ac d5 70 38
       -0.06991353 -0.09225313 0.04982009 5.7419456e-05
000050 7e 86 1a be 9f 7f 4f bd 78 04 6f 3d dc 49 98 bc
       -0.15090367 -0.05065882 0.05835387 -0.018589906
000060 44 d3 ce 3d b4 43 7e 3a a9 b3 28 bd d8 7e 91 3d
       0.100988895 0.00096994196 -0.041186962 0.07104272
000070 69 d4 c6 3d c0 28 29 3d d2 cf af bd c0 9b 61 3d
       0.09708483 0.041298628 -0.085845605 0.055080175
000080 99 d8 f8 bd 83 85 88 bc 3d 47 07 bd 57 93 80 be
       -0.12150688 -0.016665226 -0.033026922 -0.2511241
000090 af 6e 8a 3d 0e e3 49 be 50 fd 75 bd 6c c8 8d bd
       0.067593925 -0.1971552 -0.06005603 -0.06922993
0000a0 60 35 b0 ba 2f 68 3c 3c 53 a0 b8 bd 83 ee 2c 3d
       -0.0013443641 0.011499449 -0.090149544 0.04221965
0000b0 a5 7a 61 be 8f c9 15 bc 16 cc 9a 3d 8f fb 1e bd
       -0.22019441 -0.009142294 0.075584576 -0.038814124
0000c0 b5 ce d1 bd e8 af 4a bd 9b 7f 92 3b 12 d1 9a bd
       -0.10244504 -0.049484164 0.004470778 -0.07559408
0000d0 25 ec 5c 3d b7 b0 a9 3d d0 81 af bd 07 9d 84 bc
       0.053936142 0.08285659 -0.08569682 -0.016188158
0000e0 24 fa 0a be 69 42 5b bd 2f 54 52 3d 44 c9 16 3d
       -0.13571984 -0.05353013 0.051349815 0.036813036
0000f0 b9 50 12 3d d9 79 f6 bd 6a 7d 44 bd 1e be 12 bc
       0.035721514 -0.12034959 -0.047971167 -0.00895646

conv2.lin.weight f4 [64, 64]
000000 92 e3 17 bd ca e3 28 bd 68 01 16 be 63 4a d9 bd
       -0.037082262 -0.04123286 -0.14648974 -0.10609891
000010 6c ec 10 be 45 1e c4 3d 72 d2 2e 3e 56 7d 8e bd
       -0.14152688 0.09576086 0.17072466 -0.069575
000020 dc c3 f4 bd 20 a4 ae bb 49 04 f9 bd d8 4b 69 be
       -0.1195142 -0.005329624 -0.121590205 -0.22782838
000030 fd 5c 72 be 87 8d d5 b8 25 7e a9 bd ef bb 1f be
       -0.23668285 -0.00010182993 -0.08276013 -0.15599035
000040 85 b0 8b 3d 28 3d e3 3d b1 a0 3d 3e 0b 71 9d bd
       0.06820778 0.11095649 0.1851833 -0.07687577
000050 35 21 1a be 85 a8 f3 3b 09 29 8b be d8 7b 0b 3e
       -0.1505173 0.0074358606 -0.27179745 0.13621461
000060 ef 2d 80 3e 14 da 8e be d5 99 4d bd 50 6c 8c be
       0.25035045 -0.27900755 -0.050195534 -0.27426386
000070 4d a4 12 be bc 8a ff bd cd 10 6d be 07 ad 26 be
       -0.14320488 -0.12477633 -0.2315094 -0.16276942
000080 ba a9 74 3d 60 f5 1c 3d ca b7 1b be 40 98 9c bc
       0.059732176 0.038319945 -0.15206829 -0.019115567
000090 b4 a9 d0 3c c1 0f 00 be 18 2a ae 3d 54 f1 83 3d
       0.025471546 -0.1250601 0.085041225 0.06442514
0000a0 c3 cc 1c 3d 5f 36 cf bb 30 f4 b5 3d e3 b6 33 3d
       0.038281213 -0.00632362 0.08884466 0.043875586
0000b0 a6 16 3f 3e 12 af 31 be 9f 7c 2c 3d ea a1 6e 3c
       0.18660983 -0.1735194 0.042111035 0.0145649705
0000c0 35 d9 53 3e 11 2e 64 bd de 59 08 3e 86 9d b8 3d
       0.20688327 -0.055707995 0.13315532 0.0901442
0000d0 7c f6 da bd ab 57 2f 3d a0 fe b5 3d af 7a 72 bd
       -0.106915444 0.042808216 0.088864565 -0.05919903
0000e0 e7 8f 5f be f2 49 e8 bd 04 94 2b 3e 1f c2 7c 3e
       -0.21832238 -0.11342229 0.16755682 0.24683426
0000f0 ed bf 5d 3c 44 7e ac bc 8f 96 7f be a1 76 39 be
       0.013534528 -0.021056302 -0.24959777 -0.1811166
000100 82 2d f2 bc aa 96 93 3d c8 80 4f 3e d2 5f 29 be
       -0.029562715 0.07206471 0.2026397 -0.16540459
000110 05 fd a8 bd 71 93 38 be a3 27 ea 3d 91 ec 22 be
       -0.08251385 -0.18024994 0.11433341 -0.15910555
000120 2e c5 b9 be 65 ad 80 3d a4 7b 16 bd 60 31 8c bd
       -0.3628325 0.062830724 -0.036739007 -0.06845355
000130 c2 e1 0e be d3 6f 53 bd 09 da dc 3d a8 fc 16 be
       -0.13953307 -0.051620316 0.107837744 -0.14744818
000140 6d 96 b8 bd 56 1a 2b be cf 85 90 bd f3 7e 1e 3e
       -0.090130664 -0.16709265 -0.07056772 0.15478115
000150 c0 06 44 be 14 a0 67 3e be f1 c1 bd 3b c1 52 3e
       -0.191432 0.22619659 -0.09469937 0.20581524
000160 5c 59 6e be 1f 6d d3 bd 79 b2 bb 3c 0c 2a e4 bd
       -0.23276275 -0.103235476 0.02291225 -0.11140832
000170 8c fc 3f be 90 98 cd bc 1c 36 2e 3e 85 d7 aa 3c
       -0.18748683 -0.025097162 0.17012829 0.02085472
000180 58 73 f6 3d af c5 6b bd 89 1e 32 bd 56 cf 38 bb
       0.12033719 -0.057561573 -0.04348615 -0.0028199754
000190 95 b0 1a be 90 64 00 3e a1 41 f7 3d 56 96 5e 3e
       -0.15106423 0.12538362 0.120730646 0.21737036
0001a0 3f 95 05 3e e6 3a 0b be 7e 53 39 be 0b 6c 3f 3d
       0.13045214 -0.13596687 -0.18098256 0.046733897
0001b0 d7 09 ab bb 4c f3 e1 bb b0 27 71 bd c4 50 0d 3e
       -0.005219679 -0.0068954583 -0.05887574 0.13800341
0001c0 69 0d 80 3d 58 01 52 3e ea 67 1a 3e a9 de 26 be
       0.06252558 0.20508325 0.15078703 -0.16295876
0001d0 9a 95 3d 3d 8f b0 56 3e 18 fd f1 3c e3 98 b5 3d
       0.04628525 0.2096579 0.02953963 0.088670515
0001e0 68 9c 2e bb a4 e7 f5 3d 37 99 c7 bd 0c 7e 51 3d
       -0.0026643518 0.120070726 -0.0974602 0.0511456
0001f0 14 c3 61 3e 64 e8 55 bd 73 9a 82 bd bf 70 18 be
       0.22047073 -0.052223578 -0.06377115 -0.14886759
000200 29 47 91 3c e3 30 1c bd 52 36 67 3e 85 5b 65 3c
       0.017734127 -0.03813256 0.22579315 0.013998871
000210 89 a9 f5 3d d9 e6 c9 bd 5d d3 ac 3c 33 cc bf bd
       0.11995227 -0.09858484 0.02109688 -0.0936512
000220 ed 4f a6 3e 0a 8b 9a 3d db 89 91 be f7 a6 1e 3e
       0.32482854 0.07546051 -0.28425488 0.1549338
000230 77 44 a5 bc aa bc 8e 3e dc c9 58 3d 64 95 4f 3e
       -0.020174248 0.27878314 0.052926883 0.20271832
000240 b6 50 10 bc 55 eb 88 3d 0b e8 5a bb c6 c7 49 3e
       -0.0088083055 0.06685511 -0.0033402469 0.19705114
000250 cb a3 ba bd d4 54 1b be a2 70 a1 bd 4d b8 8f 3e
       -0.09113272 -0.15169078 -0.07882811 0.28070298
000260 54 ee 8b 3e 69 be 84 be ab 33 6e 3e b1 57 9d 3d
       0.27330267 -0.2592652 0.23261897 0.076827414
000270 27 56 8e 3e 23 52 f8 3b 3b f7 f1 bd f2 ef 67 be
       0.27800104 0.007578151 -0.118147336 -0.22650126
000280 25 13 97 bd df c4 95 3e 8a 94 8c be ee 81 46 3c
       -0.073766984 0.29251763 -0.27457076 0.012115939
000290 33 57 b5 bd 44 d7 01 3e bf 62 16 be f8 a3 df 3d
       -0.088545226 0.12679774 -0.14686106 0.109199464
0002a0 03 21 73 bd 87 74 99 3e 69 7f 90 b9 df 50 ec bc
       -0.059357654 0.29971716 -0.00027560748 -0.028847156
0002b0 27 59 c9 bd 52 6a 75 3d 1a 91 80 3e df 61 24 bd
       -0.098314576 0.059915848 0.25110704 -0.0401324
0002c0 a9 9c 38 3e 49 73 04 3e 27 20 84 bd b8 59 57 3d
       0.18028511 0.12934603 -0.06451445 0.052575797
0002d0 bb 06 7b 3d 30 17 1b be dc 55 7c 3e 17 84 eb bc
       0.061285716 -0.15145564 0.24642128 -0.028749509
0002e0 9d 00 62 bd 84 3b 84 bd 71 7f f3 3d 5f eb ba bd
       -0.055176366 -0.06456664 0.11889542 -0.09126925
0002f0 30 cd 0b bd 08 56 17 be b7 c8 2f bd 66 b2 8b 3b
       -0.03413123 -0.14778912 -0.042916026 0.00426321
000300 d4 9a a0 3c 2d c4 42 be 84 a8 b6 bd 1c 75 dd 3d
       0.019605078 -0.19020148 -0.089188606 0.108133525
000310 85 97 a0 bc ab c5 97 bd 5a e9 4f 3d 13 cb d0 bd
       -0.0196035 -0.07410749 0.05075965 -0.10194983
000320 32 d9 a0 bd f8 60 3d 3d d1 fa d5 bd 52 76 7e be
       -0.07853927 0.046235055 -0.1044823 -0.24849823
000330 bf dd 09 be a1 fd a1 3d 1f 01 f0 bd 2a ce 01 3d
       -0.13463496 0.07909704 -0.11718964 0.031690754
000340 6b c6 ed bc 59 b8 0d be 6e d2 be 3d 48 7d d0 3d
       -0.029025277 -0.13839854 0.0931748 0.101801455
000350 4d 33 0c 3e ee 4e f0 bd e5 d2 ab 3d 1b 04 70 b9
       0.13691445 -0.11733805 0.08389834 -0.00022889713
000360 34 3e b9 3d f3 bb 47 bd e8 c5 57 3e ad 69 36 be
       0.090450674 -0.048763227 0.21071589 -0.1781375
000370 07 e2 f9 bc d6 2f 5a be ee 88 8e 3d 18 2a 8a be
       -0.030503286 -0.2130731 0.06959711 -0.2698524
000380 20 cd fb 3d 5c 64 85 bd 10 00 95 3d 4f 2e 02 3e
       0.12294984 -0.06513283 0.072754025 0.12712978
000390 f5 77 83 be f9 c3 0c 3e 2a 17 22 3e 17 b7 aa 3d
       -0.25677457 0.13746633 0.15829149 0.08335703
0003a0 d6 d2 8d 3d 70 4d 85 3d 17 d7 9e be 72 33 77 bd
       0.069249794 0.06508911 -0.31023476 -0.060351796
0003b0 5c b2 07 bd 94 ec 95 bd ad fa be 3b e3 42 86 be
       -0.03312908 -0.07320514 0.0058282227 -0.26222906
0003c0 72 7d 86 3d c9 a2 25 be 9a 3c bf bd fd 40 a7 3d
       0.065668955 -0.16175379 -0.09337731 0.081666924
0003d0 54 c5 c5 3d 63 20 05 3e b0 e1 d0 3d dd 81 35 be
       0.09656778 0.13000636 0.101992965 -0.1772532
0003e0 5f e5 f9 bc 95 be 14 3e 87 b9 b2 bc 8f db 86 bd
       -0.03050488 0.14525826 -0.021816982 -0.06584846
0003f0 06 25 93 bd 28 b7 6c bd 1a af 25 3e 79 a9 61 bd
       -0.07184796 -0.05779186 0.16180077 -0.055093262

conv3.bias f4 [128]
000000 22 09 dc b5 93 4b e9 b5 56 6f 6d b7 ad 87 a3 35
       -1.6393935e-06 -1.7381848e-06 -1.4152223e-05 1.2183933e-06
000010 b6 5e 5f b6 e8 07 70 36 7d 66 2a b7 db 3e 51 b7
       -3.3284718e-06 3.576739e-06 -1.0156652e-05 -1.2472005e-05
000020 d8 48 c5 b4 a5 29 f1 b6 a8 82 71 b7 5e b1 1b b7
       -3.674711e-07 -7.1872078e-06 -1.439514e-05 -9.2800165e-06
000030 cd 47 d7 b5 9e c0 c7 34 e0 f6 89 b5 b1 0c 23 37
       -1.6039645e-06 3.7206786e-07 -1.0279145e-06 9.718512e-06
000040 7b ca 44 b6 ab 36 7e b6 c0 46 62 b6 a7 bc de b7
       -2.9324135e-06 -3.788077e-06 -3.3717806e-06 -2.655231e-05
000050 8e 1d 68 37 b0 43 8f 35 b7 fc 93 36 17 67 f8 35
       1.3835159e-05 1.067403e-06 4.4103613e-06 1.8507443e-06
000060 e0 2e 1f b7 ba 78 ec 34 5c 76 32 38 85 9c 26 b6
       -9.4880525e-06 4.4046266e-07 4.2548738e-05 -2.4827034e-06
000070 a3 79 b1 36 8a b4 ce b5 c3 f2 c4 35 f3 28 7a b5
       5.2891714e-06 -1.540074e-06 1.4673791e-06 -9.3191846e-07
000080 c3 c1 44 b4 71 74 ea 37 09 ea 5f 35 d8 52 8c b5
       -1.8324413e-07 2.7949196e-05 8.341454e-07 -1.0454924e-06
000090 74 b8 15 b4 18 79 9f b6 e3 ae 45 34 07 7f 18 b7
       -1.394381e-07 -4.7526664e-06 1.8410678e-07 -9.089482e-06
0000a0 d4 71 9e b6 d4 99 eb b4 d7 48 6d b4 dc 1c 96 37
       -4.7220183e-06 -4.3884086e-07 -2.2098844e-07 1.7894832e-05
0000b0 e7 e0 2c b7 83 23 08 b7 3a 43 3d 35 c1 d9 ac b7
       -1.0304363e-05 -8.1145e-06 7.0505814e-07 -2.0605397e-05
0000c0 f3 60 c7 b7 a1 16 38 36 60 93 ee b4 cd 00 e3 34
       -2.3767794e-05 2.7431308e-06 -4.4438184e-07 4.2282628e-07
0000d0 e3 52 ed b3 18 0e b9 35 30 d5 0f 36 70 76 3d 36
       -1.10512495e-07 1.3787676e-06 2.1432752e-06 2.8232134e-06
0000e0 dc fc d4 35 69 24 30 36 8a ab 84 b5 6d d9 57 37
       1.5868823e-06 2.6247237e-06 -9.884691e-07 1.2865622e-05
0000f0 67 f5 97 b5 ac 83 b9 35 bc 7c 41 b7 14 e3 1c 37
       -1.1321798e-06 1.3821896e-06 -1.1532738e-05 9.351195e-06
000100 bc 8d c4 b5 02 cd a8 b7 93 11 5d b6 5f f8 bc 36
       -1.4644388e-06 -2.0122625e-05 -3.2941796e-06 5.631751e-06
000110 ae 34 9e b6 fa ba 49 b5 b4 b7 ad 36 a1 96 15 36
       -4.7148997e-06 -7.515042e-07 5.1771876e-06 2.2290408e-06
000120 93 79 1a b7 9d 45 36 b4 af df 6e 36 43 07 4e b7
       -9.2074215e-06 -1.6975396e-07 3.5594965e-06 -1.2280248e-05
000130 a1 e6 89 b6 61 d5 96 36 50 78 fe 36 9b e9 d8 36
       -4.109767e-06 4.495189e-06 7.583796e-06 6.464497e-06
000140 a2 77 94 b7 e3 ee 4d 36 4b db 5b 35 f6 f0 46 36
       -1.7698683e-05 3.068643e-06 8.190297e-07 2.9644557e-06
000150 17 2f e8 b7 88 39 0c b6 2d e8 50 33 05 69 17 b7
       -2.7678483e-05 -2.0895113e-06 4.8639937e-08 -9.024753e-06
000160 55 01 5a b6 ac f8 5c b6 1a c0 c3 37 f2 a6 06 37
       -3.2485307e-06 -3.29273e-06 2.3335266e-05 8.025892e-06
000170 e2 87 cb b7 c4 3f 98 b6 2f ab f2 36 fe 73 45 b7
       -2.4262761e-05 -4.5373763e-06 7.2320904e-06 -1.1769122e-05
000180 41 ee 81 36 83 59 99 36 8f 02 cc 36 b8 45 9d b5
       3.872236e-06 4.570176e-06 6.0799716e-06 -1.1717702e-06
000190 17 38 45 36 6e 7a 71 b7 d5 be 62 b7 86 66 60 b6
       2.9387936e-06 -1.4393225e-05 -1.3515081e-05 -3.3438278e-06
0001a0 1e 6f b8 35 74 ab 3d 37 86 f2 de b5 b9 47 a9 b5
       1.3741408e-06 1.1305197e-05 -1.6610873e-06 -1.2612355e-06
0001b0 43 01 78 b6 be 0f b6 36 5c 1e ca 34 98 ec c0 36
       -3.6955614e-06 5.4258553e-06 3.764752e-07 5.749589e-06
0001c0 89 a6 c3 35 99 7f a1 b6 1e 46 bc b6 2b 3e f9 b5
       1.45771e-06 -4.813028e-06 -5.6109993e-06 -1.8570039e-06
0001d0 af 1f 1d b7 2e a0 46 30 3e 89 29 b7 a4 8b 0b 36
       -9.365306e-06 7.225961e-10 -1.0105139e-05 2.0793896e-06
0001e0 8d ca 09 b7 50 ca 0b b5 e1 7c 0d b7 c3 e9 59 b6
       -8.212996e-06 -5.207594e-07 -8.433331e-06 -3.2471587e-06
0001f0 54 05 c6 36 47 18 4b b6 fe 56 53 b7 a3 42 95 36
       5.90148e-06 -3.0263488e-06 -1.25968345e-05 4.4483036e-06

conv3.lin.weight f4 [128, 64]
000000 8b 83 ea bd ea 75 f9 bd 1d 38 89 be ce b0 2a be
       -0.11450871 -0.121806934 -0.26800624 -0.16669008
000010 e2 42 09 3d 97 07 0e 3e 70 db 08 3e 25 c6 25 be
       0.03351105 0.13870083 0.13364959 -0.16188867
000020 c1 71 ca bd 52 c6 ce bd 45 f9 c7 bd 8b 0e a9 bd
       -0.09884978 -0.1009642 -0.09764341 -0.08254727
000030 ce 19 51 3d ea b5 08 3e a8 13 14 bd 0d 26 51 be
       0.05105 0.13350645 -0.03615156 -0.20424671
000040 36 54 55 3d 65 0d 9b 3d 27 94 b7 bc 3b 84 64 be
       0.052082263 0.07570914 -0.022409512 -0.22316067
000050 2d 52 ee bc 41 6e 6d bd d8 a4 d0 bc aa 07 98 3c
       -0.029091919 -0.057966474 -0.025469229 0.018558342
000060 a7 f9 98 bc 67 22 73 be 50 06 80 3d 27 a6 a7 bc
       -0.018673731 -0.23743592 0.06251204 -0.02046497
000070 b9 59 cd bd 59 7e 31 be a4 fc f0 3c 9e 95 f2 3c
       -0.10026879 -0.17333354 0.029417343 0.029612359
000080 9a e2 8c bd b5 1b 74 bd 3e 79 30 bd 5c 87 71 3c
       -0.06879158 -0.059596736 -0.043084376 0.014741745
000090 ea 39 d6 3d 8d fd 4d be a7 b3 db 3d b0 f1 1c 3b
       0.10460265 -0.20116253 0.10727625 0.0023947768
0000a0 64 21 e9 bc 42 be 4d be f6 07 1e 3e 35 63 dd bd
       -0.028458305 -0.20092109 0.15432724 -0.10809938
0000b0 92 03 ff 3d df 97 2a bc aa 3f 0a bd 18 44 fc bd
       0.12451853 -0.010412185 -0.03375212 -0.12317675
0000c0 c3 71 59 3d c6 8d 2d be 87 33 73 3d 2c 64 55 3c
       0.053087007 -0.16948614 0.059375312 0.013024371
0000d0 b4 0d e2 3d e3 cc 00 3d 32 d1 ba 3d a9 47 51 3b
       0.1103777 0.031445395 0.09121932 0.0031933582
0000e0 c6 61 97 bd 8a cb 1e be 81 b5 11 3d 89 4c 5e be
       -0.07391696 -0.15507331 0.035573486 -0.21708883
0000f0 64 52 24 be da e5 91 bd 83 b9 21 3e 2a 5b a5 3c
       -0.16047055 -0.07123919 0.15793423 0.020185072
000100 7a ae df bd c0 cd af bd 23 57 b7 3d 1c 98 c1 bd
       -0.10921951 -0.085841656 0.08952167 -0.09452841
000110 a8 11 2b 3d f6 21 0a bd fa f6 e7 bd 63 d4 06 3e
       0.041764885 -0.033723794 -0.11326404 0.13166957
000120 5a 59 70 bd 10 dc 0a 3d 2b 83 0d be 34 fd 6a 3d
       -0.058678962 0.033901274 -0.13819568 0.05737038
000130 ba c4 e3 3c b8 d7 81 3d 56 ec 40 bd 13 66 2f 3e
       0.027803767 0.06339973 -0.047100388 0.17128782
000140 9a 72 48 bc a6 03 81 bd 41 2d 0b be 80 fe 69 be
       -0.012234354 -0.06299524 -0.13591482 -0.2285099
000150 9f 69 31 3e ce 6d ab bd 41 6f 08 be ca 41 d7 3d
       0.17325447 -0.08370553 -0.1332369 0.10510595
000160 f9 fd 03 bb 02 dd 39 3e 4e 03 d2 bd b3 7b f5 bd
       -0.0020140393 0.18150714 -0.102545366 -0.119864844
000170 d1 23 de 3c fb 3e 87 3d 6a 0a 80 3d 03 26 1f bd
       0.027116688 0.066038094 0.06251986 -0.03885461
000180 3b 2c 62 3d 4c af 72 3d 10 71 86 3d 1e 29 cd bd
       0.055217963 0.059249207 0.06564534 -0.10017608
000190 ba 51 ed 3d e4 fe 3e 3e cb e7 de bc 81 4f a7 3d
       0.11587854 0.1865192 -0.027210137 0.08169461
0001a0 da 68 ba 3d b2 11 1c 3e df cb 58 bd ba df a9 bd
       0.0910203 0.15241125 -0.0529288 -0.082946256
0001b0 ae 20 1f bc cd 74 2c be 31 25 49 bd bd ed 1d bd
       -0.009712381 -0.16841431 -0.049107734 -0.038556803
0001c0 b7 91 9c 3d 9c 2f 89 3d a3 75 85 3c dd 91 d0 bd
       0.076449804 0.06698534 0.016291445 -0.10184071
0001d0 12 a6 f8 3d f9 8b 0b 3e 05 63 9d bd 0c b7 69 bc
       0.121410504 0.13627614 -0.07684902 -0.014264833
0001e0 7c 5b 0d be b0 a9 07 3e 83 d5 1a bd 19 54 ff bd
       -0.1380443 0.13248324 -0.037801277 -0.12467212
0001f0 c1 64 1b 3d e5 75 c9 bd ab 7c 49 3e 39 7a dc 3d
       0.037937883 -0.0983694 0.19676463 0.107654996
000200 12 7d c8 3c 8e b2 83 bc d1 a7 47 3e 15 40 1f bd
       0.0244737 -0.016076352 0.1949761 -0.038879473
000210 93 15 a0 bd eb 99 38 3d d3 3d 02 3e 51 c5 5b 3d
       -0.07816615 0.045068663 0.12718897 0.053654972
000220 43 db aa 3d 2c 58 c7 3d e3 51 bd 3d 6f 40 94 bb
       0.08342602 0.09733614 0.09244134 -0.0045242826
000230 bb 2b 9e bd 31 c0 e1 3d 7c 3e 38 3e e2 c7 31 3e
       -0.07723185 0.11022986 0.17992586 0.17361405
000240 3e 05 b0 bd 77 b7 2f 3e c3 ae 55 3d ff 80 b4 bd
       -0.0859475 0.1715983 0.05216862 -0.088136666
000250 d9 69 77 bd b3 24 da 3c 8a bb f0 bd 90 e2 1c 3e
       -0.06040368 0.026628828 -0.1175452 0.15320802
000260 5c 1e 3d be ec 27 d5 3d 06 a3 12 3e a7 5d 2b 3c
       -0.18468612 0.10408005 0.14320001 0.01045934
000270 bc 7d 73 be c0 49 8f 3c 30 02 0d 3e b8 7f c4 bc
       -0.23778433 0.017491221 0.13770366 -0.023986682
000280 01 69 5a 3e bb ae 21 bc 09 b4 f6 3d 8a 0f 02 3e
       0.21329118 -0.009868319 0.12046058 0.1270124
000290 8e 57 26 3c ca 51 a7 bc 40 41 82 3d 3f 7b 20 bc
       0.010152711 -0.020424742 0.06360102 -0.009795009
0002a0 1a 84 32 3e 18 af bd 3d a0 fb 65 3e 83 cb 01 3e
       0.17433205 0.09261912 0.22459269 0.1267529
0002b0 9d 08 6a 3e a3 27 e5 3d 2d bf 09 3e 33 d8 22 3d
       0.22854848 0.11189201 0.13451834 0.039756965
0002c0 22 47 54 3e ec 8f 77 bd 7d cb c4 3d 3f 59 53 bd
       0.2073026 -0.06043999 0.09609125 -0.051598784
0002d0 15 52 78 bd 4d 0a 71 3e 2b 4f 5c 3d e2 c9 af 3d
       -0.060625155 0.23539086 0.053786438 0.08583428
0002e0 34 85 31 be 83 fc 0a 3d 5a 9c e6 bd f9 35 f1 3b
       -0.17335969 0.03393222 -0.112602904 0.0073611704
0002f0 37 4e d9 3d e8 f4 98 3d 8d 2e 20 3d 97 08 87 3d
       0.106106214 0.07468587 0.039106894 0.06593435
000300 e3 a4 aa bd 9f a9 a2 3c 61 48 61 3d 8d db f0 bd
       -0.08332231 0.019856272 0.055000667 -0.11760626
000310 e5 e6 92 3d d2 1b 27 3e c4 9c 60 3e 47 0f 47 3d
       0.07172946 0.16319206 0.21934801 0.048598554
000320 0c e5 52 3e 35 5a 1c 3b c5 a5 09 bd 1e b3 1b be
       0.20595187 0.0023857479 -0.033605356 -0.15205047
000330 1f 62 a4 bb d9 bb c1 3d ec 0e 8a bd 75 70 37 3c
       -0.0050165798 0.09459657 -0.06741127 0.011196245
000340 23 23 94 3c 48 61 5e 3d 15 6a 2c be 40 4a a0 3d
       0.01808316 0.054291993 -0.16837342 0.07826662
000350 38 6f 48 3e d0 1b af bd c7 fc ac bd 23 7c d0 3c
       0.19573677 -0.08550227 -0.08446651 0.025449818
000360 cb 4e 8c 3d 9a b1 32 bd 91 ba c1 3c 5b ee cf bd
       0.06850966 -0.043626405 0.023648532 -0.101528846
000370 d1 2e 8a 3d ba e6 2e 3d b8 62 9d bd 45 43 aa bd
       0.06747211 0.042700507 -0.07684845 -0.08313612
000380 ca 33 11 3e de 00 1d 3e 04 0c 00 bd 01 f9 12 3d
       0.14179912 0.15332362 -0.03126146 0.035882
000390 8a 3d 30 3e ca 7c 8a bd d7 8e 3b 3e f9 dd a0 3d
       0.17210975 -0.06762083 0.18316208 0.07854838
0003a0 46 6c b6 3d c6 20 dc bc f7 e7 f7 bd 8f 9e 0c 3e
       0.0890737 -0.026871096 -0.12104791 0.1373236
0003b0 c7 87 37 3e 52 a4 02 3e fe c4 c8 bd ee d3 6b bd
       0.17922889 0.12757996 -0.09803198 -0.05757516
0003c0 10 b7 92 bd 68 72 98 3c 9a c2 d6 bd 4a 16 86 bd
       -0.07163823 0.01860924 -0.10486336 -0.0654722
0003d0 0e 31 ea 3d a3 87 7e 3d 68 2d 82 3d 86 2b 06 bc
       0.11435138 0.062141072 0.06356317 -0.008189088
0003e0 f2 52 1f 3d e0 97 61 3d 97 6e c5 bd 5c c2 e4 bb
       0.038897462 0.05507648 -0.09640234 -0.0069811773
0003f0 1e bc 25 3e 66 d3 cd bd b8 c2 cc bb c8 d9 64 bd
       0.16185042 -0.10050087 -0.006248798 -0.055871755

conv4.bias f4 [256]
000000 b0 48 fc bc 3c d4 7c bc 09 71 17 3d ba f6 81 bd
       -0.030796379 -0.01543146 0.036973033 -0.063458875
000010 5d 71 37 3e 32 f5 25 be f7 8e f5 bd 53 d0 a7 bd
       0.17914338 -0.16206816 -0.11990159 -0.081940316
000020 7a 0f d7 3d a1 5e f4 bc 23 71 44 3e 01 1f c4 bb
       0.10500999 -0.029830279 0.19183783 -0.0059851413
000030 7a 52 6c be fa a4 95 bd 9c d3 bc 3d 2a 52 1f bd
       -0.23078337 -0.073068574 0.09220049 -0.038896717
000040 79 d9 87 3c 38 13 01 3d 8c 6a 99 bd a3 6b 45 3d
       0.016583191 0.03151247 -0.07491025 0.048198353
000050 0c 02 87 bd 5c d4 0f 3d 94 a8 ff 3b 2b 9b 09 be
       -0.06592187 0.03511463 0.0078020785 -0.13438098
000060 7f a1 18 bd 91 8c 00 bd 92 df 64 bd ac 81 e9 bc
       -0.03726339 -0.031384055 -0.055877276 -0.028504215
000070 c3 f1 a2 bb f2 4f 48 3d 5e 3d db 3c c7 74 75 3d
       -0.004972668 0.048904367 0.02676266 0.05992582
000080 ef d4 60 3d 05 62 0f be 48 02 40 3d 82 71 fe bc
       0.05489057 -0.14002235 0.046877176 -0.031059984
000090 09 ce 16 3c 8b 4f 09 bc ac 16 df 3c 6d f1 f5 bd
       0.009204396 -0.008380781 0.02723249 -0.12008939
0000a0 33 86 bd bd 13 92 85 bd 0f 4b 7f bb 28 19 0d be
       -0.09254112 -0.06522002 -0.003895465 -0.13779128
0000b0 45 14 55 bc 59 67 b5 bd 20 18 2c bd 75 8a f7 bc
       -0.013005321 -0.088576026 -0.042015195 -0.030217389
0000c0 fd eb 9b bd 63 5c ef bc 21 a9 0b 3e 1a bb 92 3b
       -0.076133706 -0.029218858 0.13638736 0.0044778707
0000d0 56 ca 26 bd 77 2f 1f bd 70 a2 85 3d 63 54 18 bc
       -0.040720306 -0.038863625 0.06525123 -0.009297463
0000e0 a6 91 c8 bb 79 35 ba 3a e5 c6 85 ba 0b ce 06 bd
       -0.0061208783 0.001420661 -0.001020637 -0.03291134
0000f0 b8 67 b2 bd 50 c8 05 be 05 e5 a4 bd d1 96 74 ba
       -0.08711189 -0.13064694 -0.080514945 -0.0009330335
000100 c3 60 e8 3c a4 30 50 be a5 2e 3c 3e 6b 14 89 bd
       0.028366452 -0.20331055 0.18377168 -0.066933475
000110 af 04 65 bd ec 31 8c 3d d7 53 93 3d 3d 1b 4c 39
       -0.05591267 0.06845459 0.071937256 0.00019465103
000120 15 a0 83 bd dd be 24 bd 55 f3 2f 3c 9b 5c 8d bd
       -0.064270176 -0.040221084 0.010739167 -0.06902429
000130 31 c7 85 bd 75 ca 17 be 73 54 b8 3c 96 ee 92 3d
       -0.06532133 -0.14823325 0.022501206 0.07174413
000140 72 74 72 bd 0a ab 46 bd 66 5f 6d 3d 9c 1f 50 bd
       -0.059193082 -0.04850296 0.057952307 -0.050811395
000150 45 0d 08 be 36 1e 59 3d 77 17 07 3d 43 bf 01 bd
       -0.13286312 0.053007327 0.032981362 -0.031676542
000160 bb ef c0 bd 76 8d 44 bc ce af f5 bd f2 23 df bd
       -0.09420725 -0.011996618 -0.11996423 -0.10895528
000170 6d fa c3 bb 1c db 38 bd 77 a6 b8 3c 0d 1d 75 3d
       -0.005980781 -0.045130834 0.022540314 0.059842158
000180 14 35 14 bd f5 5a 02 3d 6c f6 22 3c 70 f2 06 3d
       -0.03618343 0.031825025 0.009946447 0.03294605
000190 98 07 bd bd 72 8c 37 3c b9 08 9a bd 03 93 4c bd
       -0.09229964 0.011202918 -0.07521195 -0.04994489
0001a0 ca eb 6f 3b 9f 4a 4d bc 13 a4 1b 3d 5d 12 0b bd
       0.0036609047 -0.012529998 0.03799827 -0.03395306
0001b0 de c1 1d 3c 3b 63 d2 bc c2 cf 88 3d da 2c 74 bd
       0.009628741 -0.025682082 0.06680252 -0.059613086
0001c0 8e b2 0b 3d 4f 02 8e bd 34 f5 be 3b 48 91 8b bd
       0.03410583 -0.06934034 0.0058275703 -0.068148196
0001d0 98 d0 ba bd 3b 41 92 bd ae 71 36 3d 3e 89 2c bb
       -0.09121817 -0.07141348 0.044542007 -0.002632692
0001e0 a1 a9 f0 3c dc bb e9 3d fe 13 4e bd 3e 58 3d bc
       0.02937776 0.114127845 -0.050312035 -0.011556683
0001f0 c7 df c2 3c 30 9f e8 3c cb e8 31 be fb 8f 5e be
       0.023788346 0.028396219 -0.1737396 -0.21734612
000200 33 a3 87 bd 03 78 08 bb a5 89 53 bd 9c 8f 8a 3d
       -0.06622925 -0.0020823486 -0.05164494 0.067656726
000210 aa d4 71 3d c2 68 c5 bd ed 69 75 bd 04 4b 05 3d
       0.059040703 -0.096391216 -0.05991547 0.032542244
000220 58 ee 38 bc 15 21 85 3d e3 dd 80 3c b9 00 b6 bd
       -0.011287294 0.065004505 0.015730804 -0.088868566
000230 36 0e 00 bd c9 eb b2 3d f1 27 57 be 18 20 be bd
       -0.031263553 0.08736379 -0.2101133 -0.09283465
000240 83 28 06 bd 91 ce 90 bd cc 52 69 3c 20 2c a6 bc
       -0.03275348 -0.070706494 0.014240932 -0.020284712
000250 73 6e 8c bb 30 4b b6 3a 94 56 19 be d3 49 79 3d
       -0.0042856275 0.0013907906 -0.14974433 0.06086142
000260 8f f4 0f 3d f8 4c db bd 2d 0c 54 3c d0 82 11 be
       0.03514534 -0.1070804 0.012942356 -0.14210057
000270 c6 87 aa 3c 6a 80 73 bb c6 61 6a bd d4 db 77 bd
       0.020816695 -0.0037155398 -0.05722215 -0.06051238
000280 6c 3a 66 bd 54 d8 ce bd f1 a6 74 bc 5f 85 2f be
       -0.05620806 -0.10099855 -0.01493238 -0.17140721
000290 ce 8c e4 3b ea 0a 34 bd b2 57 03 be 21 94 11 bc
       0.006974793 -0.04395572 -0.12826422 -0.008885414
0002a0 ba 50 15 be 50 4b b3 bd a9 6b 2f bc 73 40 1d 3d
       -0.14581576 -0.08754599 -0.0107068205 0.03839154
0002b0 12 5e 46 bd 52 14 e3 ba 33 b5 47 bc d1 a6 2a 3d
       -0.048429556 -0.0017324782 -0.012189197 0.041662995
0002c0 2d a2 06 bd 7b 52 eb 3c f0 d1 83 bd 4e 90 a6 3c
       -0.032869507 0.028725853 -0.06436527 0.020332482
0002d0 e1 e6 fc 3c 88 e4 f2 bd 71 8c 80 bd c5 03 3f be
       0.03087181 -0.11859995 -0.06276787 -0.18653782
0002e0 4e 2d e3 bd 90 c2 7d bc f6 8a 49 be ed 35 b1 bd
       -0.110926256 -0.015488282 -0.19681916 -0.08652864
0002f0 5a 19 1e be 6e 7d 98 3c 24 18 81 bb c0 33 cd bc
       -0.15439358 0.018614497 -0.0039396454 -0.02504909
000300 6e c3 ee bc 50 94 46 bd 78 73 12 be 0b fb 64 3d
       -0.029145923 -0.048481286 -0.1430186 0.055903476
000310 f9 7a eb 3c 8e 12 07 3c d3 89 b6 bd 1b 6c 6a bd
       0.028745161 0.00824417 -0.08913007 -0.057232004
000320 b6 87 5c 3c 7c e4 74 bd 3d 28 e4 3b 8e ce f6 bc
       0.01346009 -0.059788212 0.0069628046 -0.03012779
000330 df 26 02 bd 48 55 39 bc 25 bc 2e 3d 31 cd 02 bd
       -0.03177535 -0.011311837 0.042659897 -0.031933967
000340 81 d1 56 bd d9 69 37 3e d5 23 64 3b 9b a7 4d be
       -0.052445892 0.17911471 0.0034811397 -0.20083468
000350 31 e3 20 be 9f 98 87 bc fa 27 2d 3d 78 c4 2f bb
       -0.15711667 -0.016552268 0.042274453 -0.0026819985
000360 20 1b 6c 3c 43 49 70 bd 1d 63 4e be a5 dd 39 bd
       0.014410764 -0.058663618 -0.20154996 -0.045377392
000370 52 64 7a bd 32 45 2c bd cc 95 a8 3c c4 5b b8 3b
       -0.06113083 -0.042058177 0.020579241 0.0056261737
000380 48 ee 9c 3d da 26 68 bd 98 11 ab bd f2 5a cf bd
       0.07662636 -0.056677677 -0.08352965 -0.10124768
000390 ce 63 8a bc 63 ac e2 bd 16 f7 7a bd 98 ba 4a bc
       -0.016893294 -0.110680364 -0.061270796 -0.012373589
0003a0 c7 70 3b 3c 5a 60 07 be 5a b0 b1 3d 30 02 f8 3c
       0.011440462 -0.13220349 0.086762145 0.03027448
0003b0 20 a0 12 3d 38 71 b0 bc a4 d8 b1 bc 39 cd f2 bc
       0.03579724 -0.021538362 -0.021709748 -0.029638873
0003c0 c1 41 d0 bb 28 e9 38 3c b9 02 54 bd 4b 61 a5 3b
       -0.0063554947 0.0112860575 -0.05176041 0.0050469986
0003d0 ab 69 59 3d be 8e 27 be 85 83 c3 bd 6b 7d fa bd
       0.05307929 -0.16363046 -0.0954657 -0.12230953
0003e0 bd 15 e1 bc d0 8f 54 bd da 6d 98 3b c5 0b e6 3c
       -0.027476186 -0.051894963 0.004651767 0.028081784
0003f0 76 e9 55 bd 24 8c 91 3c dd bb ab 3c 0e 0e 3b 3e
       -0.0522246 0.01776702 0.020963604 0.1826708

conv4.lin.weight f4 [256, 128]
000000 d7 3d aa bd e9 5b 5b bd f7 6a 94 3d 56 32 66 3d
       -0.08312576 -0.05355445 0.072469644 0.056200348
000010 35 18 7b 3d 20 42 c1 bd a4 f6 35 be 05 ea f9 bd
       0.061302382 -0.094364405 -0.17769867 -0.12202839
000020 97 7a 23 be 9f ce 92 ba c9 4c 93 3d 83 e8 c0 bb
       -0.15964733 -0.0011200494 0.0719238 -0.0058870926
000030 4e fc d6 bd 30 92 58 3d a0 67 8a 3d a7 ce 1c bc
       -0.10497342 0.05287379 0.06758046 -0.009570754
000040 15 62 4f bd db a7 6c bd b8 3a b7 bd 60 f8 24 bd
       -0.050630648 -0.057777267 -0.089467466 -0.04027593
000050 05 ea 6d bd 06 92 8d bd c4 4f 10 be d9 94 62 3d
       -0.058084507 -0.069126174 -0.14092928 0.055317733
000060 0d 7c 89 bd 6e 45 e7 bc 38 76 be 3d e2 f6 92 bd
       -0.06713114 -0.028231349 0.09299892 -0.071759954
000070 ad 23 8b 3d a4 8f af bc 76 4e 1a 3c 2a 7b 04 be
       0.06793914 -0.021430798 0.009418121 -0.12937608
000080 33 a6 6a 3d e8 95 0c be 38 d9 a5 bd ab 04 86 bd
       0.057287406 -0.1372906 -0.08098072 -0.06543859
000090 79 d0 ed bd 2f 39 c0 bd 33 95 df bd 37 fe 56 bd
       -0.11612029 -0.09385907 -0.10917129 -0.052488532
0000a0 32 56 20 be 64 45 80 3d e6 53 84 bd ad d9 a8 bc
       -0.15657881 0.06263235 -0.06461315 -0.020611608
0000b0 9f e9 bc 3a 25 a5 16 be f1 dc 56 bb 14 d3 3d 3d
       0.0014412886 -0.14711435 -0.00327855 0.046343878
0000c0 7c 65 3e 3d 5c a9 dc bc 18 4b be 3c 1b 9c cf 3b
       0.0464835 -0.026936226 0.023229167 0.006335748
0000d0 16 4c 1c be e2 64 b5 bc b7 f0 57 3d 46 50 35 be
       -0.152634 -0.022142831 0.052719798 -0.17706403
0000e0 a9 54 67 bd 2f 81 0b be 17 32 32 bd eb c9 ca bd
       -0.056477223 -0.13623498 -0.0435048 -0.09901794
0000f0 87 f0 13 bd 9a 96 1d be d8 5d 02 bd 00 c9 e3 3b
       -0.036118057 -0.15389481 -0.031827778 0.0069514513
000100 70 53 34 3c 07 7b 76 3d eb 9b cb bd c1 57 d2 bd
       0.011006221 0.06017592 -0.09941848 -0.10270644
000110 6c e7 a5 3b 6e 7f 75 bd d7 b6 25 be 4c b5 bf 3a
       0.005062988 -0.05993598 -0.16183029 0.0014626174
000120 bc 0b 90 3d fb 0c 9e bd ed 0d fd bd d4 fd ba bb
       0.07033488 -0.077173196 -0.12356172 -0.005706528
000130 79 73 68 3b d3 23 82 bd 38 e6 ae bb 8b f8 cc bd
       0.0035469218 -0.06354489 -0.005337503 -0.10008343
000140 c5 52 32 3d c0 43 0d be af 34 0a 3d 8e 5d 7b 3d
       0.043535966 -0.13795376 0.03374165 0.061368518
000150 2b d5 d1 bd cd d4 fe ba 9a 7e dd bd 1b 85 1d be
       -0.10245737 -0.0019442082 -0.10815163 -0.15382807
000160 e5 6a bc 3d 95 ff 7c bd db fb b2 bd 32 63 a7 bd
       0.09200076 -0.06176718 -0.08739444 -0.08173217
000170 38 8c 03 bd 7e 83 99 3c eb 3f 17 be 7d 0e 90 bd
       -0.032116145 0.018739458 -0.14770477 -0.070340134
000180 f4 7c b5 ba e2 3f 39 3b 97 03 fd bd 4f da 80 bd
       -0.0013846443 0.0028266837 -0.123542 -0.06291639
000190 e8 c8 72 3d dd 21 55 3d 78 a7 b0 3d 9a 45 53 ba
       0.05927363 0.052034248 0.08625692 -0.00080593827
0001a0 d9 2f 22 be 69 10 d3 bd ff 34 36 bc 27 78 d5 bd
       -0.15838565 -0.10305864 -0.011121034 -0.10423308
0001b0 25 5e 6b bd 8b 6f ab bd 41 e5 83 3d cf 29 8d 3d
       -0.05746283 -0.083708845 0.06440211 0.0689274
0001c0 18 66 8f 3d bc ee 41 bc 8a 6a fa bd e8 3e 6e 3d
       0.07001895 -0.011836704 -0.12227352 0.05816546
0001d0 43 80 1b be be a2 cd 3a c6 cb e3 bd 47 8f 6f bc
       -0.15185647 0.001568876 -0.11122851 -0.014621562
0001e0 a0 21 a9 bd 65 42 36 bd 14 e1 53 3d 49 27 9f bd
       -0.082583666 -0.044496913 0.051728323 -0.07771165
0001f0 a1 61 02 be 7f a7 04 bc 14 e1 db bd e4 29 00 be
       -0.12732555 -0.008096575 -0.107362896 -0.1251598
000200 60 db d9 3d 5e 19 0e be f0 51 d3 bd f1 11 1b 3d
       0.106375456 -0.13876864 -0.10318363 0.037858907
000210 10 1f 00 bb 95 37 75 3c 48 70 49 bd 47 f8 a6 bc
       -0.0019549765 0.014966865 -0.049179345 -0.02038206
000220 89 f3 a7 bd 39 6d a8 bc cf b2 14 be 24 04 e8 3d
       -0.082007475 -0.020559894 -0.14521335 0.11328915
000230 8d 05 d8 3c b0 82 1a be 8f 4b 29 3d 50 79 a5 3b
       0.026369834 -0.15088916 0.041331824 0.005049862
000240 25 1b 69 bd 8c 00 b4 3d 8f 3d 95 bd ad 14 a3 3b
       -0.056910653 0.08789167 -0.07287132 0.00497683
000250 2a a8 2b bd 04 60 f2 3c c8 de 5a bd d1 0c 8d 3d
       -0.04190842 0.0295868 -0.053435117 0.0688721
000260 c5 a9 a8 3d 0f 46 e8 3c 91 a4 09 be 41 a8 b2 bd
       0.08235506 0.028353719 -0.13441683 -0.08723498
000270 29 79 cc 3d 8b 7d 62 bd 5d 4e a2 bd 86 71 89 3c
       0.09984047 -0.05529551 -0.07925103 0.016777765
000280 86 ac f5 bd 78 83 2a 3d b6 63 0a bc 6b a7 96 bb
       -0.11995797 0.041629285 -0.0084466245 -0.0045975945
000290 c0 85 a8 bd b3 26 09 be f9 71 92 3d 2a fd 21 be
       -0.08228636 -0.13393669 0.07150645 -0.1581923
0002a0 85 1e 6b bd 8c 64 8e 3d 91 84 86 3c ef cf a1 3d
       -0.057402153 0.069527715 0.016420634 0.07900988
0002b0 dc ca 8c bd 81 06 58 3d b7 b4 cb bc dd 99 52 3c
       -0.0687463 0.052740578 -0.024866445 0.012854067
0002c0 1d 18 fc 3d f3 69 e3 3d 76 9a 60 bc e5 af d0 3d
       0.12309287 0.111041926 -0.013708701 0.10189799
0002d0 b1 ed 61 3c db a9 44 bd 44 05 8b 3d 94 31 eb bc
       0.01378958 -0.04801355 0.06788114 -0.028710164
0002e0 b1 81 95 bc 80 78 8f bd 6f d6 f8 bd b6 b4 b2 bc
       -0.018250318 -0.070054054 -0.12150275 -0.021814685
0002f0 bc 7b ae 3d 02 e5 f1 3d 5c 85 46 bd a7 09 bc bd
       0.08519694 0.11811258 -0.048467025 -0.091815285
000300 12 97 4b ba 90 c0 2d 3d 26 f9 ae 3d 83 16 bc 3c
       -0.00077663467 0.04241997 0.08543615 0.022959953
000310 c8 64 0d bc 85 c7 d2 bd 69 34 70 bc ea 00 d9 bd
       -0.008629985 -0.102919616 -0.014660933 -0.105958775
000320 d0 1c f8 bd 9e 57 54 3d 8b 91 5c bd fa c7 4a 3d
       -0.121148705 0.05184137 -0.053849738 0.04950712
000330 20 65 2b bd 9a 4d 06 bc 28 3a 04 be 48 0b 9b 3d
       -0.041844487 -0.008197213 -0.1291281 0.07570511
000340 5f c0 dc bd b5 dc dd 3c 1d 10 f7 bd d8 8e 1c 3d
       -0.107788794 0.02708278 -0.1206362 0.038222164
000350 f5 d9 85 ba 4b 6a 18 bd d2 f5 e2 3d ad b3 07 3d
       -0.0010212051 -0.037210744 0.11082043 0.033130337
000360 4f 47 c0 3b cd 8f c7 3c 9f 52 92 bc 03 ef af bd
       0.0058678756 0.024360562 -0.017861662 -0.0859051
000370 b1 fa cc 3a 38 30 67 bd a9 00 b9 bd 8c 8a ba bc
       0.0015638677 -0.05644247 -0.09033329 -0.022771142
000380 6c 19 08 3d e1 a6 c7 3c 69 e3 88 bd 5b e8 d4 3d
       0.03322737 0.024371566 -0.06684 0.10395881
000390 bb ac 00 be 58 23 4d 3d 7e e0 20 be f9 0b 73 bd
       -0.12565891 0.050082535 -0.15710637 -0.05933759
0003a0 57 5b a8 bd f6 24 29 be c1 21 88 3d 36 f0 a6 3d
       -0.08220547 -0.16518006 0.06647063 0.08151285
0003b0 23 ba d4 3d cc 5c eb 3a bf 00 9f bd e2 e7 47 bc
       0.10387065 0.0017956733 -0.07763814 -0.012201281
0003c0 be 22 a4 bd cb c3 94 3c 7b 6f 74 bd 43 dc 3e bb
       -0.08014439 0.018159768 -0.05967663 -0.0029122985
0003d0 2c fb 40 3d 87 d5 ac 3d c3 69 18 be ce d9 2b 3c
       0.047114536 0.084391646 -0.14884095 0.01048894
0003e0 82 a5 fa bb 23 88 9d bd 29 6f 84 3d 20 d3 32 bc
       -0.0076491246 -0.07691982 0.064665146 -0.010914594
0003f0 1d a6 17 3c a1 a2 e6 3c 28 59 4d bd 72 cf ce 3c
       0.009255913 0.02815372 -0.050133854 0.025245402

conv5.bias f4 [256]
000000 94 0b 07 35 a5 f0 6e 34 91 b7 8d 32 e3 8e b1 34
       5.030827e-07 2.2253023e-07 1.6498037e-08 3.3072783e-07
000010 62 5a f6 34 8b 93 8b b4 0c 96 90 35 de f1 3f b3
       4.5886833e-07 -2.599812e-07 1.0772505e-06 -4.469063e-08
000020 d6 4d 0a 35 12 53 44 b2 14 9d 05 b5 4b 8c 9c b4
       5.152227e-07 -1.14275895e-08 -4.977494e-07 -2.915934e-07
000030 73 f3 6c 33 df c2 72 b4 e7 f9 d4 b5 9d 93 a2 b5
       5.5169448e-08 -2.26089e-07 -1.5867962e-06 -1.2112902e-06
000040 5b 5a 27 b3 19 b2 87 35 1b cc 5c 35 b9 8a 01 35
       -3.8964895e-08 1.0110117e-06 8.22534e-07 4.8258113e-07
000050 21 e8 17 33 8f 5a e7 35 aa 21 20 b5 00 ad ea 33
       3.5368547e-08 1.7237197e-06 -5.965363e-07 1.09279426e-07
000060 c8 02 7a b5 85 e1 08 35 d4 f2 d8 32 51 a1 81 b5
       -9.3136305e-07 5.099212e-07 2.5256135e-08 -9.658198e-07
000070 03 1b 30 33 6e 1c ab 32 90 76 00 b3 c7 6c 69 35
       4.100276e-08 1.9919948e-08 -2.9910154e-08 8.6957556e-07
000080 c7 81 d3 34 b5 d1 3d b5 47 7b fd b3 07 3a 2e b3
       3.9396238e-07 -7.071315e-07 -1.18036546e-07 -4.0565308e-08
000090 a2 b5 df 34 4c 87 a1 34 01 66 c5 b5 6c 0e aa b3
       4.1669142e-07 3.0087028e-07 -1.4707331e-06 -7.918865e-08
0000a0 9d c3 77 b5 7c e7 76 b5 f7 b1 a0 b4 c8 c4 3f 37
       -9.2299325e-07 -9.1978995e-07 -2.993181e-07 1.1430304e-05
0000b0 bb 0d 51 35 28 bb 82 35 25 d3 f8 b5 cd 44 e9 b2
       7.787855e-07 9.740224e-07 -1.8538891e-06 -2.7156057e-08
0000c0 4f 6c ed b4 01 4d c9 34 f3 1b 14 35 67 d8 42 35
       -4.4223495e-07 3.7495195e-07 5.517497e-07 7.258554e-07
0000d0 34 9f ad 35 ef 6b 3f 35 f7 57 9a 33 13 08 f2 35
       1.2935839e-06 7.131011e-07 7.1871845e-08 1.8032755e-06
0000e0 57 e8 ad b5 94 93 7e b5 52 76 68 34 9a dc 97 34
       -1.2957124e-06 -9.483713e-07 2.1649728e-07 2.828645e-07
0000f0 a6 af 26 b6 27 51 18 35 26 67 d9 b3 45 19 9f 35
       -2.4838168e-06 5.6742505e-07 -1.01236125e-07 1.1853778e-06
000100 35 e8 77 34 44 26 da 34 21 37 c1 34 78 ac 2a 33
       2.3088144e-07 4.0633506e-07 3.5989163e-07 3.973807e-08
000110 1a 04 d5 b2 79 a7 e5 b5 01 0d 26 b1 b0 d2 28 33
       -2.4798329e-08 -1.711057e-06 -2.4163571e-09 3.9307167e-08
000120 4a a9 b2 35 cc 20 c5 b4 05 1f b2 b2 ee c1 f6 b3
       1.3311303e-06 -3.6717972e-07 -2.0736033e-08 -1.1490543e-07
000130 0c fd 3a b4 e7 59 2a b5 ad b6 f8 34 35 57 86 b5
       -1.7414658e-07 -6.346076e-07 4.6326514e-07 -1.0009159e-06
000140 2f 80 89 34 70 f3 23 34 3d e2 80 b2 6a 76 a0 34
       2.5611504e-07 1.526912e-07 -1.5004042e-08 2.988848e-07
000150 a0 a5 9b b5 2e 34 25 36 b7 24 04 34 b0 a3 9c 32
       -1.1596603e-06 2.4617289e-06 1.2306815e-07 1.8235227e-08
000160 56 39 8b b3 27 7a 29 b6 b4 1f cd b5 de 59 f9 b4
       -6.483121e-08 -2.5254064e-06 -1.5282917e-06 -4.644525e-07
000170 8a b6 2d 33 b3 24 8b b3 7b 44 a3 34 94 47 1c b5
       4.044572e-08 -6.4793674e-08 3.0410942e-07 -5.821869e-07
000180 ee f5 2b 34 65 ae a8 32 4d ea a8 33 08 b4 45 35
       1.6015085e-07 1.963708e-08 7.865729e-08 7.36502e-07
000190 ae 2d d7 b3 6e 64 c7 34 1f df 1b 35 60 b4 b4 b4
       -1.0020027e-07 3.713971e-07 5.8066684e-07 -3.3658853e-07
0001a0 14 d8 23 b4 90 74 73 32 35 07 ed b5 91 92 48 34
       -1.5259167e-07 1.4170965e-08 -1.7659974e-06 1.8679772e-07
0001b0 94 e3 28 34 93 c0 53 b4 c5 48 8a 32 c5 5c c5 34
       1.5729012e-07 -1.9720964e-07 1.6098406e-08 3.6761608e-07
0001c0 19 2c be 34 40 b5 a4 33 2b b2 56 b2 d7 f9 59 33
       3.5422343e-07 7.669814e-08 -1.249695e-08 5.0751478e-08
0001d0 5a d5 e1 b4 85 63 cc 33 9f fe 83 35 d9 f6 59 b5
       -4.206475e-07 9.517593e-08 9.834365e-07 -8.119801e-07
0001e0 1a 11 e8 34 7b a7 18 34 94 5c c2 33 c6 e4 c1 b4
       4.322581e-07 1.4217032e-07 9.050669e-08 -3.6115506e-07
0001f0 6a 36 a3 b3 42 33 8e 33 fd 29 d7 33 91 1d 7b 35
       -7.600177e-08 6.621714e-08 1.0019355e-07 9.354781e-07
000200 02 4e 8f 35 ea 50 08 34 a7 bf a1 b4 64 b3 71 35
       1.0677034e-06 1.2695423e-07 -3.0128032e-07 9.0040544e-07
000210 b5 b1 fc 34 f5 80 3f 35 90 30 6b 35 4e cd 33 34
       4.7067957e-07 7.13407e-07 8.761499e-07 1.6745363e-07
000220 b3 fe 74 33 84 97 b4 34 05 12 6b 34 5e 8f 76 35
       5.7042325e-08 3.3637855e-07 2.1892636e-07 9.185077e-07
000230 d2 3e 65 35 f6 4c 44 b4 c4 60 b1 b4 ae 07 2f 34
       8.5400563e-07 -1.828192e-07 -3.3039225e-07 1.6300939e-07
000240 95 bd a6 34 1e 23 9f b5 f6 aa 0a b4 14 be 05 35
       3.1057849e-07 -1.1856644e-06 -1.2914447e-07 4.982296e-07
000250 bb 66 a3 b1 ab 08 83 b4 8e 37 8e b3 c7 84 12 b5
       -4.7556035e-09 -2.4406958e-07 -6.6224956e-08 -5.4582455e-07
000260 dd 5e 31 34 de 47 45 b3 fb e1 2a b5 59 3b ed 34
       1.651892e-07 -4.5933e-08 -6.365878e-07 4.418787e-07
000270 b2 b3 f7 b4 b3 95 a8 b4 1b e1 a0 34 62 d7 3d b3
       -4.613808e-07 -3.140136e-07 2.9966108e-07 -4.420088e-08
000280 8d e1 0f 34 af 86 5c b5 cd ce 5a b5 6d 7c 23 b5
       1.3399968e-07 -8.2152377e-07 -8.1512263e-07 -6.0903295e-07
000290 1b d1 0b 36 35 2b 00 b5 ef 0d 1e b6 94 f2 14 35
       2.083433e-06 -4.774659e-07 -2.3551945e-06 5.5487294e-07
0002a0 86 82 82 35 b1 a8 99 34 05 2c 0a b4 7c 56 62 b5
       9.723742e-07 2.862121e-07 -1.2868266e-07 -8.431741e-07
0002b0 33 af 2b 35 4b 6d a1 b4 f4 8e 4c b3 af 3f 43 b4
       6.395741e-07 -3.0068108e-07 -4.7627466e-08 -1.8183958e-07
0002c0 2e 80 b8 b4 e7 ac e4 b4 c5 6c 9a b4 c7 54 16 b4
       -3.4365934e-07 -4.2594112e-07 -2.8763876e-07 -1.400068e-07
0002d0 c8 a9 34 b4 e8 74 dd b5 08 0e 9d 34 4d 10 6b b4
       -1.6825572e-07 -1.6499807e-06 2.9253738e-07 -2.189201e-07
0002e0 81 36 71 b5 1e f0 90 b4 02 e7 08 b5 b9 e1 81 34
       -8.985881e-07 -2.6996798e-07 -5.100011e-07 2.4192357e-07
0002f0 0b d6 4e b5 c0 44 6f b5 94 67 ed 34 9d 0c ec 36
       -7.7052454e-07 -8.913448e-07 4.4220053e-07 7.0348165e-06
000300 a6 32 5c b5 50 97 db b5 3a 32 09 35 b6 9c b0 b3
       -8.203009e-07 -1.6360809e-06 5.1109566e-07 -8.224144e-08
000310 60 8d 93 34 a8 91 95 34 9e 1c af b3 5f 51 f4 34
       2.7483748e-07 2.7859392e-07 -8.154278e-08 4.5507747e-07
000320 6b d4 06 b4 60 91 1a b4 79 e8 b0 35 69 19 b4 b2
       -1.2557e-07 -1.4395255e-07 1.318068e-06 -2.0966313e-08
000330 71 06 8f 35 97 23 aa b2 dd 0e ab b5 8e 16 1e 34
       1.0656205e-06 -1.9806789e-08 -1.2744819e-06 1.4723102e-07
000340 a1 93 a2 b3 2c af 1e b5 44 97 57 35 b4 b2 93 b3
       -7.5705664e-08 -5.9114495e-07 8.031386e-07 -6.877727e-08
000350 f6 5c b5 35 cf 76 95 b5 7a 7d 3c b3 41 ff 7d 33
       1.3512606e-06 -1.1135943e-06 -4.388628e-08 5.9138305e-08
000360 60 69 90 b4 04 62 d5 33 64 f0 4e b3 c1 40 d1 b3
       -2.689876e-07 9.9364144e-08 -4.8181747e-08 -9.7440996e-08
000370 6c c5 14 33 a2 17 98 b4 9b 14 8b b5 af c9 27 b4
       3.463849e-08 -2.83294e-07 -1.0362304e-06 -1.5626459e-07
000380 6f a0 cb b4 e8 fc 9f 34 33 fa 2a 34 10 df a3 32
       -3.7928427e-07 2.980007e-07 1.5923506e-07 1.9077135e-08
000390 d6 03 8f 35 98 53 a1 b4 45 04 f6 33 2c 9a 18 36
       1.0655447e-06 -3.004941e-07 1.1456044e-07 2.2739505e-06
0003a0 0b fd 43 34 e7 6f 77 35 d1 75 30 b4 63 88 71 34
       1.8252847e-07 9.217751e-07 -1.6434139e-07 2.2494491e-07
0003b0 fe 24 49 b4 62 0f b5 b4 b8 e4 75 b5 bf 91 0b 33
       -1.8733041e-07 -3.372507e-07 -9.160244e-07 3.2496015e-08
0003c0 e9 62 73 b5 a5 f4 a2 32 7e 6e 1c b4 5a 69 70 32
       -9.066849e-07 1.8970534e-08 -1.4568829e-07 1.3993793e-08
0003d0 95 3a 6c b4 98 b6 87 b4 f3 8f aa b2 78 07 18 b5
       -2.2000525e-07 -2.5278564e-07 -1.9856065e-08 -5.663528e-07
0003e0 e9 1f 09 35 4a 73 00 32 6d 22 09 b5 3b d2 11 33
       5.108291e-07 7.476794e-09 -5.1086573e-07 3.3951647e-08
0003f0 ab 74 73 b6 da cb 44 b5 77 37 3f b5 01 b5 c7 33
       -3.6277731e-06 -7.3312333e-07 -7.1233757e-07 9.299584e-08
